genesis_tutorial/logs/drone-hovering/model_100.pt (torch, 474410 bytes, 36 tensors)

std f4 [4]
000000 3f 32 3d 3f fc a4 5a 3f 79 74 15 3f 2e e1 53 3f
       0.73904794 0.85407996 0.5838085 0.8276547

actor.0.weight f4 [128, 17]
000000 fd 86 f6 3d d4 ed 36 bd 5c 3f a0 3e 99 d1 75 be
       0.12037466 -0.044660404 0.3129834 -0.24005736
000010 83 51 cf 3e 8f f6 02 be ad 5d f7 3e 9b 28 0d 3d
       0.40491876 -0.12789367 0.48313656 0.034462553
000020 ee ca 1b 3e 94 d0 2a 3e b0 dd 3a 3d de de 7e 3d
       0.1521413 0.16681129 0.045621574 0.06222426
000030 11 bc 01 3e ef 0e 18 3d 4f 6f 7e bd fe 99 a0 3d
       0.12669398 0.037123617 -0.06211787 0.07841872
000040 f1 15 d1 3d 2d 6b f5 bd cd ac 8e be 58 46 fb be
       0.10209263 -0.11983333 -0.27866212 -0.49077106
000050 da 19 92 3d f0 11 f4 3d 9b ae fe 3d e1 38 bb bd
       0.07133837 0.11917484 0.12435647 -0.09141708
000060 0c 4f aa 3d ed 52 eb 3d de 79 c2 bd bc 5b 36 3e
       0.08315858 0.11490426 -0.094959006 0.17808431
000070 5c be 87 bd 56 2d d3 3c bc 2e 3a 3d 98 46 dd bc
       -0.06628105 0.025778454 0.045454726 -0.0270112
000080 20 a0 9f bd 16 85 b3 bd 15 45 81 3e ae 61 ad bb
       -0.07794213 -0.087656185 0.25248018 -0.0052911853
000090 0f fd 65 3e cf ad cb bd 3d 11 29 3e 18 85 d9 be
       0.22459815 -0.09945261 0.16510482 -0.42484355
0000a0 ce cf 29 3d 9a d4 2e be fb d9 91 bc e1 3a 6f bd
       0.041457944 -0.17073289 -0.017804136 -0.05840576
0000b0 aa 01 47 3e 5c 9e 7a bd 8b e7 93 3d 21 29 e0 3c
       0.19434229 -0.06118618 0.07221898 0.027363362
0000c0 50 45 19 bd ed 80 39 be 25 a0 73 bd ed c2 c9 3d
       -0.037419617 -0.18115588 -0.059478898 0.09851632
0000d0 4c 3a e6 3c 2d ad ca 3e ed bc 0b 3e 1f 7b 82 be
       0.02810397 0.39585248 0.13646288 -0.2548456
0000e0 8a 70 a5 be e3 f7 cf be 56 5f d9 be 6f fa 7e be
       -0.32312423 -0.4061881 -0.42455548 -0.2490022
0000f0 d0 54 5f be 44 0a 90 bd 9c a0 92 be 37 bc 04 be
       -0.21809697 -0.07033208 -0.2863816 -0.12962423
000100 37 4e 04 3d 69 f3 a7 bd 5a 01 40 3e ab e1 37 3e
       0.032301154 -0.08200724 0.18750516 0.17957179
000110 16 b0 56 bc b2 52 f0 3e e8 11 4c 3d 30 63 d8 bd
       -0.013103506 0.46938092 0.049821764 -0.105657935
000120 e0 83 1c 3f 2d 49 33 bc 79 f3 f1 3e a7 c0 00 3c
       0.61138725 -0.010942739 0.47256067 0.007858432
000130 21 ec 85 3e d1 b5 46 3e 1a eb 62 3d 28 11 3e bd
       0.26156715 0.19405295 0.05539999 -0.04640308
000140 ae 81 3e 3e 32 59 18 3e c3 fd 1c 3e 4c 1c 9d 3d
       0.18604156 0.14877775 0.15331177 0.07671413
000150 7b 96 c1 bd c3 c1 25 be 9e 12 0a 3e 30 e1 ab 3d
       -0.0945253 -0.16187195 0.13483664 0.083925605
000160 fa 54 01 be 94 ea e3 3e 9d 57 ef bd d7 3c 05 3f
       -0.12630072 0.44514906 -0.11686633 0.5204596
000170 a7 cc 1e 3d 2d 30 d1 3d 5c da 52 3d 42 80 a7 bd
       0.03876939 0.10214267 0.051477775 -0.0817876
000180 fa 64 b4 3d 98 3b eb 3d 7a 69 b9 bc b5 dd c9 3c
       0.08808322 0.11485976 -0.022633303 0.024641851
000190 9e 80 ba bc 24 52 04 3e 7f ce 95 3d 63 f0 ce be
       -0.022766408 0.12921959 0.07314777 -0.40417776
0001a0 78 8e fc 3d d4 5e c8 bd fa 56 a2 3e de 8a ab be
       0.12331861 -0.09783712 0.31706983 -0.33504385
0001b0 30 34 87 3d 90 01 7f be 66 82 97 be 75 c2 8d bd
       0.06601751 -0.2490294 -0.29591674 -0.06921855
0001c0 b9 12 3a be cd 22 f1 3d 02 96 f2 bc c0 38 eb bd
       -0.18171205 0.11774216 -0.029612545 -0.114854336
0001d0 c0 2c 20 be 4f 6c 90 bd c1 ce 93 3d 57 da 81 be
       -0.15642071 -0.07051908 0.072171696 -0.25361893
0001e0 52 29 b6 be 02 33 d6 be 47 b3 c9 3d 9e e9 10 bf
       -0.355784 -0.4183579 0.098486476 -0.5660647
0001f0 40 53 e3 3d 1a f2 c1 bd 82 fb c0 3e 70 89 48 be
       0.11099863 -0.09470005 0.37691885 -0.19583678
000200 6a de a3 be 6e 5b df bc b5 14 be 3d 59 d9 b2 bd
       -0.32005626 -0.027265277 0.09281293 -0.08732862
000210 61 50 ab bd be 8d 1c 3d c2 79 39 3d 43 0e 3b be
       -0.083649404 0.038221113 0.045282133 -0.18267159
000220 43 26 34 be 24 69 03 3f 67 55 86 be 91 2b 2d be
       -0.1759272 0.51332307 -0.26237032 -0.1691115
000230 61 87 4c 3f 1e 6e a3 be e9 18 ae 3e ef f5 18 3e
       0.7989407 -0.3191995 0.3400338 0.14937566
000240 7e 7c 62 3e be 45 45 3e 06 dc 89 3e 6a 4c c9 bc
       0.22117803 0.19264886 0.26925677 -0.02457257
000250 10 61 e2 bd bc ff 4d be 02 e7 b6 3d 95 3c 3f 3d
       -0.110536695 -0.20117086 0.0893078 0.046688635
000260 4c 82 96 bd 34 cd c4 3e 6a 51 e5 3e d4 28 f4 3c
       -0.07349071 0.38437808 0.44788677 0.029804625
000270 4d c3 c5 3c 6a 5a a4 3e 06 b9 2c bf 73 f7 c4 be
       0.024140978 0.3210023 -0.67469823 -0.3847004
000280 14 3f 9b be 2b 29 3e 3d ba 57 73 be 73 8f 53 3d
       -0.30321562 0.04642598 -0.23763934 0.051650476
000290 86 eb 07 be b9 63 02 3e a9 b3 b9 bd 7a b8 d9 bd
       -0.13273439 0.12733354 -0.090674706 -0.10630889
0002a0 f7 1f 63 3e a1 cc 5c bd f6 b7 a9 bc 59 77 34 3e
       0.22180162 -0.053906087 -0.020717602 0.17623653
0002b0 31 d8 0f 3f 0f 6d 1f be 70 97 d6 3b ea ac 96 be
       0.56189257 -0.15568946 0.0065488145 -0.29428798
0002c0 40 a5 ce 3d 56 12 01 3d e6 52 12 3d 59 cb 22 be
       0.10090113 0.031511627 0.03572359 -0.15897883
0002d0 38 38 e9 3a 85 bc 69 bd b8 93 e9 3c b6 df 26 3d
       0.0017793244 -0.05706455 0.02851282 0.04074069
0002e0 07 3e 24 3d 46 c8 f2 bc 48 21 9e 3c 13 87 15 3e
       0.040098216 -0.029636513 0.01930298 0.14602308
0002f0 20 72 01 3d 67 56 43 bf ab d6 4d 3c 57 63 5f bd
       0.03160298 -0.76303715 0.012563388 -0.054538097
000300 c2 f3 01 3f 1d 4c bc 3e 21 d9 24 bc eb 87 43 3e
       0.5076257 0.3677682 -0.010061533 0.19094817
000310 e8 f8 58 3e 44 03 9f 3d aa 01 0c bc 60 67 30 3e
       0.211887 0.07764295 -0.008545319 0.17226934
000320 b3 2e 9d 3c 16 10 b7 3c a4 9d ff bd 45 ce 57 bc
       0.019187307 0.022346538 -0.124812394 -0.013171737
000330 33 c3 a6 3e 31 b8 ad 3e c3 a5 2a bf aa 38 92 3d
       0.325708 0.3392959 -0.6665918 0.07139714
000340 de 9d 60 3e d3 bd 8b 3e 2b 3d 75 bd b3 b4 a6 be
       0.21935222 0.27293262 -0.059872787 -0.32559738
000350 9d fe b5 3e 33 7a db bd 19 4b c7 3c 5b ed f9 3d
       0.35545817 -0.10716667 0.024327802 0.12203475
000360 76 15 cb 3d bb 76 41 bd a5 77 2a bd 4a 62 c5 39
       0.09916203 -0.04723237 -0.04161801 0.00037648
000370 84 88 a1 3d 07 eb 32 bc 70 e0 8c 3e cd 68 b9 be
       0.078873664 -0.010920293 0.27514982 -0.3621277
000380 03 5b d4 bd 6d 1d 20 3f c9 f8 db ba 6c e8 55 bd
       -0.103689216 0.625449 -0.0016782518 -0.052223608
000390 56 aa 67 3e e0 ae 9e 3e fd 92 b3 3d b0 0b 6d 3d
       0.22623572 0.30992794 0.0876827 0.057872474
0003a0 ff 99 66 bd f2 59 e7 3d 53 52 c3 bd 95 ca de bc
       -0.056299206 0.112964526 -0.095371865 -0.027196208
0003b0 4e 36 eb 3d 51 b3 26 3d ce 53 05 be 5e ac ac be
       0.11484967 0.040698353 -0.1302025 -0.33725256
0003c0 e9 45 81 bd 9c 90 27 3d e8 29 52 be a7 6e c2 3e
       -0.063121624 0.040909395 -0.20523798 0.37975046
0003d0 9c cc 52 3d 58 e8 9c 3e a6 e1 b5 bc 19 76 5b be
       0.051464662 0.30646014 -0.022202324 -0.2143177
0003e0 e2 97 b2 bd 62 57 ac 3d 1e 85 df 3d 35 d0 98 bd
       -0.087203756 0.084151044 0.10914062 -0.07461587
0003f0 f2 3e 10 bb 42 bf ed bb ff a2 e5 bd 34 3f fe bd
       -0.0022010175 -0.0072554657 -0.1121273 -0.12414399

actor.0.bias f4 [128]
000000 33 9e c0 3d 9e 44 0b 3e d0 75 22 3e cf 82 da bd
       0.09405174 0.13600394 0.15865254 -0.10669481
000010 0f b7 85 bd 2f 2c ba 3b 36 57 09 3e 19 03 fb 3d
       -0.06529056 0.0056815366 0.13412175 0.1225645
000020 6e 6f 49 3e 3a a5 1c bd 9c 0e 6b 3d ae 85 35 bd
       0.19671413 -0.03824351 0.05738698 -0.04431694
000030 2e 5a 68 3d e5 fb d0 3d f0 90 e0 b9 09 8c 3e bd
       0.056726627 0.10204295 -0.00042832596 -0.046520267
000040 c3 45 6d 3c 5f 0d e5 3d 4f 69 3c bc 10 83 4e be
       0.0144819645 0.11184191 -0.011499717 -0.20167184
000050 a4 0c 69 bd bc f9 38 be 39 c0 cc 3a eb 8a 0b be
       -0.05689682 -0.18064016 0.0015621252 -0.13627212
000060 de 1f 7b bc 48 ed 19 3d e9 63 36 3e cf 14 20 be
       -0.015327422 0.037579805 0.1781155 -0.15632938
000070 f4 b6 66 be 1e 2e 28 3e fb f4 1a 3e ad 8a 18 be
       -0.22530729 0.16423842 0.15132515 -0.1489665
000080 91 0e c3 bd b9 06 07 be b5 31 ac bc d4 4c 28 3b
       -0.09524263 -0.13186158 -0.021019796 0.0025680559
000090 26 46 81 3d 32 ff 83 3e be 93 61 3d 18 10 35 3b
       0.06312208 0.25780636 0.05507254 0.0027628
0000a0 f9 71 48 be ec 8f 2f 3c 03 94 10 bd c7 6f 8b bd
       -0.19574727 0.010715466 -0.035297405 -0.06808429
0000b0 b0 8b b1 bc 30 56 e1 3d 5d 06 db bd aa 93 1b be
       -0.021673054 0.11002767 -0.10694573 -0.15193048
0000c0 02 de 17 3e e7 81 fd 3d bb db af bc eb 81 8e 3d
       0.14830783 0.123782925 -0.02146708 0.06958374
0000d0 2a 2b 8b 3d 04 1e a1 bc 6d 29 f4 bd c5 14 91 ba
       0.06795342 -0.019667633 -0.11921964 -0.0011068812
0000e0 1e 7c 0f 3e 14 43 04 bc 17 d4 2a be e7 64 c3 bb
       0.1401219 -0.008072633 -0.16682468 -0.005962956
0000f0 65 18 b6 3b 55 74 d7 bc 28 0a 8f bd 97 34 83 3c
       0.0055571073 -0.026300589 -0.06984359 0.016016288
000100 ae 53 2c 3a 16 b9 8a bc 31 7f 5f bd cd 3e 45 3d
       0.00065737485 -0.016933959 -0.05456466 0.048155595
000110 22 7d 4e be f4 5a a8 3d ae 29 68 be c6 cc 23 3c
       -0.20164922 0.08220473 -0.2267215 0.009997552
000120 e8 02 03 bd cd bd 0c be af c2 c3 bd 63 bd 11 be
       -0.031985193 -0.13744278 -0.09558617 -0.14232402
000130 5c b6 2f bd 1c 48 49 be 6d fe 0a bc f5 68 21 be
       -0.04289852 -0.19656414 -0.008483511 -0.15762694
000140 1b ce 1f bd 66 f6 20 bb c5 cd 11 3e f7 3c c6 3d
       -0.039014917 -0.0024560927 0.14238651 0.09679597
000150 08 66 b6 3d 3f f1 73 3d 88 f8 40 be ae c9 30 be
       0.0890618 0.059556242 -0.18844807 -0.17264435
000160 85 0e 9d 3d 05 1c 1b 3e 60 ec 1f be ff 5d 59 3e
       0.07668785 0.15147407 -0.15617514 0.21227263
000170 e9 e0 a1 3d d2 4a b1 3c 62 f7 e5 3b 6e 71 c6 bd
       0.07904226 0.021642122 0.0070180157 -0.09689604
000180 8b 7a 3b 3d e7 b2 65 bd 5f 6b ab bd 54 ae 5b 3e
       0.045771163 -0.056078818 -0.08370089 0.2145322
000190 45 ce 9a 3d 3d aa 86 bc 0b eb 0a 3e 25 a4 a0 3d
       0.07558874 -0.016438598 0.13566224 0.07843808
0001a0 19 53 d0 bd 38 16 14 be 84 49 9f 3d 60 dd aa bd
       -0.101720996 -0.14461601 0.07777694 -0.08343005
0001b0 31 5c 29 bd 74 96 91 ba 04 3e 0e be 97 4e 2e be
       -0.041347686 -0.0011107461 -0.13890845 -0.17022167
0001c0 8c 4a 01 be 3a 25 aa 3d be 21 82 bd b5 56 ae bc
       -0.12626094 0.08307882 -0.06354092 -0.02128158
0001d0 0e aa 8a 3d 8e 74 a1 bd 21 d9 68 3d 72 b2 1e bd
       0.067707166 -0.07883559 0.056847695 -0.038744397
0001e0 f1 8b 87 3d fd 7a 6c 3c be 75 9b 3d 18 65 08 be
       0.066184886 0.01443362 0.07590817 -0.13319814
0001f0 7a f3 e4 bd 79 d2 34 3e c0 32 3a be ba b1 e8 3d
       -0.11179252 0.17658414 -0.18183422 0.11362024

actor.2.weight f4 [128, 128]
000000 32 28 ad 3d f5 55 84 3d e2 d8 ed 3c 0a da 7d 3a
       0.08454932 0.064617075 0.029034082 0.00096836744
000010 63 4a ad 3c 71 73 78 3d e3 a7 6f 3d 36 39 25 3d
       0.021153634 0.06065697 0.05850972 0.040337764
000020 37 79 34 ba 77 ec 02 3d 93 dd 3a bb 94 23 cb bc
       -0.00068845175 0.03196379 -0.0028513416 -0.024797238
000030 44 6d 8c bd eb e6 a6 3c 57 07 93 bc 1e 7f 52 bc
       -0.06856778 0.020373782 -0.017947836 -0.01284769
000040 6e 8b ae 3b 7b fd 91 3b e5 bd 3a bc c9 db ca bd
       0.00532668 0.004455266 -0.011397813 -0.09905202
000050 19 38 83 bd 7a d6 b9 3c a0 fd e5 3c ff 63 53 bd
       -0.06407184 0.022685278 0.02807504 -0.051609036
000060 88 3f 9e bb dc 00 cf bb ae 1b 5b 3d b0 71 31 3c
       -0.004829351 -0.006317241 0.053493194 0.010830328
000070 03 78 ba bc 87 28 3f bd 6d e0 77 3d 43 46 1b 3d
       -0.022762304 -0.04666951 0.060516763 0.037908804
000080 06 5a 42 bd b2 d1 fe bb e9 f0 c6 3c 81 2a cf 3c
       -0.047449134 -0.0077764625 0.024284797 0.025288822
000090 bd e4 c5 3b 26 84 80 3d 52 ff 31 bd f8 d6 c9 3c
       0.0060392306 0.06275205 -0.043456383 0.024638638
0000a0 4e 06 a8 bd 8e 56 46 bd 18 77 ab 3d f9 8f 31 bc
       -0.082043275 -0.04842239 0.08372325 -0.010837548
0000b0 9c 72 9d 3c b4 09 18 3d f5 5f 80 3c f3 57 d2 3c
       0.01921969 0.03711863 0.015670756 0.025676703
0000c0 45 13 b0 bc 77 b9 f1 bb 65 ec 11 bd 39 b8 59 3d
       -0.021493563 -0.0073768455 -0.035625834 0.053154204
0000d0 a1 73 a0 bd e3 87 db 3d aa da 18 bd 0c e3 c4 3d
       -0.078345545 0.10719278 -0.03731791 0.09613618
0000e0 96 a4 4a bd 7b 2c 97 3d 76 d1 ab 3d df 1d 55 3d
       -0.049473368 0.07381531 0.08389561 0.05203044
0000f0 e2 6f 8a 3b 0d 4f 58 3d 85 ea cc bd 86 71 70 bd
       0.0042247633 0.052809764 -0.100056686 -0.058702014
000100 9d 7a 91 3c 27 5e 76 3d 50 b0 96 bc 89 11 4e bd
       0.017758662 0.060148384 -0.01839462 -0.05030969
000110 3a 6d ba 3c e1 13 ce 3d 2c 62 b7 3c 55 01 af ba
       0.022757161 0.10062385 0.02238568 -0.0013351837
000120 c0 a5 5b bb 33 99 1b bd 9d d5 15 bd f8 d3 d3 3c
       -0.0033515543 -0.0379879 -0.03658067 0.02585791
000130 94 3e 26 3d f2 77 fe 3b 06 99 55 bc cc a7 3b bd
       0.040587023 0.0077657634 -0.013036972 -0.04581432
000140 e2 6f 0f be c0 ea 67 3d a4 a4 82 3d 5e 76 c5 3b
       -0.14007524 0.05662036 0.06379059 0.0060260734
000150 13 2e f0 bc 96 2b af bd 39 b6 08 3d 50 33 47 3d
       -0.029318845 -0.08553235 0.033376906 0.04863292
000160 ac fa f1 bc 04 57 8e 3d b4 b2 0c bc de 8e 43 bd
       -0.029538475 0.06950191 -0.008587528 -0.04774367
000170 fa 87 8b bd c9 71 d3 3c db 08 ac bc ce 22 21 3d
       -0.06813045 0.025811093 -0.021000316 0.039339833
000180 0f 95 b0 3d f4 c0 2f 3c 57 c1 7c 3d 35 6a 65 bb
       0.08622181 0.010727156 0.06170782 -0.0035005931
000190 c3 4b 94 bc fe 4f 0b bd 83 8f 25 3d b6 96 10 3d
       -0.018102532 -0.034011833 0.040420067 0.03529998
0001a0 d0 94 37 bd 19 ed 8d 3c e2 d8 28 bd 87 50 66 3d
       -0.044819653 0.017324971 -0.04122246 0.05622914
0001b0 a2 dd 57 bd 0b c4 42 bd 04 09 0f 3d 0e 2d 51 bd
       -0.0527016 -0.047550242 0.034920707 -0.051068358
0001c0 f8 94 04 bd 5d 3b 89 bc e5 c3 6c bd d9 c0 87 3d
       -0.03236863 -0.01675194 -0.057804007 0.0662858
0001d0 2b 16 5f 3d 2a 06 99 3d 19 57 ab 3d 70 81 8b bd
       0.0544645 0.07471879 0.08366222 -0.068117976
0001e0 dc bc 83 bd 95 f3 48 bb bc 4f 35 bd b8 6c b8 ba
       -0.064325064 -0.0030662764 -0.044265494 -0.0014070487
0001f0 7d 8e 01 bd e0 0f f0 3c bf c2 13 bd 6e d1 0c bd
       -0.031630028 0.029304445 -0.036074396 -0.034379415
000200 75 a8 71 bd 88 8e 9a 3c d5 3b 8d bd 6e eb 63 3d
       -0.058998544 0.018866792 -0.06896178 0.055644445
000210 d9 12 b2 3c e3 c1 b1 bc d7 a9 2b bb 82 0b 8e bb
       0.021737503 -0.021698898 -0.0026193762 -0.004334868
000220 58 fd 03 bd e2 7d 3f 3b 1f c1 fa bd 3f 73 74 3d
       -0.03222403 0.002921932 -0.12243866 0.05968022
000230 8c 3e e7 bc 2c f7 91 3d 11 30 83 bd 39 3a 90 3c
       -0.028228067 0.071272224 -0.06405652 0.017605888
000240 f4 dd 7f 3a b7 82 ec bb 6a 48 f4 3b 0e 49 72 3d
       0.00097605516 -0.007217731 0.0074549215 0.0591517
000250 5c 05 db bc dd 5c ac bd 52 89 ef bc c3 f8 db bb
       -0.026735954 -0.0841615 -0.029240284 -0.0067130043
000260 7c 68 59 3d 25 87 05 bd c5 97 8f 3d 8a 27 5d bd
       0.05307816 -0.032599587 0.070113696 -0.053992786
000270 b4 d3 a1 3d fb d6 2f bd c8 f0 fb 3b 74 20 70 3d
       0.07901707 -0.04292963 0.0076886155 0.0586247
000280 25 dc 4a 3d 9b 02 b1 bd 25 b1 fe 3a 4a 1a 6b bd
       0.049526352 -0.08643075 0.0019431455 -0.057398118
000290 96 5c 81 bd 51 1f 38 bd 0d d7 59 3d 9c b0 ed 3c
       -0.063164875 -0.04495174 0.053183604 0.029014878
0002a0 ee 4b 89 bd 3f 98 84 3c e8 0e 45 3b 0a 43 28 3d
       -0.067039356 0.016185878 0.00300687 0.04107956
0002b0 6b 4c 6b 3d e0 f8 83 3b 2a e1 fc bb 89 45 00 bd
       0.057445925 0.004027471 -0.0077172713 -0.031316314
0002c0 1a 30 2a 3c a1 9b b1 3d e6 55 19 bd e2 d4 2f 3d
       0.010387445 0.08672262 -0.037435435 0.04292763
0002d0 ae 36 5f bd f6 36 2f ba 2e 82 50 3c 43 e1 84 3d
       -0.054495506 -0.000668391 0.01272635 0.06488278
0002e0 07 1d 70 3d 45 08 93 bc 26 db a2 3d e4 4d 94 3b
       0.058621433 -0.01794828 0.079519555 0.004525887
0002f0 cb b5 a7 bd 81 b9 7f bc f8 8a 39 bd 9c 53 d4 bc
       -0.08188971 -0.015608192 -0.045298547 -0.025918774
000300 70 ef 39 bd 5c a0 18 3c 85 72 79 bc 8e 32 9a bc
       -0.04539436 0.009315576 -0.0152250575 -0.018822934
000310 3a 29 1c bd 4c c3 63 3d 8f 3d 1e 3d 04 7c 19 bd
       -0.038125254 0.05560617 0.038632926 -0.037471786
000320 e5 66 a9 bc 2a cf 4e bd 7a fa bb ba 94 ac 4d 3d
       -0.020678947 -0.050490536 -0.0014341616 0.05021341
000330 78 ed 7a 3d ef 31 44 bd 38 e1 01 bd 9b a6 b0 bd
       0.061261624 -0.047899183 -0.031708926 -0.086255275
000340 e1 b6 60 bd ad 87 6a bd bf ec 57 bb 82 76 5f bd
       -0.054861907 -0.057258297 -0.0032947508 -0.054556377
000350 07 87 35 bc 4d e6 4b 3c c3 5a 3f bd 92 39 8b bc
       -0.011079556 0.012445045 -0.046717416 -0.016995225
000360 68 da 6b bd eb 9b 69 3d 2f e2 c2 3c 5c a1 8b bd
       -0.057581335 0.05703346 0.023789493 -0.06817886
000370 9d 0e 88 bd 95 07 ad bd ab 53 1f bd c9 b9 c0 bc
       -0.06643412 -0.08448712 -0.03889815 -0.02352609
000380 0c 5e e0 3c 07 9c f6 3c 67 dc 0f bd 23 88 7e 3d
       0.027388595 0.030103697 -0.0351223 0.06214155
000390 00 bc c4 b7 b5 99 53 3d d4 97 8f bd e1 e3 ee bc
       -2.3452565e-05 0.05166026 -0.07011381 -0.029161396
0003a0 38 8a cb bc ab c5 1c 3d 8a 49 71 bc aa 47 dc bd
       -0.024846181 0.03827445 -0.014727006 -0.10755856
0003b0 45 f4 77 bb 36 df 92 3d 26 6b 69 bd 1b 6c b8 bc
       -0.0037834805 0.0717148 -0.05698695 -0.022512486
0003c0 54 09 0d bd 14 2a 13 bd b7 67 17 3d d3 06 cb bc
       -0.034432724 -0.0359288 0.036964145 -0.024783527
0003d0 35 bd 85 3c 5d 38 39 bd d9 ae ad 3c 74 0b c0 bb
       0.016325573 -0.045219768 0.021201538 -0.0058607403
0003e0 25 fc b0 bd 56 de ea bc 4b 60 06 bd a6 f6 88 bd
       -0.08641843 -0.028670471 -0.032806676 -0.066876695
0003f0 64 5f b6 bd 3d 1e 18 3d f7 1a ac 3d bf a9 eb 3c
       -0.08904913 0.037138212 0.08403581 0.028767465

actor.2.bias f4 [128]
000000 fc 3b 16 3d 12 db 39 bb b8 23 a1 3c 31 8a 5c bd
       0.0366783 -0.0028359336 0.019670352 -0.053842727
000010 92 3f d0 3d 51 29 90 bd 2b 8f 63 bd 89 cf ee bc
       0.10168375 -0.070391305 -0.055556457 -0.029151695
000020 0f 2e b9 3d 6b 74 fe 3c 27 c3 9d 3b c9 6b df bc
       0.09041988 0.031061372 0.0048145237 -0.027273076
000030 25 e9 dd bb 1c 85 73 3d 63 24 30 bd 2f 61 d7 3c
       -0.0067721778 0.059453115 -0.04300345 0.026291458
000040 57 b0 19 3d 49 67 a2 3d 5b be 72 bc 89 21 a2 3d
       0.037521686 0.07929856 -0.014815892 0.079165526
000050 35 cd 68 3d f4 4b d3 b9 2b 9c 09 bd 07 46 48 bc
       0.056836326 -0.00040301646 -0.0335962 -0.012223727
000060 91 f9 75 bc 81 c1 d8 3c cf 15 7b be bf 3b 11 3d
       -0.015013115 0.026459457 -0.24520038 0.03545737
000070 21 42 32 bd 4e 29 50 bd 09 b2 6e 3e 82 0d 36 be
       -0.043520097 -0.05082064 0.23310103 -0.1777859
000080 7f e3 1a bd e6 5c b5 3d e4 dd 15 3d 2a 9d 1b 3d
       -0.037814613 0.088556096 0.036588565 0.03799168
000090 33 c5 ac bc 74 32 36 bd a3 ff ad 3d fe a1 dd 3c
       -0.021090126 -0.04448171 0.084960245 0.027054783
0000a0 60 8c 95 bd 9c 16 af 3c f1 5e cf 3c a2 4e a5 3d
       -0.07302165 0.021373086 0.025313826 0.08071639
0000b0 03 49 8d 3d 12 bf be 3b 57 f7 97 bd aa 0e 75 3d
       0.068986915 0.005821117 -0.07420223 0.059828438
0000c0 54 5c 49 3b 5a 58 27 bb c1 a1 c2 39 c0 ff 81 3c
       0.0030725198 -0.002553484 0.0003712308 0.015869021
0000d0 4f 29 b2 bb f6 21 8d 3d 79 cb 8c 3d 1a 7d d3 3c
       -0.0054370533 0.06891243 0.06874747 0.025816489
0000e0 23 8d 50 bd 9e dd 96 3c e3 bb c1 bc 50 48 60 3d
       -0.05091585 0.018416222 -0.023649162 0.054756463
0000f0 78 1e c8 3d 15 b6 5b bc 74 18 8e 3d 6e 70 87 bc
       0.097714365 -0.013410111 0.06938258 -0.016533103
000100 b5 e3 e2 bd 6e 73 6b bd 92 e4 88 3e 63 3e 32 3d
       -0.11078588 -0.05748313 0.26736885 0.043516528
000110 0c 3f 37 bc bd ff 5d 3d 0d 4c 44 bd 5d 5b 74 bd
       -0.011184465 0.05419897 -0.04792409 -0.059657443
000120 e5 41 57 3d ce d4 bf bc d1 06 15 3d fb 5c 5b bd
       0.052553076 -0.023416903 0.036383454 -0.05355547
000130 5d 76 72 3e da 4f 59 3d cb 58 15 bd a3 8a 75 bd
       0.23677965 0.053054668 -0.036461633 -0.059946667
000140 95 1a 3a bd d1 75 40 3d 4a c9 e0 bb d5 88 30 bd
       -0.045435507 0.04698736 -0.006859933 -0.043099243
000150 a7 ae a9 3c ff 33 1e 3d 58 07 98 3d 3e 2d 60 3d
       0.020713164 0.038623806 0.07423276 0.054730646
000160 6c 81 f1 3d f8 8b 8e bd 54 e0 5c 3d ce 52 fd 3c
       0.117922634 -0.06960291 0.053924873 0.030923273
000170 69 4c 5e 3d 32 84 c9 bd 45 ee 33 3d 86 15 6f bd
       0.05427209 -0.098396674 0.043928403 -0.058370136
000180 3e 4a a5 bc 9b 0e 7b bc 71 54 40 bc fd f3 0e bd
       -0.020177003 -0.015323306 -0.011738882 -0.034900654
000190 80 77 6e 3c 47 9f 40 bd dd 8a 7c bc 51 dc 0e bd
       0.014554858 -0.0470269 -0.015413967 -0.03487808
0001a0 fe ee a7 bd 64 30 7a 3d 62 e9 39 3d 9b df 03 be
       -0.08199881 0.061081305 0.045388587 -0.12878267
0001b0 b1 23 04 bd 6a 50 55 bd ed 48 53 3d 89 65 5d 3c
       -0.0322606 -0.052078642 0.05158322 0.013512977
0001c0 1f 0a c7 bd 5a cb 1c 3d f3 e1 2c bc a1 50 07 3e
       -0.09718727 0.03827987 -0.010551917 0.13214351
0001d0 c5 17 68 3d 00 b5 17 be ed 18 f6 3c 63 9f 2e bd
       0.056663293 -0.1481514 0.030041182 -0.04263247
0001e0 fc cf 69 3c 32 a0 8c bc 6b a0 24 3c 20 d2 99 3d
       0.014270779 -0.01716623 0.010048012 0.07510781
0001f0 b7 c1 6e bc ec ae 01 bd 33 c3 89 3c a3 f8 e7 3c
       -0.014572552 -0.03166096 0.016816711 0.028316801

actor.4.weight f4 [4, 128]
000000 4c 15 a1 3a b8 50 6c ba 66 60 94 3c 57 4c c6 bb
       0.0012289672 -0.00090147136 0.018112373 -0.006051581
000010 0f f2 95 3c 47 26 38 bc 44 c3 6f b9 69 8e 7f bb
       0.0183039 -0.011239595 -0.00022865558 -0.0038994795
000020 2c 4a 09 3c 78 cf 1f bb f5 be 29 3b 2f a1 db bb
       0.0083795 -0.0024385136 0.0025901173 -0.006702564
000030 92 34 89 ba e1 b4 9a b9 b5 02 02 3c a7 3b 1f bc
       -0.0010467938 -0.00029507934 0.007935216 -0.009718812
000040 df 7d 04 3c 59 a2 45 3a bc a7 e5 3b 31 38 8c 3c
       0.008086651 0.00075391453 0.007008521 0.017116638
000050 68 40 2a bb 59 1d 19 3c d5 46 2f bb 94 26 86 3a
       -0.002597833 0.009345376 -0.00267451 0.0010234886
000060 92 dc d2 bc 4b 4a 6f bc c4 62 fb 3c 8d 6d be bb
       -0.025739942 -0.014605115 0.030686744 -0.0058113993
000070 aa 02 b3 bd 4a 74 e0 3b c7 28 c6 39 d4 c4 85 bd
       -0.087407425 0.0068498002 0.00037795884 -0.065316826
000080 de 5d 50 3b c6 18 8f 3c 70 fe 9b bb a6 94 38 3b
       0.003179423 0.017467868 -0.004760556 0.0028164773
000090 25 ea e7 bb 6f 9b f4 bb 91 04 cc 3b 5e a5 0d 3b
       -0.0070774728 -0.007464818 0.0062261303 0.002161346
0000a0 21 70 9a bc f8 da 7e 3c 17 43 db bd b4 c6 6c bc
       -0.018852295 0.015555136 -0.10706156 -0.014451671
0000b0 a1 f8 c2 3b 40 a0 51 3c 7e f1 47 be 56 db 59 3c
       0.005950049 0.012794554 -0.19525716 0.013296923
0000c0 4b c0 58 3d 2e f8 50 bc 6d 4a 5a 3b 81 b1 2c 3b
       0.05291776 -0.012754483 0.0033308521 0.0026350918
0000d0 b1 9f 8e bc 18 e8 10 bb 2f e9 14 3a ab 88 8b b9
       -0.017410131 -0.0022110995 0.0005680499 -0.00026613972
0000e0 e4 f5 dd 3a a9 2a 15 bb 8f bc 51 3b 1c 4d 3c 3b
       0.0016934243 -0.0022761023 0.0032003259 0.0028732484
0000f0 8d b5 04 3c a6 1c 43 ba e0 6e ab b9 7a d4 37 bc
       0.008099926 -0.00074429286 -0.0003269827 -0.011220092
000100 40 11 9a bd 24 d5 53 bd 60 af 37 3e 37 b5 2e 3e
       -0.075228214 -0.05171694 0.17937994 0.17061315
000110 ce 68 db ba eb bd ca 3b 96 53 ae bb f1 f7 01 bc
       -0.0016739608 0.006187191 -0.005320023 -0.007932649
000120 03 0f 19 3c 0f 4a 96 3c 79 a3 3e 3b a7 cc 70 ba
       0.009341958 0.01834586 0.0029089137 -0.0009185769
000130 6e c1 c3 bc 5c 2e e8 3c 60 10 b6 3b 06 a9 db 3b
       -0.023895945 0.028342418 0.0055561513 0.006703499
000140 82 06 42 bb 48 cc 26 3c ea e6 10 3c 2f 84 91 3b
       -0.002960593 0.01018054 0.008844117 0.0044408063
000150 27 b3 2a bd 40 18 68 bc b5 4f 04 3d e0 4a f8 b9
       -0.04167476 -0.014165938 0.032302577 -0.00047358032
000160 39 a8 87 bb c3 90 84 bb fc 3c 35 3b bb d2 6c bd
       -0.0041399268 -0.0040455773 0.0027654758 -0.057818156
000170 4e dd d2 3b 5a 59 ec ba dd 3c 4b 3b cf c9 67 bc
       0.006435073 -0.0018032 0.003101162 -0.014147236
000180 65 d1 0f bc d9 61 fc ba 79 20 02 bc d6 2b 7c bd
       -0.008777951 -0.0019255235 -0.007942312 -0.061565243
000190 11 a8 42 bc 45 49 6d 3b 52 79 62 bc 53 a0 57 3b
       -0.0118808905 0.0036207002 -0.01382287 0.0032901957
0001a0 4f df e5 bc da e2 97 3b 71 65 6d 3c 26 e8 cc bb
       -0.028060583 0.004635197 0.014489518 -0.00625326
0001b0 4e e1 08 3c 3e 99 26 3c 2d e2 e0 3d 56 0f 00 bc
       0.008354498 0.010168372 0.109806396 -0.007816156
0001c0 53 c8 1b 39 4a 3c 6f ba f0 ed 83 3b f1 70 2b 3d
       0.00014856578 -0.000912611 0.004026167 0.041855756
0001d0 5c 72 bd 3a 82 9a 51 bd 5a a6 d0 bb bc b9 49 3b
       0.0014453637 -0.05117274 -0.006367487 0.0030780872
0001e0 f2 f6 53 ba 44 1c 62 3b eb bf 22 3c 95 85 15 bc
       -0.0008085809 0.003450171 0.009933452 -0.009126087
0001f0 b7 d2 53 3c 86 d6 0d 3b 82 2b 31 3d 14 8c ac bb
       0.012928656 0.0021642759 0.043254383 -0.005265722
000200 ff fc 22 bc 52 db 58 3c 61 64 97 bc b0 36 0e 36
       -0.009948014 0.013235884 -0.018480482 2.1191481e-06
000210 01 9d aa bb 47 1e bb ba 4a 8c 11 3c af 75 b4 3b
       -0.0052067046 -0.0014275991 0.008883545 0.005507193
000220 57 8b 97 3c c2 ba 88 3c ea a9 9e 3c 5e 74 6a 3c
       0.01849906 0.016690616 0.01936813 0.014309971
000230 9f 3d 61 ba 06 f7 d8 3a 67 c6 8f bb ea 62 3c 3c
       -0.0008592251 0.0016553111 -0.004387665 0.011498192
000240 84 e0 b9 37 ac 96 ff 3b b3 07 a5 bb 21 af ac bb
       2.2158267e-05 0.007799944 -0.005036318 -0.0052699004
000250 d3 30 15 3c 89 c5 86 3b 2c b5 fc bb 3a 3f e0 bb
       0.009105879 0.0041129035 -0.007712027 -0.0068434747
000260 b5 1f ec bb 59 39 c1 3c 75 51 12 bd 41 4e 98 3c
       -0.007205928 0.023586916 -0.035722215 0.018592002
000270 27 2f a7 bd a4 ac ba bb 85 aa 4d 3d c5 64 45 be
       -0.081632905 -0.00569685 0.05021145 -0.19276722
000280 32 7a 39 bb 00 45 23 3d f0 26 b9 3c e8 d9 b8 3d
       -0.0028301594 0.039860725 0.022601575 0.09025937
000290 3f 51 0a 3c 27 52 a8 3c a5 4b d2 3b 61 08 01 bc
       0.008442222 0.020546986 0.006417709 -0.007875533
0002a0 1f c4 af 3b 77 8a c0 bb 8e c4 b7 3d 5a fc 02 3d
       0.0053639556 -0.0058758813 0.08973037 0.031978942
0002b0 0f 9a ab 3b a3 55 12 bc 08 89 5b 3e ad e8 85 3b
       0.005236871 -0.00893155 0.21438992 0.004086575
0002c0 c1 09 da bd 03 0f 15 3c 93 e7 46 3c 68 e3 40 3a
       -0.10646392 0.009097817 0.0121401725 0.0007358105
0002d0 78 a1 ba ba c7 e9 c7 3b 55 67 9d 3b af bd 17 3c
       -0.0014238795 0.0061008665 0.004803578 0.009261533
0002e0 a7 de 09 3c d4 de fb b8 4c 9d 98 3a 7f 45 44 3c
       0.008414901 -0.00012010118 0.0011643558 0.01197946
0002f0 40 31 6b 3b 95 8a 6e 3b 07 9b 01 3d 14 49 a1 3b
       0.003588751 0.003639852 0.031641986 0.0049220417
000300 ce 8a 00 bc 23 33 92 bd f5 2d 02 3e ed b6 d7 3d
       -0.007845594 -0.0713866 0.12712844 0.10532937
000310 52 b8 69 b8 6b 9b 7a bc 48 6e d1 bb 39 31 a7 bb
       -5.572319e-05 -0.015295844 -0.0063913204 -0.0051023033
000320 b9 35 82 bc 3b f9 7b bc 09 da 3d 3c 96 db 81 bb
       -0.015894758 -0.015379245 0.011587628 -0.0039629443
000330 96 45 73 3e eb 8c b9 bc e4 54 96 bc 63 66 09 bb
       0.23757014 -0.022650203 -0.018351026 -0.0020965568
000340 e7 10 85 b9 b8 6a 5d bb 61 ef 02 bc cb d4 02 bc
       -0.0002538033 -0.0033785533 -0.007991643 -0.007985304
000350 8b a9 20 3d 6c ad 05 3c fc 06 b7 bc fd 77 90 3b
       0.03922419 0.008159023 -0.022342198 0.004408835
000360 5e b5 1d 3d 34 ac 66 bc b0 41 9d 39 e1 5a 9a ba
       0.038503043 -0.014079142 0.00029994315 -0.0011776352
000370 60 c0 93 3c 1b 86 a8 bc b6 fb 18 3c 9a 0a a1 3b
       0.018036067 -0.020571759 0.009337356 0.004914594
000380 64 25 3a bb 24 d1 71 3b 81 83 e0 bc ba dc 72 3d
       -0.0028403634 0.003689834 -0.027406456 0.059292533
000390 c4 8d 3c 3c 85 69 e7 3a 4d ac b8 3c a5 21 db bb
       0.011508409 0.0017655349 0.022543097 -0.0066873604
0003a0 c2 75 05 3c b4 58 78 bb f5 90 94 bc ff d8 e9 bc
       0.008145751 -0.0037894668 -0.018135527 -0.028545855
0003b0 81 88 5f bc da 1e 00 bd 4d e8 99 bc 6e 29 bc b9
       -0.013643385 -0.031279422 -0.018787527 -0.00035889022
0003c0 ce f5 7c bc bb 29 c5 bb 2e e8 66 3c f6 e5 53 3d
       -0.015439464 -0.0060169376 0.014093442 0.05173298
0003d0 16 42 f7 bb 77 42 de bc f9 89 6e bb b8 19 27 bb
       -0.00754572 -0.027131302 -0.0036398156 -0.0025497507
0003e0 a5 a1 ec 3b 8d 3d 63 3c aa a5 9f 3b 1e d7 53 3c
       0.007221418 0.013869655 0.0048720436 0.012929706
0003f0 aa da 08 bb c8 7b cf 3b bf a5 9d 3c f4 e8 ae bb
       -0.0020882287 0.0063318945 0.019244073 -0.005337829

actor.4.bias f4 [4]
000000 2c 2b 22 3e a4 05 2b 3e 70 97 5b 3e 18 bd 0c 3e
       0.15836781 0.1670137 0.21444488 0.13744009

critic.0.weight f4 [128, 17]
000000 c0 23 1e be c9 3e 51 3e 38 78 8e 3e 26 08 32 3e
       -0.15443325 0.20434107 0.27826095 0.17385921
000010 53 31 75 3e 31 3f f3 bd 15 eb 2f 3c 2c d6 62 3e
       0.23944597 -0.11877287 0.0107372 0.22152013
000020 cb 31 26 bd 2e 8a 3c 3d 97 74 3b 3d 37 c1 cb 3d
       -0.04057483 0.046030216 0.045765486 0.09948962
000030 44 3d ec bc 49 88 74 3d a0 f7 3b 3c 3f 53 ab bc
       -0.028837807 0.059700284 0.011472613 -0.020913718
000040 74 4f 49 bd ee 2b 0c bd 42 ec 16 be 34 10 fb be
       -0.049148038 -0.034221582 -0.14738563 -0.490358
000050 38 ff 8d 3d e3 e9 47 3c 3f 60 b1 3c 99 ff 8b be
       0.06933445 0.012201759 0.021652339 -0.27343443
000060 ba e8 4b 3d f0 ff 4f 3e 04 09 06 3d b5 23 bd bd
       0.049782492 0.20312476 0.03272344 -0.09235326
000070 f8 95 62 3d da 99 b5 3d 9a a1 df 3d 85 76 20 3d
       0.055318803 0.088672355 0.10919495 0.03917553
000080 a1 8e d8 bd 1f dd 6e 3b 84 cd 3d 3e cc d2 d9 bd
       -0.10574079 0.0036447716 0.18535429 -0.106359094
000090 95 61 7c 3f f9 ef 80 be a2 87 a9 be 34 b9 16 be
       0.985864 -0.25183085 -0.33111292 -0.14719087
0000a0 df b4 21 3e 32 47 fd bd 63 33 09 bd 0f b6 d4 3c
       0.15791653 -0.12367095 -0.03349627 0.025965719
0000b0 9a 42 4c 3c a3 dd bf 3c 88 0b 1c be 6a e5 a6 3d
       0.012467051 0.023421114 -0.15238774 0.08149226
0000c0 1b 9d 76 bd 98 fb 52 3c 06 07 aa 3c 5e 7b ac 3e
       -0.06020842 0.012877367 0.020755302 0.33687872
0000d0 a9 2e 00 bd 34 83 d1 3e ea dd 91 bd 40 56 81 3d
       -0.0312945 0.40920413 -0.07122405 0.06315279
0000e0 56 52 77 be de f9 bd 3d c8 ab 85 bd 6b 72 36 bd
       -0.24152502 0.09276174 -0.06526905 -0.04454271
0000f0 3f a6 b0 bc 68 59 32 3d 0a 02 37 bd 54 38 08 bd
       -0.021563647 0.043542296 -0.04467968 -0.033256844
000100 2c 72 c9 3c 8a ca 98 bd f4 07 bf 3d 72 a0 a7 bb
       0.024590574 -0.07460506 0.09327689 -0.005115562
000110 54 94 3a 3e 15 db d9 bd 94 06 08 bd 93 d1 40 3e
       0.18220645 -0.1063749 -0.0332094 0.18829946
000120 1a 6a 20 be 1a 55 83 3d 44 0a d7 bd 03 05 7b bc
       -0.15665475 0.06412716 -0.10500005 -0.015321019
000130 9d ff ff 3c 49 ee de bd f8 7c 45 3d 92 7e 04 3d
       0.031249816 -0.10885293 0.048214883 0.03234727
000140 e0 02 af 3d 3c 0b f7 3d 3f ae 08 3e 92 04 2b be
       0.0854547 0.1206269 0.1334772 -0.16700962
000150 64 8e a4 bd 59 ad 0a 3d f3 7c 5d bf 25 d8 72 bf
       -0.08034971 0.033856723 -0.8651878 -0.9486106
000160 66 db 40 3e b2 78 5f 3e 7c db df 3d 0c b3 31 be
       0.18833694 0.21823385 0.10930535 -0.17353457
000170 66 ac ce 3d b5 b3 03 3c 5f 4a 2b be cb 06 d5 3c
       0.10091476 0.008038451 -0.16727589 0.026004216
000180 3f b3 c8 bd b6 1b 10 3e 54 34 d7 3c c8 3f 99 bc
       -0.097998135 0.14073071 0.02627007 -0.018707171
000190 7a 45 14 bd e8 35 2b bd b5 3d c9 3e fa d7 21 3e
       -0.03619907 -0.041799456 0.3930489 0.15805045
0001a0 4f 9e 3f bf 2f 0c 18 3d b5 e6 09 3e 21 65 44 be
       -0.74850935 0.037120994 0.13466914 -0.19179203
0001b0 6a 15 d8 bd 51 b3 e2 3d 87 ac 5b bc 85 ea 11 be
       -0.105509594 0.11069358 -0.013407833 -0.14249618
0001c0 17 97 c4 3c 55 61 dc 3d 63 56 94 3e bc ef 1c 3e
       0.023997827 0.10760752 0.28972158 0.15325826
0001d0 27 54 52 3b ee cf 5a be 11 92 86 bd c1 a4 bf be
       0.0032093616 -0.21368381 -0.06570829 -0.37430385
0001e0 9c d5 cc 3d d8 3d 23 3f ac c0 c2 3d 87 98 b9 3d
       0.1000168 0.6376624 0.095094055 0.090622954
0001f0 6d 02 e5 bd 89 74 08 be f6 fe 6c bc bd b5 cc bd
       -0.11182103 -0.13325705 -0.014465084 -0.09995601
000200 ec b7 0b be 15 76 9f bb 1a ed 0f 3e 9d e4 03 bd
       -0.1364438 -0.0048663714 0.14055291 -0.032200444
000210 88 18 20 3b 47 cb b6 bc 40 07 18 bc 44 64 5c bd
       0.0024428684 -0.022313727 -0.009279072 -0.05380656
000220 7d 3f 01 3d 6d 94 b6 3c 1e 14 b0 be 7e e3 3e 3d
       0.031554688 0.022287572 -0.34390348 0.046603672
000230 1d 4c 35 3d 64 cf 64 3c d9 68 fb 3d 63 d5 82 3d
       0.04426204 0.013965461 0.122758575 0.063883565
000240 74 f5 1b be c3 06 32 bd 74 e2 16 bd 59 fe b6 bd
       -0.15230352 -0.04346348 -0.036837056 -0.08935232
000250 4c 25 02 be 14 d9 e9 bd 6e b0 8d 3a 81 ed 72 3d
       -0.1270954 -0.114183575 0.0010810026 0.059308533
000260 79 ba 04 bd 02 d8 3a 3e 50 12 0a be 9c c8 9c bf
       -0.032404397 0.18246463 -0.13483548 -1.2248721
000270 cb 19 5e 3e dd a2 bd bd 58 f1 6c bd 69 dd 41 3e
       0.21689527 -0.09259579 -0.05784735 0.18932118
000280 d1 18 cf 3c 9c 5e 04 be 48 9b b3 3d 44 77 2e bc
       0.025280388 -0.12926716 0.08769852 -0.010648552
000290 67 21 37 bb a6 ad 01 be 38 6c 1e 3d 37 61 ab bb
       -0.0027943493 -0.12663898 0.038677424 -0.005230095
0002a0 f4 fa 9d 3d a8 e3 1a bd 35 13 88 3e 3d e0 2e bd
       0.07713881 -0.037814766 0.26577154 -0.04269432
0002b0 8e 25 94 be 99 23 40 bd dc e4 53 be b9 e3 82 be
       -0.28934902 -0.04690895 -0.20692772 -0.25564364
0002c0 59 3e 4c 3e 5f 22 0e be 57 71 56 be d1 59 48 3e
       0.19945659 -0.13880299 -0.20941673 0.19565512
0002d0 2d 42 fe 3c cb c3 ec bd b7 ab 51 bd 7a 5f 91 bb
       0.031037414 -0.11560782 -0.05118915 -0.0044364305
0002e0 f6 26 69 bb 1f 99 03 be 22 e9 6e bd b0 a4 9f be
       -0.00355762 -0.1285138 -0.0583278 -0.31180334
0002f0 ab a8 2c be 88 3a 30 bf 9e 6e b0 3c 78 2b 42 3c
       -0.16861217 -0.6883931 0.021537121 0.011851184
000300 cf d6 08 3e 23 02 23 3e 92 f2 2e bc 17 63 ae b9
       0.13363193 0.15918784 -0.01067795 -0.00033261694
000310 76 22 9b 3d 41 de f7 3b f2 5c cf bd 25 30 1b be
       0.07574932 0.0075643365 -0.1012515 -0.15155084
000320 39 a5 a2 3d 13 3b dc bc 11 58 a1 3d e4 63 ff bd
       0.0794167 -0.026883638 0.078781255 -0.124702245
000330 bc c0 bb bd cb 65 ac 3e 00 0f 98 3c 0e 87 60 3e
       -0.091676205 0.33671412 0.01856184 0.2192652
000340 1a 35 53 bd 60 84 01 be 5d fd af 3b eb 87 67 3e
       -0.051564313 -0.12648153 0.0053707794 0.22610442
000350 ec 97 17 be 92 e6 58 bd cd 55 d4 3c a3 49 7e 3c
       -0.14804047 -0.052954264 0.02591982 0.015520486
000360 fc 0a d2 bb c6 c7 75 3c c4 27 d0 bc 7b b6 84 3c
       -0.006410001 0.015001243 -0.025409587 0.016200295
000370 3c f0 da 3c 07 ea ef 3e a8 a6 8a be f3 59 66 bd
       0.02672588 0.46858236 -0.27080274 -0.056238126
000380 3c 72 f7 bd 88 81 a2 be 58 4c 0f 3e ef 79 94 bd
       -0.12082335 -0.3173945 0.13993967 -0.072498195
000390 5f a2 a6 be fb 7b cf bd 7c 9d a0 3d ad 85 bd 3d
       -0.32545754 -0.10131069 0.07842538 0.09254012
0003a0 09 69 43 be a0 3b d6 bd 7c 75 a2 3d d9 f4 39 bd
       -0.19083036 -0.10460591 0.079325646 -0.04539952
0003b0 de c2 a6 3d 40 21 05 be c5 63 67 bd b3 cc 01 3f
       0.08142637 -0.13000965 -0.056491632 0.5070297
0003c0 f1 54 49 3e a0 84 52 3e ee e7 e6 3c 60 0c 8e 3c
       0.19661309 0.20558405 0.028186765 0.017339885
0003d0 d5 d3 91 bd f9 73 48 3e 61 53 1a be 8f 0f 4f bd
       -0.07120482 0.1957549 -0.15070869 -0.050551947
0003e0 6b d6 0c 3d 58 d9 0a 3d a3 62 f7 bb 4e b3 72 3d
       0.034384172 0.03389868 -0.0075496 0.05925303
0003f0 52 b0 1f bd 9b 3d a6 bc 53 b7 30 3c e4 59 b6 bc
       -0.03898651 -0.020293048 0.010785895 -0.02225966

critic.0.bias f4 [128]
000000 b8 44 a3 bd 2e e2 9a bd c7 42 2b 3e 92 b7 f2 3c
       -0.079720914 -0.075626716 0.16724692 0.029628549
000010 a5 a7 37 be 57 c1 0e be 4a 9f 0c bd c5 af 1c bd
       -0.17935045 -0.13940941 -0.034331597 -0.038253564
000020 47 f9 cf bc 75 f8 44 be 1e 08 5a 3d 3c 4e d1 3b
       -0.02538742 -0.19235404 0.053230397 0.0063875
000030 6e 68 4f be 7a 06 99 3d f0 c0 5e bd 77 5f e4 3c
       -0.2025468 0.074719384 -0.05438322 0.027877552
000040 9a c7 00 3e b3 fe 41 bd 86 0f ab 3c 96 5a 2c bd
       0.12576142 -0.04736204 0.020881426 -0.042078577
000050 c5 0e f0 bd fa b5 e9 bd e5 ec 20 3d 57 87 ba bd
       -0.11721567 -0.114116624 0.03928842 -0.09107845
000060 37 5b 70 3e 04 2b 81 be c2 19 83 3e 11 a3 28 be
       0.23472296 -0.2522813 0.2560559 -0.16468455
000070 ff a5 49 3d 0e 36 07 3e 5d 18 cf 3d fb 82 d0 3c
       0.04923057 0.13204214 0.10112069 0.025453081
000080 7d 65 04 be 9f 11 c3 3c f2 2c a0 bd 42 aa d9 3d
       -0.1292934 0.023812113 -0.07821073 0.10628177
000090 80 73 27 3e 7c 21 38 3d 0d 6c 3e 3e 12 f5 6c bc
       0.16352654 0.04495381 0.18595906 -0.014462726
0000a0 8f eb 1b bc 32 76 af bc 29 d9 86 bd 83 b6 b2 3d
       -0.009516611 -0.021418665 -0.06584389 0.087262176
0000b0 50 e4 5e be 7a 15 1b 3d 2f db 21 be 99 82 27 be
       -0.21766782 0.03786228 -0.15806268 -0.16358413
0000c0 90 1e ef 3d dd 52 55 bd db 94 07 3e 59 09 3c bc
       0.11675751 -0.052080978 0.13240378 -0.011476838
0000d0 ca b5 01 3e 5d 5e ab bd ba 2f a7 3d 9a b8 dd bc
       0.12667003 -0.08367608 0.081634 -0.027065564
0000e0 0f 69 05 be 60 28 15 3e 06 41 36 bc 07 ea ee bd
       -0.13028358 0.14566183 -0.011123901 -0.11665731
0000f0 58 07 67 3d e6 d5 2f 3d a8 c5 65 bd 98 51 36 be
       0.056403488 0.0429286 -0.056096703 -0.17804563
000100 63 73 1e be bd 02 ff bd 16 85 0d 3d 34 46 7f 3c
       -0.15473704 -0.12451694 0.03455075 0.015580703
000110 3e c3 0f bd 64 3f 40 3e 17 c6 52 3d 64 11 c7 bd
       -0.035098307 0.18774182 0.051458444 -0.09720114
000120 6d dd 46 bd b8 73 ab 3c 99 d7 03 bc 96 c3 0b bd
       -0.04855101 0.020929202 -0.008047008 -0.034122072
000130 28 99 ac 3d c9 ef da 3d 21 8f 53 3e cf d6 40 bd
       0.0842765 0.10690267 0.20660068 -0.047079857
000140 7f 1d 1d be c8 64 8a 3a 3b b5 1e 3e 2c bb 27 3e
       -0.15343283 0.00105586 0.15498821 0.16379994
000150 e2 ac 2f be 22 76 00 3e e5 56 95 bd 4c eb cd 3c
       -0.17155793 0.12545064 -0.072919644 0.025136612
000160 cf d8 d5 bc 2a f4 ea 3d fd da e7 bd 81 11 16 3d
       -0.026104359 0.11472352 -0.113210656 0.036637787
000170 75 22 4b 3d 5f 12 7a 3d 10 09 13 be 28 8b 27 3e
       0.049593408 0.061052676 -0.14358926 0.16361678
000180 15 64 f8 bb 15 42 8f 3d 35 c5 ea 3c 18 72 9a bd
       -0.00758029 0.06995026 0.028658489 -0.07541293
000190 8b b1 a1 bc 5f 86 2e 3d 8e 0b 69 3d eb 84 13 be
       -0.01973798 0.042608615 0.056895785 -0.14406173
0001a0 29 ea 26 3e 1e 42 2b be 16 2e 1c 3e af b2 c8 3c
       0.16300263 -0.1672444 0.15251955 0.024499265
0001b0 a9 4d 93 3c 06 53 4e 3d 10 5e fb 3d 33 2d 27 be
       0.017981367 0.050372146 0.122738004 -0.16325836
0001c0 44 08 ca bc 95 f0 e8 bd fb 86 96 bd b3 22 ba 3c
       -0.024662144 -0.113740124 -0.07349964 0.022721624
0001d0 f1 df 50 bc fe 03 0c bd f5 26 29 3e f0 3e fd 3d
       -0.012748704 -0.034183495 0.16518767 0.1236552
0001e0 a8 f3 1e 3e 49 da b0 3c 0f 84 8d 3d 25 d4 0a 3e
       0.15522635 0.021588461 0.06909954 0.13557489
0001f0 e5 59 9a bd 6d c0 9b 3d 45 4a 87 bd 3a cb 1d bd
       -0.07536677 0.07605062 -0.06605963 -0.03852389

critic.2.weight f4 [128, 128]
000000 7f a6 f8 bc 3e b8 ad bc d9 b7 a3 bd c6 00 80 3d
       -0.030352829 -0.021206018 -0.079940505 0.062501475
000010 16 c1 bc bc 01 79 71 bd b2 6d dc 3b d6 f0 08 bc
       -0.02304129 -0.05895329 0.006726944 -0.008358201
000020 7c 0b 2c ba fd ab 50 bd 39 b8 22 3d b4 00 6d 3c
       -0.00065629906 -0.05094527 0.03972647 0.0144655
000030 7c 3e 3f 3d 47 f5 90 3d cd cd 60 3c 02 14 98 3d
       0.04669045 0.07078033 0.013720942 0.07425691
000040 e7 88 11 bd 78 25 4c bd 2c 23 61 3d 60 44 4e 3d
       -0.03553095 -0.04984042 0.054965183 0.050358176
000050 4d 42 b6 bc 51 0f 59 bd 6c a6 a9 3c f3 b6 84 3d
       -0.022248412 -0.052993122 0.020709239 0.06480207
000060 c1 e6 ea 3c f2 19 04 bc 22 23 07 3d e0 59 25 bd
       0.028674485 -0.0080628265 0.03299249 -0.040368915
000070 46 26 bf 3d e3 54 0f bd 7b 23 75 3d 9c 51 63 3d
       0.09333472 -0.034993064 0.05984829 0.05549775
000080 37 fd 89 3d e6 cb 92 bd dd 3d ba 3d 79 17 0d 3d
       0.0673775 -0.07167797 0.09093831 0.034446213
000090 06 52 4f bd d5 75 8f bd 16 2c 73 bd 9b e0 9d 3d
       -0.050615333 -0.070048966 -0.059368216 0.07708856
0000a0 9e d0 db 3c 1b 4e 68 bd 47 2d 2a 3d 77 7f 8a bd
       0.026832875 -0.056715112 0.041547086 -0.06762593
0000b0 d1 9f 1c bd 0f a2 2f 3b 45 88 22 bd 6c ac 02 bd
       -0.03823835 0.0026799475 -0.039680738 -0.031902716
0000c0 2c ea 0c bd 06 64 9e b9 bf 3a 9b bd 91 3f 21 bd
       -0.03440301 -0.00030210632 -0.07579564 -0.039367262
0000d0 42 95 a7 bd 0a 70 a2 3b 22 c2 90 3c eb 6e 98 3b
       -0.081827655 0.0049572038 0.017670695 0.0046518943
0000e0 ba b3 17 bd 4b fb 9b bd 71 d0 dc 3c b3 38 b4 3c
       -0.037036635 -0.0761629 0.026954861 0.021999693
0000f0 ad f8 65 3d 12 12 ec 3c 32 87 05 bd 59 33 4a bc
       0.05614536 0.02881721 -0.032599635 -0.012341344
000100 16 01 9c 3d c9 74 37 3d 15 5a 48 3d 76 0a 0c 3d
       0.076173946 0.04478911 0.048914034 0.034189664
000110 87 e8 86 bd 9e ba 54 bd c6 5a b5 bd 36 32 48 3d
       -0.0658732 -0.051935785 -0.08855204 0.04887601
000120 b0 7f 02 3d 9d 77 f8 3c 86 2c a1 3d 38 80 ab 3d
       0.031860054 0.030330474 0.0786982 0.08374065
000130 2b fd a7 3d 13 2b 50 bd 6e d1 83 bd f2 f6 3b bd
       0.08202585 -0.05082233 -0.0643643 -0.045889802
000140 93 2f c5 bb 7d 14 c0 3c 56 57 d5 bb c1 4d 8f bd
       -0.006017634 0.02344727 -0.0065106554 -0.06997252
000150 bd 97 8b 3d 4d 7c 88 3d c6 80 e2 3c 63 10 52 bc
       0.06816051 0.066643335 0.027649295 -0.01282129
000160 e3 5f 41 bd 45 63 0c bd cd cf 70 3d 77 29 37 3d
       -0.047210585 -0.03427436 0.058791924 0.04471728
000170 e3 ce 2a bd 83 c8 2e 3c 9e 46 14 bd 46 2c 0e 3d
       -0.04170121 0.010667923 -0.03620016 0.03471019
000180 ea 55 0d bc 05 37 b7 bd 1a 91 b7 bd 08 11 4e bd
       -0.008626441 -0.08946041 -0.08963223 -0.05030921
000190 57 22 50 bd 5d f5 9c 3d 2c eb d4 bc 4e c4 b8 3a
       -0.050814 0.07663987 -0.025991045 0.0014096589
0001a0 f4 d6 4f ba 9e 26 66 3c f1 f3 fa 3c 36 f3 84 bd
       -0.0007928454 0.014047293 0.030633898 -0.06491701
0001b0 92 9d 84 bd de 6a 8f bc 39 6c 01 bc 92 23 34 3d
       -0.06475367 -0.017507013 -0.007899337 0.043979235
0001c0 c5 f8 4e bc 17 42 95 bd 43 b1 52 3c 24 3c 2b bd
       -0.0126325535 -0.07287996 0.012859645 -0.0418054
0001d0 8b 70 81 3c 2a 2f 35 3d 3c 54 b1 bc 88 36 aa bc
       0.015800735 0.044234432 -0.021646611 -0.020777956
0001e0 0c 13 24 3d 4c 1d 28 3d 57 d1 f5 3c 37 ba 75 bd
       0.040057227 0.041043565 0.030007048 -0.05999204
0001f0 09 07 03 3d fe a7 97 bd 27 b2 89 bc ab 15 ba 3c
       0.03198913 -0.07405089 -0.016808582 0.02271541
000200 fa f8 79 3d 14 71 fd bb 8b b7 8e 3d b2 3b 38 bd
       0.06102846 -0.007734427 0.06968602 -0.044978805
000210 16 52 5e bc 02 4f 58 bd 11 3f 6a bd ea 46 6a 3d
       -0.0135693755 -0.052809723 -0.05718905 0.057196535
000220 47 2c 89 3c 6e 19 94 bd f6 6f 96 3d 56 ef 83 bd
       0.016744746 -0.07231413 0.073455736 -0.06442134
000230 9d 89 1f bd 7e 80 bc bd 21 83 19 3e a7 27 6c bd
       -0.038949598 -0.092041954 0.14991428 -0.057655003
000240 bc 62 11 3d 7c ad 38 bd 08 64 e8 3c c2 bf 0d 3d
       0.03549455 -0.045087323 0.028368011 0.034606703
000250 b8 79 07 bd dc 49 20 3d b1 b1 a3 3c 0a 42 94 3d
       -0.033075064 0.039132938 0.01998219 0.072391585
000260 17 cd 96 3b ba f5 3b bb 55 95 6c 3d 8b f5 3c bd
       0.0046020853 -0.00286804 0.0577596 -0.046132606
000270 6d 5a b5 bb 25 bd 06 bb e2 0a 9c 3d 2d 3c 73 3c
       -0.0055344612 -0.0020559516 0.07619263 0.01484589
000280 b7 49 88 bd ab 3c 09 bc 44 f5 b8 bc 55 33 a5 bd
       -0.06654685 -0.008376281 -0.02257789 -0.080664314
000290 08 6a 5c 3c 06 39 a3 3c 11 7b b0 3d b1 26 0a bd
       0.013453014 0.019924652 0.08617223 -0.033728305
0002a0 d8 af 8c bc d0 ad 92 bd 5b f3 84 3d 73 93 87 3d
       -0.017173693 -0.07162058 0.06491729 0.066199206
0002b0 d8 f1 e6 3b 2c 8b 09 3d 41 1d 7c bd da cd e3 bc
       0.007047873 0.03357999 -0.061551336 -0.027808119
0002c0 e0 63 4d bd f1 75 d3 bc 35 bb c7 3c 11 0b 3f 3d
       -0.050144076 -0.025813075 0.02438126 0.046641413
0002d0 d5 d6 49 bd 6e d7 29 3d 04 dc ec 3d b2 98 37 3c
       -0.049277145 0.041465215 0.11565402 0.011205839
0002e0 bf 76 61 3d 29 ec 8a 3d 0e 0a 9d bc 96 bf 27 bd
       0.055044886 0.06783325 -0.019169834 -0.040954195
0002f0 1a 93 71 3c b6 bb 5e 3c 03 d2 31 3d e9 63 f9 3c
       0.014744544 0.013594558 0.043413173 0.030443149
000300 54 f7 25 bd 82 47 00 bd b5 6b 18 bd a4 0c d1 3b
       -0.040519074 -0.031318195 -0.037212092 0.0063796807
000310 89 29 de 3c 8c e6 13 3c 35 2a 69 3d 37 37 92 3d
       0.027119415 0.009027135 0.056925017 0.07139438
000320 f1 53 2e bd 37 74 83 bd 95 8e 0c bd 0b a1 0b bd
       -0.04256052 -0.064186506 -0.034315664 -0.03408913
000330 32 e0 82 bc 9a c6 14 bd 8e a3 c5 bc 6e dc 16 3d
       -0.015976045 -0.036322214 -0.02412584 0.036831312
000340 7f 0e 6e 3d 62 60 65 3d 65 30 59 bd d6 87 f2 3c
       0.058119293 0.05600012 -0.05302467 0.029605787
000350 d4 94 5d 3c 44 9a 6b bc 0f 19 bc 3c ee c2 22 bd
       0.013524253 -0.0143800415 0.022961168 -0.03973668
000360 f1 96 be bd 57 0d f2 3c d0 0d 74 bc e3 dc 85 bc
       -0.093061335 0.029547377 -0.014895871 -0.016340679
000370 68 94 70 3c 98 32 41 3d 98 74 c4 3d 3b 37 25 bd
       0.01468382 0.04716739 0.09592551 -0.040335875
000380 22 e0 c4 3c 2e 63 88 3d 58 d4 4c bd 16 4c 7f 3c
       0.024032656 0.06659542 -0.050007194 0.015582105
000390 cc 1a ae 3c 10 c6 29 3c db b0 79 bd 40 41 09 3d
       0.021253012 0.010362163 -0.06095968 0.033509493
0003a0 86 90 49 bd 7a 0a 0c bd 92 39 10 3b cc ea 02 bd
       -0.049210094 -0.03418968 0.002200697 -0.0319622
0003b0 07 9a 88 bd ba 7c 84 3d e2 fe 24 bd bf 71 dd 3c
       -0.066700034 0.06469102 -0.040282138 0.027031777
0003c0 0e bb 4b 3d a9 eb c8 3c 61 f6 fd 3c 89 4d 68 3d
       0.049738936 0.024526434 0.031001272 0.05671457
0003d0 45 f3 59 3c be 1c 30 3d e8 4a 9f 3d 4c c0 d5 3d
       0.013302629 0.04299616 0.07777959 0.10437068
0003e0 56 44 a7 bb c5 42 34 3d 56 91 73 3d bf 1e 11 bd
       -0.005104582 0.04400899 0.059464775 -0.035429712
0003f0 d4 ab 81 bd 61 b1 00 3d ec d4 ce bc 7e 6c 30 b9
       -0.06331602 0.03141916 -0.025248013 -0.00016825084

critic.2.bias f4 [128]
000000 f8 ca fe 3c 36 ab 1a bb fb bb a0 3c 48 1e 43 bc
       0.031102642 -0.0023600585 0.019620886 -0.011909075
000010 a9 6a bc bc ac 59 12 bd 72 1c 47 bd e0 54 39 bc
       -0.023000078 -0.03573005 -0.048611112 -0.01131174
000020 9b 47 ea 3c 92 ff 93 3c 12 99 01 3c 4e f9 30 3d
       0.028598597 0.018066201 0.00791003 0.043206505
000030 23 f0 c7 3c dc 6d 97 3c 9c 00 d4 3b 38 d2 bc 3b
       0.024406498 0.018485002 0.006469799 0.0057623647
000040 c0 50 03 3c 41 4c 24 bd 75 50 02 3d 40 b2 1f 3d
       0.008014858 -0.040111784 0.03181501 0.03898835
000050 60 57 3b bc 23 6c df ba d7 61 01 bd f2 ac b8 bc
       -0.011434406 -0.0017045777 -0.031587448 -0.022543404
000060 23 2f 2c bc f6 ba af bc 49 55 53 3d 22 9d 1f bd
       -0.010509285 -0.021451455 0.051595006 -0.038968213
000070 97 f0 c2 bc ce 78 bf 3c 76 32 5b 3b 12 04 c7 bb
       -0.023796363 0.023373034 0.0033446825 -0.0060734833
000080 f6 4d a3 3c 66 a4 1e 3d c6 67 95 ba 9b f2 45 3d
       0.019934636 0.038731 -0.0011398725 0.04832707
000090 a6 b4 22 bd 98 b9 9d 3d 08 bb 87 bd 12 be f6 ba
       -0.03972306 0.07701415 -0.0662747 -0.0018824956
0000a0 4b c4 d5 b9 7f b9 cd 3c 9c 0d 98 3d 1b fd 62 bc
       -0.00040772776 0.025112865 0.07424471 -0.01385429
0000b0 e9 8f e3 bc 2f e9 d8 3a de b8 2e bc 9c 4d 9a 3c
       -0.027778583 0.0016548986 -0.010664193 0.018835835
0000c0 45 45 01 bd 68 fc 22 3d 21 b3 9d bc fa ce 41 bd
       -0.0315602 0.039791495 -0.019250454 -0.04731653
0000d0 7f fe c0 bb e3 91 32 3d 23 d4 68 3a 48 be 29 3d
       -0.0058897133 0.04359616 0.00088817085 0.041441232
0000e0 ca f5 be 3b 41 54 b3 bc d6 31 d4 3a 40 67 20 3d
       0.00582764 -0.021890761 0.0016189169 0.039160967
0000f0 00 2d 50 bc 21 1b c6 bc c4 98 26 3c 6c 69 eb 3c
       -0.012706041 -0.024182858 0.010168258 0.028736793
000100 68 5a 9d 3b 09 fe 0c bd bf 27 ae bc b1 a3 57 bc
       0.004802037 -0.034421954 -0.021259187 -0.013161586
000110 29 c0 a7 3c 80 42 b1 bc a5 ab 7a ba e6 c2 0b 3d
       0.020477371 -0.021638155 -0.000956232 0.034121417
000120 7e 23 af 3b 46 d7 29 bd 45 f1 63 3d d6 47 fa b8
       0.005344807 -0.041465066 0.055650014 -0.000119343094
000130 52 e5 c0 3d 73 ea b0 bc 52 56 17 bd c9 54 9a bc
       0.094187394 -0.02159617 -0.036947556 -0.018839257
000140 fd 5c 1c 3d 55 ab b9 3c 76 04 8e bc 4e 64 a6 bc
       0.038174618 0.022664705 -0.017336112 -0.0203115
000150 a0 a6 43 bc 2d 13 1f 3d 95 b6 e0 3b 1d 10 61 3c
       -0.011941582 0.038836647 0.006857703 0.013736752
000160 78 36 ba bc d4 52 ca bc c9 cb 13 3d 88 38 90 bc
       -0.02273105 -0.024697699 0.036083017 -0.017605081
000170 e0 00 d3 bb f2 d9 cb 3b 47 f5 b5 bc e7 95 0a 3b
       -0.0064393133 0.0062210495 -0.022211684 0.0021146478
000180 ff a0 9b 3b 7c ca 91 bd 69 0f d1 3c 3d 10 71 3b
       0.004749417 -0.07118699 0.025520043 0.003678336
000190 a0 1f 5d 3d 45 4a 38 bd 4e ac 2c bc 29 94 bb bc
       0.053985238 -0.044992704 -0.0105391275 -0.022897797
0001a0 1b 89 06 bc 14 2d 64 3c fb a9 98 3c 43 68 74 bc
       -0.008211399 0.013926763 0.01863574 -0.014917436
0001b0 67 3d 05 bc 85 c0 6c 3c 1d ad cc 3b a0 ed cf bc
       -0.008132315 0.014450197 0.0062462226 -0.025381863
0001c0 66 c6 01 be b4 2b d4 3c b5 35 27 3d 3c ba 12 ba
       -0.12673339 0.025899746 0.040822703 -0.0005597209
0001d0 ef ec 4e 3c 14 54 5c bd ec f7 05 3b 80 70 b3 bc
       0.012629732 -0.05379112 0.0020441962 -0.02190423
0001e0 0d a5 02 3d 93 8a 18 bd 60 36 21 3d 01 24 0e bd
       0.031895686 -0.03724153 0.039358497 -0.034702305
0001f0 64 33 07 bc b2 c3 b3 3a cf 88 72 bc 98 83 a3 3d
       -0.008251999 0.0013714938 -0.0148031255 0.07984084
