genesis_tutorial/logs/drone-hovering/model_500.pt (torch, 474410 bytes, 36 tensors)

std f4 [4]
00000000: 2968 5f3e 911e 553e 6d3e 133e 77ee 533e
0.21817078 0.20812441 0.14379282 0.20696436

actor.0.weight f4 [128, 17]
00000000: 99b0 533f 822c 33bf 9d5b 7d3f 15de abbe
00000010: 31ff 043e d6d8 16bd 3264 333f d9d8 4abe
00000020: 0aba cd3d 3e50 163e 757d 5dbd b588 993d
00000030: bc6e 173e a214 ff3c 757e f1bc f8d4 153e
00000040: 6078 ec3d 6367 b9be 7a89 1bbe 48c8 e2bf
00000050: df96 2e3e fa1c 553e a4e4 05bd c3e2 edbc
00000060: b0ad 053e de0f 273e fcbd d93d 64ed 043e
00000070: 292e 413d ee4f 22bd 9336 a0bd f73f 8cbd
00000080: 9880 60be 562e 11be 25df 883e e7ce 2c3d
00000090: b39a d53f d5f1 8cbd c0b1 82be aac0 a3be
000000a0: 48a8 ccbd fe39 68be a10e 043e 2283 00be
000000b0: 9318 b3bc 0589 99bb 001e 9bbd 1f2b 213e
000000c0: 87ef c7bd 5258 69be d4af 74bb 9892 193e
000000d0: d7bb d63d c9fa 0040 043d 923d b74d 0cbf
000000e0: e414 34bf 7279 dfbe 8535 17bf 76ec b2bd
000000f0: 7e0c 3cbe a178 26be 453f b9be 5ada a2be
00000100: 3327 753b eed3 47bd 43b5 253e 10ef 043e
00000110: d5f6 7e3e e341 80bc 2656 be3e ff50 30be
00000120: 702e 0c3f 69f4 b0be acbe a63e 2c52 95be
00000130: 60bc db3d 52d1 593d eabe 18be 4b70 cebd
00000140: 5910 143e 1e1a d83d 67e4 9d3d 9c0b 163e
00000150: 1436 943d 4b4b 943e 2d2c 05bf f1cc b33e
00000160: d43f 48be ceaa 1a3e bcfa 15be 9f7c 393e
00000170: 32aa 55be 3ab4 143e b2e0 9dbd 3066 0cbe
00000180: f3db ddbd 808d 02bc 3221 143d 6bf4 553d
00000190: 256b a23d abda 6f3e 6bd6 7d3f 2f08 77be
000001a0: bac4 99be d216 3dbe 5e52 e3bd 1282 88be
000001b0: bc07 423f ab3f dbbd 5daf f5bd 890f 0b3e
000001c0: 7b5f cdbc 1745 adbd fae5 18be 90e7 b6bc
000001d0: 9331 82bd 5bd1 f2bb ec33 09bb 99d4 88be
000001e0: d3a1 14bf 7de2 27bf 4168 4a3e 0554 32bf
000001f0: a446 ff3e d0f7 86be df4e 3f3f 98a1 82bd
00000200: 1dd2 02be 3f03 843d 1f55 e03d 5ae6 2abe
00000210: 3723 65be b9e2 b1bc 8fb6 e8bc c013 32be
00000220: f297 0b3e 6587 7e3f 865b b1bf 760f 2abe
00000230: 4068 653f 1db8 58bf 5f61 053f b406 91be
00000240: c21d 8dbe ef5a aa3d 31e3 843e 6cd4 b8bd
00000250: 5587 703d 5fc8 5cbe 29d4 673d 8864 8c3c
00000260: d1c1 60bd ce6b 6d3f 0ec7 553f 7479 27bf
00000270: 0ab3 143c 555f a73e 5bd5 b2bf 43ba 52be
00000280: 5950 39bf d818 59be 4be4 69be 3329 bfbb
00000290: 2c06 babe 6d7a 713e bb62 c6bc 841e 04be
000002a0: 29e4 443e 6a8f be3c 7886 dfbe 5f79 8dbd
000002b0: d851 4740 99c9 8ebe 6414 543d 0c81 79be
000002c0: 5a2e a83d 6a6d 3a3a 3e3e e33d 44ad c6be
000002d0: 8f65 193d 77db 193b 9bb5 283e 9b99 34bd
000002e0: c2d9 bd3d 5510 d23d da21 063e 61f1 0abf
000002f0: 84c0 4b3e d517 d6bf a2d8 fb3d 0981 933e
00000300: f61a 403f 57ac 2dbd b76d d73c 0145 35bd
00000310: df0d 9bbe 2251 b73d 6a6c 823d b2ea 0fbd
00000320: 75f1 fc3d a11f abbd fb39 31be ef7a a4bd
00000330: c858 753f fc90 3c3f fe37 10c0 3a3a 353e
00000340: dc67 6d3e d3a2 473e 95a8 a6bc 4b01 dbbe
00000350: 1c1c d83d 6295 d1bd f5d6 3f3d 0176 b33d
00000360: d551 173e b101 24bd 5d0a 06be 948b d5bd
00000370: 52cd 82bc 05ea 8b3f d05a 633f 9fdd 4fc0
00000380: eca1 f5ba 7ada 253e 36c2 f13d a7d2 8fbc
00000390: 7d8e e43d 95ba 9e3e abb2 0c3f f83b 53bc
000003a0: 3aea 273d afb8 aabd 95af 37be 8dd2 77bd
000003b0: 448d d93c a6aa 923c e541 3dbf 50ec e3be
000003c0: 64d5 1e3f e143 573d befb 553e 9b94 a53f
000003d0: de23 073d 5aa6 493f 8826 01be a47a 9dbd
000003e0: f2da d63d 6185 f93d e82b 533d d98e 96bd
000003f0: 3dad 05bd 4e9f 43bd 59d9 2fbd 4c3a 9abf
0.8269134 -0.6998979 0.98967916 -0.33567873 0.12987973 -0.036827885 0.7007476 -0.19809283
0.1004525 0.14679047 -0.054074723 0.07496778 0.14788336 0.031137768 -0.029479245 0.14632022
0.11546397 -0.3621169 -0.15189162 -1.7717371 0.1704974 0.20811835 -0.03268875 -0.029038792
0.13054538 0.16314647 0.1063194 0.12981182 0.047163162 -0.03962701 -0.07822909 -0.06848138
-0.21924055 -0.14177832 0.26732746 0.042189505 1.6687835 -0.06882063 -0.25526237 -0.3198293
-0.099930346 -0.22678372 0.12896205 -0.12550023 -0.021862304 -0.0046855235 -0.075740814 0.15739106
-0.09762483 -0.22787598 -0.0037336247 0.14997327 0.10485046 2.0153067 0.07140544 -0.54806083
-0.70344377 -0.43647343 -0.5906604 -0.087365076 -0.1836414 -0.16256954 -0.36181083 -0.31807214
0.0037407398 -0.048786096 0.16182427 0.1298182 0.24898846 -0.015656417 0.371751 -0.17218398
0.5475836 -0.3456147 0.32567346 -0.29164255 0.10729289 0.05317814 -0.14916578 -0.10080012
0.14459361 0.105518565 0.0770958 0.14652866 0.07236877 0.28963694 -0.5202053 0.35117295
-0.19555598 0.1510422 -0.14646429 0.18113945 -0.20865706 0.14521876 -0.07708873 -0.13710856
-0.108329676 -0.007968307 0.03616447 0.05223505 0.079305924 0.23423259 0.991553 -0.24124216
-0.30032903 -0.18465737 -0.11099695 -0.26661736 0.7579305 -0.10705503 -0.119963385 0.13580145
-0.025069943 -0.084604435 -0.14931479 -0.022327214 -0.06357112 -0.007410211 -0.002093549 -0.267247
-0.58059424 -0.6557997 0.19766332 -0.69659454 0.49858582 -0.2636094 0.7472972 -0.06378478
-0.12775464 0.06445932 0.109537356 -0.16689435 -0.22376715 -0.021714555 -0.028407363 -0.17390347
0.13632181 0.99425346 -1.3856056 -0.1660746 0.896122 -0.84655935 0.521017 -0.28325427
-0.27561766 0.083181255 0.25954583 -0.09024891 0.058722813 -0.2156081 0.056598816 0.01713778
-0.054872338 0.9274262 0.8350686 -0.654197 0.009075889 0.3268992 -1.3971361 -0.20578866
-0.72388226 -0.21200883 -0.22840993 -0.0058337688 -0.36332834 0.23581858 -0.024217 -0.12902266
0.19227661 0.023261745 -0.4365728 -0.06907915 3.1143703 -0.27888182 0.05177726 -0.24365634
0.08211966 0.0007111641 0.11095856 -0.38804066 0.03745037 0.0023476759 0.16475527 -0.044091802
0.0927005 0.10257021 0.13098851 -0.54274565 0.19897658 -1.6726023 0.12297179 0.28809384
0.7504114 -0.042400684 0.026297433 -0.04425526 -0.3028402 0.08951022 0.063683346 -0.035135932
0.12350742 -0.08355642 -0.17307274 -0.0803126 0.95838594 0.7365873 -2.2534175 0.17697993
0.2318415 0.19495706 -0.020344058 -0.42774424 0.105522364 -0.10233571 0.04683586 0.08762742
0.1477731 -0.040040676 -0.13089891 -0.10427013 -0.015967045 1.0930792 0.88810444 -3.2479017
-0.0018740273 0.16196623 0.11804621 -0.017556502 0.1115999 0.31001726 0.54960126 -0.012892716
0.04099486 -0.08336007 -0.17938073 -0.06050353 0.026556619 0.017903637 -0.7392867 -0.4451623
0.6204436 0.05255497 0.20896813 1.2935976 0.03299319 0.7876946 -0.12612355 -0.076894075
0.10490979 0.12183643 0.051555544 -0.07351465 -0.032635916 -0.047759347 -0.04293189 -1.2049041

actor.0.bias f4 [128]
00000000: c723 4a3d fd92 0b3e afb6 3d3e a7c3 13be
00000010: 22e6 f6bd 3f2f 92bd d7ee ac3d 4ccc ff3d
00000020: c089 363e 6a02 8fbd 7383 623d a7e2 ad3c
00000030: 7f4b 313c f78e df3d 94f0 793d 591a 003d
00000040: 4871 93bd 661b db3d 7691 22bd 60b2 36be
00000050: 934e 11bd f720 21be 297b d53d aa84 47be
00000060: fff7 93bd fa26 313d 63f1 1d3e 8ae1 25be
00000070: 2b9f eebd 6a56 163e f278 cc3d 9f3d 04be
00000080: 5ff2 fdbc 5063 33be abea 4bbc def0 a03d
00000090: 857b d33c 5250 753e 4d9a 043e 2b5d aebc
000000a0: 2362 76be cb8f babb 52b1 1ebd 302e 1cbd
000000b0: 1fb8 f4bb 94f9 fc3d 5126 d7bd 55d7 dabd
000000c0: b639 103e c3e3 133e 46f8 a1bc 876a 85bc
000000d0: 3653 103d a681 e3bb 665f 31be 6c52 45bd
000000e0: 31d7 013e 8528 393c 6659 66be 1fd4 213d
000000f0: 4729 a73c f215 21bd e8e1 6fbd 29af 72bc
00000100: 169f 81bc deb3 a6bd b89a 1bbe 4b11 873d
00000110: b75b 32be a4a8 6a3d 50e1 5dbe d187 d8bb
00000120: 418f 363c f438 1fbe 870e ebbd 1e3e 6cbe
00000130: c9d2 a03c 71bd 7bbe 5b80 4b3d 8967 17be
00000140: 1cad c9bc ef90 1dbd 1b2c 243e 94cd ab3d
00000150: 8cbb b03d 8660 da3d b2d4 4dbe 8af2 56be
00000160: c0ee bb3c c34c 473e 9c4f 33be ca0f 793e
00000170: 480d 423d beb5 3c3c 8dfe de3d e370 c7bd
00000180: 1c6a 413d 5777 0a3a 1318 bebd 75be 693e
00000190: fa7a bb3d 2b87 cebd 92c0 2d3e 7858 443d
000001a0: 41a7 abbd b512 fabd ed62 563d c973 1ebe
000001b0: 36f1 0dbd 34a4 dcbc cb59 35be 1532 3ebe
000001c0: 803a a9bd 57ce f63d 84c1 8c3c 1515 e03c
000001d0: 22db a43d be10 57bd 128f df3c ec57 4bbd
000001e0: 58e4 c73d 4b3d 243d 845f 083e 6321 37be
000001f0: deaa debd a593 e93d 5ebb 06be f197 dd3d
0.049350526 0.1363029 0.1852672 -0.14430104 -0.12055613 -0.07137918 0.084439926 0.124901384
0.17825985 -0.06982882 0.05530114 0.02122624 0.010821222 0.1091594 0.06102045 0.031275127
-0.07199341 0.10698585 -0.039689504 -0.17841482 -0.035475325 -0.15735231 0.104238816 -0.19484201
-0.07225036 0.04325006 0.15424113 -0.16199318 -0.11651453 0.14681402 0.09984006 -0.12914132
-0.03099936 -0.17518353 -0.012446086 0.07858442 0.025815735 0.23956421 0.12949486 -0.02128466
-0.24060874 -0.005693411 -0.038743325 -0.038129985 -0.007468238 0.12352291 -0.10505355 -0.106856026
0.14084515 0.14442353 -0.019771706 -0.016286148 0.035235606 -0.0069429455 -0.17321548 -0.048174307
0.12679745 0.0113011645 -0.2249504 0.039508935 0.020405425 -0.03932757 -0.05856505 -0.014812269
-0.015822928 -0.08139776 -0.1519574 0.06595095 -0.17417799 0.057289734 -0.21667981 -0.0066079875
0.011142553 -0.1554907 -0.1147738 -0.23070571 0.01963176 -0.24583985 0.049682956 -0.1478559
-0.024618678 -0.038468298 0.1603245 0.0838882 0.08629522 0.10662942 -0.20100668 -0.20990959
0.022940993 0.19462876 -0.17510837 0.2432243 0.047375947 0.01151794 0.108883955 -0.09738328
0.047220334 0.0005282065 -0.092819355 0.2282656 0.09154315 -0.10084375 0.16967991 0.047935933
-0.083815105 -0.12210599 0.052340437 -0.15473856 -0.034653865 -0.026933767 -0.17710035 -0.18573792
-0.08263111 0.12051075 0.01718212 0.027353803 0.08049609 -0.0525062 0.0272899 -0.049644396
0.0976035 0.040097516 0.13317686 -0.1788383 -0.10872434 0.11405114 -0.13157412 0.10819996

actor.2.weight f4 [128, 128]
00000000: 1e5b 433d 49ac 823d edae c23c 524a a9bc
00000010: 0dab fb3b 2447 7abc 8e21 4d3c 7435 653d
00000020: 4e67 2dbc ad13 1e3c ddd7 fbbc efea a13b
00000030: d47c 52bd 01a8 6cbc cf78 b2bd fe59 8abd
00000040: 6e12 753c 26dc 133d f7d2 9bbc 13e3 3ebe
00000050: 4d65 77bd 3646 d03b 4643 ad3c d4fd 523c
00000060: 8162 9f3b 6c6e c93b 5615 b13c aa9e ec3c
00000070: 4f63 6abd c7f7 c9bd e567 383d b97c 333d
00000080: d488 bbbd fe3d 263c 7868 c0b9 c377 ce3c
00000090: aacc 523d 4a5d 393d 51fb aabc 3e18 943d
000000a0: fa5e a4bd 790b 05bd fc2b e93c c494 6a3d
000000b0: 1e9f 473d e6e2 103d ce15 62bc 22ef 803c
000000c0: c9a0 11bd ee02 7fbc 6460 debc e024 883d
000000d0: af86 87bd e7ea d13d 8a02 99bd 7ebf c13d
000000e0: 5e89 afbd a21d 2abc 5c57 e63d f519 6b3d
000000f0: b0e8 353d 32f6 c83d 4ea0 90bd aeff 91bd
00000100: 50dd 2abd 83d3 723d 5c07 853c d4e8 5bbc
00000110: 6ba2 15bb a548 313d 5374 5b3d 7e09 bd3c
00000120: 1fa1 113d d72a 0fbd bb7f df3b b5c6 3cbc
00000130: 6ba6 7b3d 9f3b 3a3d 4341 d93b c396 bcbd
00000140: d647 05be f39e 403d 47e9 9c3d 84a9 433d
00000150: 366c 053c ed3d 73bd c483 c8bb ed35 ae3d
00000160: c903 0abd 2622 773d d4fd 3cbd 27dc 76bd
00000170: 3c78 a5bd e0db 8f3d c259 953c 78b5 233d
00000180: 0064 ce3d a262 703d 6dee 593d 12cc 20bd
00000190: 1d78 51bd dc92 c1bc 7ef0 423d 65cc ad3c
000001a0: d8ca 9e3b 3351 3e3d 3c79 66bd a33e 453d
000001b0: 1109 4bbd 16af 84bc 277f e93c b144 1fbd
000001c0: 01ae 16bd e0f0 fb38 03b8 baba d9bd 403d
000001d0: 4018 133d b058 9b3d 627c 883d 2195 80bd
000001e0: 33cd 9dbd 9cda 74bc 9ae0 eebc 3276 723c
000001f0: dd76 2fbd 1818 3c3c 0a2a 58bd bbe9 b1b9
00000200: fbfc 3ebd 3494 bc3b 953a 2dbd 25ce 6f3d
00000210: 9753 243d f6d9 453b df76 513d 18ea a73c
00000220: 250e 2bbd 2b62 63bd 34c8 8ebd b617 a93b
00000230: b690 8fbd c453 c53c 2869 31bd 395b 9e3d
00000240: ac8a 843b bfb7 0d3a 08d7 c23c 26a5 993d
00000250: 5a8c 41bc c2cd cabd dbdd 10bd db7e 953c
00000260: 50c2 ac3d 53a9 6fbd 3ceb bd3d 8488 66bb
00000270: 8437 413e 94ad b5bc 9c5f bd3c 0e19 3a3d
00000280: 6e7e 53bb 7ab1 91bd a302 44bc 1335 16bd
00000290: 7a01 d6bd 6597 e7bc 4f32 c73b d832 28bd
000002a0: 6295 463c 8511 513d ddad 1d3d a7a8 ca3b
000002b0: c97f e83c 5844 ee3c 413e 4b3d f33b 3abd
000002c0: fbc8 613c be94 4b3d c238 32bd fcca 6a3d
000002d0: 559d 67bd e099 203c 9ff0 603d a223 a63d
000002e0: 97e5 303d 443e 7ebd e2a4 cd3d 6805 433d
000002f0: aa6b 49bc 79fc 03bd 7ff1 48bd 8244 c23b
00000300: 205a 28bd 0849 8e3c 7fa7 bebc ee12 68bd
00000310: 22f4 81bc e132 503c 3021 633c bc7f 24bd
00000320: 3f7c 82bd fe42 f5ba 750a 163d 11b9 973d
00000330: 6e86 8d3d 9c12 f8bc 8caf 4cbd 649b febc
00000340: f871 39bd 1e97 08bd 612d 383d 27cb 98bd
00000350: 8cde a4bb 2bf3 423d 8279 9fbc c99b 8ebd
00000360: d9c7 7ebc 14ba 2b3d 70e1 1abd 2cc1 97bd
00000370: e9a5 77bd 6059 77bd 3300 83bc 99ee 73bb
00000380: b8c4 2b3c d08d d8bc 6dbd e63a cd3d 013e
00000390: c925 b53c 17be a9bb d0a2 3bbc eb27 5dbd
000003a0: 7e2a 5dbd f1d0 293c dcdd 483c 7d2c 9abd
000003b0: 7e77 d13c 1c47 983d 2a46 8ebd c720 07bd
000003c0: 1aa3 adbb eba9 be3c b495 c238 1993 b83b
000003d0: 84cc 953d 2ca9 78bd 0c0f 033d b024 773c
000003e0: 7f57 a1bd 9703 58bd 46ff 86bc 556e 7fbd
000003f0: 8f15 d3bd affb 043e 7e8d 573d 2b86 383d
0.047694318 0.06380517 0.023765052 -0.020665321 0.007680303 -0.01527575 0.012520207 0.05595918
-0.010583712 0.009648246 -0.03074258 0.0049413363 -0.051388577 -0.014444352 -0.08714449 -0.06755446
0.014958007 0.03609862 -0.019021494 -0.1864131 -0.060399342 0.006356026 0.021150243 0.0128779
0.0048640375 0.0061471965 0.02161662 0.02888425 -0.057223614 -0.09861713 0.045020957 0.043820117
-0.09156957 0.010146616 -0.0003669893 0.025203591 0.051464714 0.045254983 -0.02087179 0.07231186
-0.08025928 -0.032481644 0.028463356 0.05727078 0.04873573 0.035372637 -0.013799144 0.015739027
-0.035553727 -0.015564663 -0.027145572 0.06647658 -0.06617486 0.10249882 -0.074711874 0.09460352
-0.085711226 -0.010383042 0.11247131 0.0573978 0.04441136 0.09812583 -0.07061826 -0.07128845
-0.041714966 0.059283745 0.01623886 -0.01342221 -0.0022832404 0.04328217 0.053577732 0.023075815
0.035554048 -0.034952965 0.0068206466 -0.011521985 0.061438005 0.045467015 0.0066300943 -0.09208443
-0.13015684 0.047026586 0.076616816 0.047769085 0.008143475 -0.05938523 -0.0061192233 0.08506379
-0.033695016 0.0603353 -0.046140507 -0.060268547 -0.080795735 0.0702436 0.018231276 0.039967984
0.10077667 0.058687814 0.053205896 -0.039257117 -0.05113994 -0.023629598 0.047592632 0.021215627
0.004845958 0.046464156 -0.05626796 0.04815544 -0.049569193 -0.016196769 0.028503014 -0.03888387
-0.036787037 0.00012013479 -0.0014245514 0.047056053 0.0359118 0.07585275 0.06664349 -0.06278444
-0.07705154 -0.014944699 -0.029159833 0.014798688 -0.042837966 0.011480354 -0.052774467 -0.00033934214
-0.04662798 0.005754972 -0.042292196 0.058546204 0.04011878 0.003018973 0.051138755 0.020497367
-0.041761536 -0.055513542 -0.069717795 0.0051602973 -0.07010023 0.024087794 -0.043313175 0.07732243
0.0040448513 0.00054061034 0.023784176 0.07502203 -0.011813248 -0.099025264 -0.035367828 0.018248966
0.084355 -0.05851109 0.09273383 -0.0035176584 0.18868834 -0.022177495 0.02311688 0.04543405
-0.0032271403 -0.07113929 -0.011963519 -0.03667171 -0.104495004 -0.028270433 0.0060789953 -0.041064113
0.012120577 0.0510421 0.038495887 0.0061846557 0.028381245 0.029085323 0.049619917 -0.04546733
0.013780828 0.0497024 -0.04351116 0.057322487 -0.056546528 0.009802312 0.054916974 0.08112265
0.043187704 -0.0620711 0.100412145 0.047612578 -0.0122937355 -0.0322232 -0.049058434 0.005928577
-0.041101575 0.017368808 -0.023273228 -0.056658678 -0.015863482 0.012707443 0.013862893 -0.04016088
-0.06371354 -0.0018711982 0.036631066 0.074083455 0.06910406 -0.030282311 -0.049972102 -0.031079955
-0.045274705 -0.03334724 0.04496515 -0.07460623 -0.0050314125 0.047595184 -0.01946712 -0.069633074
-0.015550577 0.041925505 -0.03781265 -0.074098915 -0.06046096 -0.06038797 -0.015991306 -0.0037221073
0.010483913 -0.026434809 0.0017604061 0.12621231 0.022112744 -0.005180131 -0.011452392 -0.053993147
-0.0539956 0.010364757 0.012259927 -0.07528017 0.025569674 0.07435438 -0.069469765 -0.032990243
-0.0052989842 0.023274383 9.278525e-05 0.00563277 0.07314399 -0.06070821 0.03199677 0.015084431
-0.07878017 -0.0527378 -0.016479146 -0.06236108 -0.10306846 0.12986635 0.05262517 0.045049828

actor.2.bias f4 [128]
00000000: 95a6 873d 6376 aebb 6a46 2abf ddc5 92bc
00000010: 3be1 be3d c2d4 ccbd bc6d a4bd af6c 2cbd
00000020: 19b3 493d da22 55bc 6da9 523d 7a89 60bd
00000030: c051 70bc 999d 343d 492c 98bc 0dd8 303c
00000040: 2e2b 3b3a e68f 853d 9024 1d3c 29c1 af3d
00000050: 0450 4f3d 7fb2 ffbb 13b4 363b 72ca c53c
00000060: d112 203d d41e 1c3d 2895 33bf 201d 383d
00000070: f5ea 87bd ebee 8dbd a637 ee3e e0f5 8abe
00000080: 9f96 69bd 3d22 e53d 3237 823d de2d ac3a
00000090: 14df 19bc ca60 afbd 0708 2ebd 56be 7c3d
000000a0: d41c 9ebd b107 f9bb e24f 3a3e 4e4c 5d3d
000000b0: ce90 1b3d 22b5 26bf 153d f7bd be61 393e
000000c0: fe32 e2bd 2031 173c 5a34 31bb 24ce 2e3d
000000d0: 06e0 a9bd 2789 673d 4a06 573d 17b1 7e3c
000000e0: ccfe 4abd 5cba 87bc 8411 beb9 31b2 4d3d
000000f0: 7cd5 643d 5e16 3ebd 1f30 743d c8e2 66bd
00000100: 82db 0ebe 4c5d b8bd eb11 3e3f c36e 0dbd
00000110: fd90 1ebd 6ed7 433d 78b4 8dbd 8ea1 d5bd
00000120: 8a13 883d acb4 5aba 2701 4e3d d9af d1bc
00000130: 2d47 d93d d518 083e 4799 ab3c 3b8b 61bd
00000140: 1c5b 673c 1338 503d 5b0b 05bc aec8 c9bb
00000150: 7559 40be bb74 193c d96c 873e e439 c6bb
00000160: e633 373d 15bd 85bd 9707 d53c dfe8 ea3d
00000170: b77f 943d f0f4 e7bd 52f7 8e3c 2820 c2bc
00000180: d6d2 e13c 872b c53c 64e6 66bd b167 30be
00000190: 21ed 74bc 848d 7bbd 8125 bdbd c64a 18bd
000001a0: e479 96bd a060 3fba 7655 fa3c ed8a 25be
000001b0: 38db e4bc 8275 a4bc 10c6 113d 26f1 063d
000001c0: 25e7 cbbd 7fde 8abc 3422 61bd b0c5 053e
000001d0: b5d5 c13d 1a57 afbe 280e 92bc 0b42 80bd
000001e0: 8d37 053c 89bb 3fbd 46f4 26be 20db 403d
000001f0: ba23 febc d984 593c d1d4 2b3c 4b1e abbb
0.0662357 -0.0053241714 -0.66513693 -0.017916614 0.09320303 -0.10001518 -0.08028743 -0.042095836
0.049243066 -0.013008798 0.05143111 -0.054818608 -0.014667928 0.04409561 -0.018575804 0.010793698
0.0007139918 0.06521587 0.009591237 0.08581764 0.05061342 -0.007803261 0.0027878329 0.024144385
0.039080445 0.038115337 -0.7014947 0.04494965 -0.06636611 -0.069303356 0.4652683 -0.27140713
-0.05702841 0.11188171 0.06358184 0.0013136228 -0.009391565 -0.08563383 -0.042488124 0.061704956
-0.07720342 -0.007599794 0.18194535 0.054027848 0.037979893 -0.65120137 -0.12072197 0.18103692
-0.11044882 0.009228021 -0.002703926 0.04267706 -0.08294682 0.056527283 0.052496232 0.015545151
-0.0495594 -0.016568355 -0.00036252674 0.050218765 0.055867657 -0.04640805 0.059616204 -0.05636862
-0.13950923 -0.0900217 0.7424609 -0.03452946 -0.03871249 0.04781287 -0.06919187 -0.10431205
0.06644352 -0.0008342962 0.050294068 -0.025596546 0.10609279 0.13290723 0.020947112 -0.05506442
0.014120843 0.050834727 -0.008120383 -0.006157956 -0.18784125 0.00936621 0.26450232 -0.0060493816
0.04472723 -0.06530205 0.026004596 0.11470198 0.07250922 -0.11326015 0.017451916 -0.023696974
0.027566355 0.024068607 -0.05637206 -0.17227055 -0.014949114 -0.061414257 -0.09235669 -0.037180685
-0.073474675 -0.000730047 0.03055833 -0.16166277 -0.027936563 -0.020075563 0.035589278 0.03294482
-0.09956197 -0.016951798 -0.05496426 0.13063693 0.094645895 -0.3424614 -0.017829016 -0.06262597
0.00813092 -0.046809707 -0.1630412 0.047083974 -0.031022895 0.013276302 0.010487751 -0.005222117

actor.4.weight f4 [4, 128]
00000000: eaac 9339 5e50 7abb c43e e9bc f06b 15bb
00000010: be46 6bbb 5a0b 423a 34af 9639 c060 daba
00000020: 075f cfba 4a2b bfbd 6d04 7ebb 30d9 2e3b
00000030: 47a9 023b 807f 32b8 ca96 e4b9 a76a 8eb9
00000040: ea3d f1ba 3797 2aba 1b80 903a 7be9 773a
00000050: e412 123b 5efa 5dba e60d 00ba a6c1 a63a
00000060: c5bb c73a 68a9 e438 2f4e 12bd d0e5 1238
00000070: af45 07bd 0b77 9fba 4833 8aba 31f9 1fbe
00000080: 62f0 763a 768e 39bd a0ec a83a 45fb 3cbd
00000090: 010c 14bb 6a79 663b 2805 623e aa02 79ba
000000a0: 7481 59bb 70aa 0dbb ac14 cc3c 6482 0cbb
000000b0: 37b2 7fba cb49 cabd 023f d7bd 4d86 893d
000000c0: 37f6 10bc b578 a1bb aa91 6c3a cd08 d9ba
000000d0: 2643 eebd 2679 ecba 9edf 723b cc8c 4ebb
000000e0: 5e03 99b9 9b4f 563a ec09 fc39 00e4 c236
000000f0: 5463 8438 6182 a0bc c246 7bbb a648 223b
00000100: 1953 bdbd 77e1 cabd ec1a 6e3e 95cb 2d3e
00000110: cc44 5939 b2af 5f3a 1d14 4dbd 400b bb3c
00000120: 2ce1 56bb 7a89 253b ba76 82ba 0023 5ebb
00000130: de06 67bc 6fbc f0bc 4762 ee3a e93c 68bb
00000140: 705d 253a 2d65 0d3a 8045 1538 344a 383b
00000150: db90 f8bc 174c 0a3b 26f8 c13d 9b1a 1dbb
00000160: aa96 f6bc 9c59 75bb d85d 7f3a c1be ec3d
00000170: 6222 bb3a bc9e e3ba 2de9 61ba cbd0 56ba
00000180: 829a 89ba b0a0 4d3b 35e9 5cbb 5176 c8bd
00000190: 8723 7abb 18dc d939 046e d7b9 5069 17bb
000001a0: 2678 163a 81d9 f7ba 2686 e239 49f7 b63d
000001b0: c983 163b f843 7f39 e81d 303e 6a05 aeba
000001c0: 4e6c da3a b767 2abb 2640 b3ba 92a0 253d
000001d0: a4b5 d83a 19d3 f2bd 145b 593a 9d4a 7c3a
000001e0: 03aa 5d3a 1591 6bbb 2c9d d83c 8eda 59bb
000001f0: 06e8 eeba 1631 e73a 2c02 8b3d a6d0 a03a
00000200: d6e3 6d3a 0a97 f6b9 d657 0fbe 5e0d 28bb
00000210: 8769 79bb f9d8 dd3a 0e9f 79ba 0634 8c3b
00000220: 4452 5e3b fdc6 bebc cb24 18bb af7e eaba
00000230: 90cc 9c3b 9346 0ebb d582 b9b9 a033 e7b8
00000240: f702 6d39 e299 aab9 9dca 51bb 5d19 573a
00000250: 158f ce3a 5311 aebb 21f5 4fb9 08b2 a73a
00000260: 14ec 0e3b f7a7 06bb 67fe 873d 1c8d 38bb
00000270: 31b2 003d 22a5 53bb 134f 26be 15c5 0fbe
00000280: fc36 513a 5bbf fb3d 6115 f939 5397 b93d
00000290: 74fc ed3a 732b 8fba 6dd2 11be 4eda cfba
000002a0: 795c 40bb 13df 86bd 16dd 353d 8bfb 99ba
000002b0: 1c22 0a39 f385 dabc c516 fb3d c0b0 48bd
000002c0: 4dad 4cbe 9cd0 7f3b 019c 19ba f043 65bb
000002d0: 0adb b6bc 5a72 33ba d27d 21ba fa4d a1ba
000002e0: c46e 86ba 11c4 11bb dfdc 01ba 685e 433b
000002f0: fd1b c4ba 4603 bcbc 8ec6 18ba 64ca 333b
00000300: 2f5f b9bd 3c54 71bd e94e 893e bc4f cf3d
00000310: e5a9 e13a 3d4c c63a c015 06be b75e 65bc
00000320: 46fc 42bb 120c 653b 3c94 89ba 05e4 1eba
00000330: f1be b63d e277 4f3b 6f3e 533b 16b7 883a
00000340: 6044 3cba eb6e f8ba 8e83 523b da29 9c39
00000350: a32d 393e f6d0 113b 143e 2db9 4d03 eb3a
00000360: 1622 493d ceb1 733a 546f 5db9 fbc7 0d3d
00000370: 6c15 843a 83e5 463a d2c7 e1b9 f0dd 07bb
00000380: b05b 24bb d47e c73a fcf8 e5b9 3b9d 78bd
00000390: dc3b 54bb ce9f 2c3b 34f0 c83a 98b3 e338
000003a0: 0112 0ebb baf9 643b c02f 8e3a 0ca1 18be
000003b0: 30a3 90ba 54b3 353a 2099 e83c 982d 1bbb
000003c0: 65f4 7b3a 8b2d b7ba 9260 01bc c02c e03a
000003d0: 720f dd3a 84f2 bdbc d31c d0ba f6e2 9139
000003e0: 8f39 e4ba 2158 6fbb 750d 8cbd e6da 2b3b
000003f0: 813d 803a 6cbe 2bba 4d2a 223e b243 27bb
0.00028166856 -0.0038194875 -0.028472312 -0.0022799931 -0.003590032 0.0007402204 0.00028740766 -0.0016660914
-0.0015821167 -0.093344286 -0.0038759962 0.0026679747 0.0019937323 -4.255725e-05 -0.00043599895 -0.00027163813
-0.0018405293 -0.0006507518 0.0011024507 0.00094570935 0.0022289092 -0.00084677886 -0.00048848835 0.0012722507
0.0015238455 0.000109034416 -0.035719093 3.5023142e-05 -0.03302544 -0.0012166215 -0.0010543847 -0.15622403
0.0009419975 -0.045301877 0.0012887903 -0.046138067 -0.0022590163 0.0035167583 0.2207228 -0.0009498993
-0.0033188732 -0.0021616481 0.0249122 -0.0021440024 -0.0009754034 -0.09877356 -0.10510065 0.06715069
-0.008847765 -0.0049277195 0.0009024391 -0.0016558409 -0.11633901 -0.0018041476 0.0037059556 -0.0031517027
-0.00029184943 0.0008175314 0.00048072578 5.8081932e-06 6.312752e-05 -0.01959342 -0.0038341735 0.002476254
-0.09244365 -0.09906285 0.23252457 0.16972192 0.00020720361 0.00085329555 -0.05006801 0.022832513
-0.0032788021 0.0025258944 -0.0009953596 -0.0033895373 -0.014100758 -0.029386727 0.0018187248 -0.0035436696
0.0006308174 0.00053937995 3.5589095e-05 0.00281204 -0.03034251 0.0021102482 0.09471159 -0.0023972157
-0.03010114 -0.0037437445 0.0009741462 0.11559821 0.0014277215 -0.0017366032 -0.0008617815 -0.0008194565
-0.0010498317 0.0031376295 -0.0033708338 -0.09788192 -0.0038168149 0.00041553448 -0.00041089964 -0.0023103543
0.00057399494 -0.0018909426 0.00043206027 0.08933885 0.0022966734 0.00024344015 0.17198908 -0.001327676
0.0016664357 -0.002600176 -0.0013675734 0.040436335 0.0016533625 -0.1185667 0.0008291465 0.00096241554
0.00084558147 -0.003594463 0.026442133 -0.003324184 -0.0018227107 0.001763853 0.067875236 0.0012269213
0.0009074783 -0.0004703331 -0.1399835 -0.0025642733 -0.0038057284 0.0016925625 -0.0009522297 0.0042786626
0.0033923546 -0.023288244 -0.002321529 -0.0017890538 0.004785128 -0.0021709546 -0.00035383427 -0.00011024554
0.00022603186 -0.00032539578 -0.0032011636 0.00082053785 0.0015759195 -0.005312124 -0.00019832376 0.0012794146
0.0021808194 -0.0020546892 0.0664032 -0.002816028 0.031419937 -0.0032294472 -0.16241102 -0.14040025
0.00079809106 0.122923575 0.0004750891 0.09062066 0.0018156902 -0.0010922983 -0.14240427 -0.0015857907
-0.0029351993 -0.06585517 0.044400297 -0.0011747939 0.00013173412 -0.0266752 0.12260202 -0.048996687
-0.19987984 0.0039034253 -0.0005859733 -0.003498312 -0.022321243 -0.0006845348 -0.0006160411 -0.0012306564
-0.0010256399 -0.0022242109 -0.0004953872 0.002981091 -0.0014961954 -0.02295078 -0.0005827927 0.0027433867
-0.09051358 -0.058918223 0.26818016 0.1012263 0.001721677 0.0015128922 -0.13094234 -0.013999633
-0.0029752417 0.0034949821 -0.0010496448 -0.0006061199 0.08923138 0.003165715 0.0032233258 0.001043054
-0.00071818195 -0.0018953955 0.003212187 0.0002978582 0.18083815 0.0022249795 -0.00016521692 0.0017930061
0.049104773 0.00092962093 -0.00021117675 0.034614544 0.0010077185 0.00075873005 -0.00043064222 -0.002073165
-0.0025079064 0.0015220293 -0.00043863792 -0.06069682 -0.0032384312 0.0026340368 0.0015330375 0.000108576554
-0.0021678212 0.0034938888 0.0010847971 -0.14905185 -0.0011034962 0.0006931324 0.028393328 -0.00236783
0.0009611308 -0.0013975365 -0.007896559 0.001710318 0.0016865565 -0.02318693 -0.0015877731 0.00027825654
-0.0017412173 -0.0036521035 -0.06838504 0.0026223003 0.0009783955 -0.00065515074 0.15836449 -0.0025522527

actor.4.bias f4 [4]
00000000: cd40 ad3e c580 9f3e 5949 b23e 6d7b 993e
0.33838502 0.3115293 0.34821585 0.2997698

critic.0.weight f4 [128, 17]
00000000: ad22 4d3f c607 12bf 3e10 663d 5cf6 253e
00000010: 3ff9 7d3e 3ebf fbbe a9a5 753e 2366 0cbe
00000020: ce72 833e e279 203e edb3 28bc 0fca b73d
00000030: 15df 903d 9c4a c33d 94fb 8abd 2d8f a7bd
00000040: 09e5 b8bd 6130 89be b783 1fbe 9bc9 32be
00000050: 65fc 0abd f2b9 e53e cfdb c73e 08a9 1ebe
00000060: 1a6b cc3e 7d29 9abe 3c6b 12be 863a b2bd
00000070: b69f 82be f429 4a3d a400 663d 2dd9 b93d
00000080: 0b6f c0bd 438b 283d 1287 26bf 94de f73e
00000090: ea85 173f 126f 8fbe 9fa2 64be 0b14 c4bd
000000a0: 2885 093e a209 4c3e 1044 c9be 97e2 cebd
000000b0: 2a77 9e3d df39 823d fb6f a4bd fcf5 443d
000000c0: 742f 8ebd a5a3 95bd 3831 cdba 204d 07be
000000d0: 557c e93e 5d9e b13f 2579 63be f493 3cbe
000000e0: bf08 92be ab7e 013d 4c26 11be 433a 943d
000000f0: 92cc ddbd 0938 c9bd 1a73 abbd f714 cabd
00000100: 0fe3 853d f614 dabc 12c2 d73d 7d77 903d
00000110: ea98 a53e e67c 343e 971a 69bf f5df aa3e
00000120: b76f 183e ed3c aebd bfcc 31be 1d6e 31bd
00000130: e224 c2be 77f6 8e3e cdbb 063d 7086 02bd
00000140: 827c e73d dda1 7c3a 121c fd3d 52c1 1bbe
00000150: 4f8c acbc 7231 38be 651c 81bf a462 8bbf
00000160: 1d74 8a3c 1856 c93e 5cd2 58be 439f 503e
00000170: 419e 1b3d 9f14 1e3e 0110 1c3e fcbd b63d
00000180: 91a3 e23d 3298 f93e 07fd ddbd 0553 b5bd
00000190: 9dbf 62bd 6f0f 94bd 9921 063f 6c87 173f
000001a0: d4fd 13bf 15e1 e03d 7d2c 213e 2b18 b9be
000001b0: 0e99 4a3d 365a d4bd a69b ab3d a108 ae3e
000001c0: 55cf 0abe 295e ad3d 5498 68bc e18f 803e
000001d0: 5a1c ab3c 906b 28be 3740 2bbd 48a0 3abf
000001e0: 2cf4 95bf 5316 e83d be76 4c3e 24fb 623e
000001f0: 4a83 03be 046f 213e d6da 00bd 3114 663d
00000200: d981 4abe 05be f3bd b469 9abe e8b7 94bc
00000210: d7a8 293d 1838 eebc 3985 52bd e3a9 b53c
00000220: 6daa 51bf 98d7 ce3e ac3e 2d3f 34e1 333c
00000230: 91a1 07be db92 29bf 366b a23e fd88 a7be
00000240: 0e39 98bd b345 633e 71bb 63be c13f af3d
00000250: 059d 3abe c281 69bd c2ec 833d 775a cf3d
00000260: ef6a abbc a2b5 693f 198c 71bd 9cce 57bf
00000270: b2d8 ac3d 036d 8dbc f3ab cebd 61a3 1d3e
00000280: 524b 063e 9db8 103e 0ca1 a53d 18b2 da3d
00000290: 280b 863c f799 eebc e8fb f9bb 28c2 9dbd
000002a0: 9d5a d2bc 00c9 c5bd 94db 123f f897 193f
000002b0: 0c7f 92be 1a1a bdbc 3af9 a0be 2be4 33bf
000002c0: e363 2b3f b5f6 23be 43d9 293e 3d0d 88bd
000002d0: 371a 483e b61f 343e 6aa0 36be dacf 5c3d
000002e0: 1cc6 8c3d 0f73 94bd f152 8cbd b3fd 4bbf
000002f0: bfae 00be 14a1 a6be c6e8 11bd a118 81bd
00000300: 164b 9e3d edd4 513e 7fc5 2bbe 66af 04be
00000310: 38b0 bbbd 11a5 79bc 7084 d23c ff78 433d
00000320: 4e3a 403d d3d9 ab3c 22c3 d73d c870 74bd
00000330: 3524 babe 7aa0 cb3c 412c 89be e3c9 b33e
00000340: 1ef5 953d 9904 29bf 3d71 473e 7227 01bf
00000350: 9e75 54be 1d13 373e 7928 913d 5c1e a8bd
00000360: 2dc2 edbd bef0 db3c c2d9 16bd 600e d23b
00000370: 4121 adbb de0a 443f 9d97 5f3f aae5 d13e
00000380: 1e36 69be 193f 82bd f047 9e3e eb50 09be
00000390: 93a2 3bbf 910c 14be 48d7 97be f44f 2ebd
000003a0: d40d 8b3e 16a4 b5be 8808 063e f39c 893c
000003b0: 2a1c 1c3e e802 083b f7fa c73e f676 d63e
000003c0: 4e8b c3bf 2e75 c63e bfab aa3d 1afd 5dbd
000003d0: e8d6 cebd 485d 88bc e872 2cbd 706d 573b
000003e0: 1f89 54be 468f 80bd f0cb 043d 421b bdbc
000003f0: 5329 64bd ab3f bebd 3055 4dbd f78a 683f
0.80131036 -0.5704311 0.056167834 0.1620726 0.24802111 -0.49169344 0.23988976 -0.13710837
0.25673527 0.15671495 -0.010296804 0.089740865 0.070737995 0.09535715 -0.06786266 -0.081816055
-0.0902806 -0.26794723 -0.15577589 -0.17459719 -0.03393211 0.44868428 0.39034888 -0.15494168
0.39925462 -0.30109778 -0.14298719 -0.08702569 -0.25512475 0.049356416 0.056152955 0.09074626
-0.0939618 0.041148435 -0.6504985 0.48412 0.5918871 -0.28014427 -0.2232766 -0.095741354
0.13429701 0.1992555 -0.3930974 -0.10101812 0.077375725 0.06358694 -0.08029171 0.04808615
-0.06942645 -0.07306603 -0.0015654927 -0.13213015 0.4560267 1.3876454 -0.22214182 -0.18415815
-0.28522298 0.03161494 -0.14174765 0.07237675 -0.10830034 -0.09825141 -0.08371563 -0.0986728
0.065374486 -0.026621323 0.10535063 0.070540406 0.32343227 0.1762577 -0.910562 0.3337399
0.14886366 -0.085077144 -0.1736326 -0.043317903 -0.37918764 0.27922413 0.032893945 -0.03186649
0.11303045 0.00096371566 0.123588696 -0.15210465 -0.021062998 -0.17987612 -1.008679 -1.0889478
0.01690107 0.39323497 -0.21173996 0.20373254 0.03799272 0.15437554 0.1524048 0.089229554
0.11066354 0.48748928 -0.10839277 -0.08853725 -0.055358518 -0.07229506 0.52395016 0.5919101
-0.57809186 0.10980431 0.15739627 -0.3615125 0.04946237 -0.10368769 0.08379297 0.33990958
-0.13555653 0.08465225 -0.014196474 0.2510977 0.020887543 -0.16447282 -0.041809287 -0.7290082
-1.171514 0.11332383 0.19967172 0.22166115 -0.12843052 0.15765005 -0.0314587 0.0561716
-0.19776095 -0.11901478 -0.3015877 -0.0181541 0.041420784 -0.029079482 -0.051396582 0.022175735
-0.81900674 0.4039886 0.67673755 0.010978986 -0.13245226 -0.6623971 0.3172242 -0.327217
-0.07432757 0.22194557 -0.22239472 0.08557082 -0.1822396 -0.057008512 0.06441642 0.10124677
-0.020925013 0.91292775 -0.0589715 -0.84299636 0.08439769 -0.017263895 -0.100913905 0.15394355
0.1311467 0.14132924 0.08087358 0.106785 0.016362742 -0.02912615 -0.0076289065 -0.07703048
-0.025677973 -0.09657478 0.573663 0.5999751 -0.28612554 -0.023083735 -0.31440145 -0.7027003
0.6694929 -0.1601208 0.16586785 -0.0664315 0.1954125 0.17590222 -0.1783463 0.05390916
0.06873724 -0.07248508 -0.06851757 -0.7968399 -0.1256666 -0.32544768 -0.03562238 -0.06303526
0.07729165 0.20491381 -0.16774558 -0.12957534 -0.091644704 -0.015237109 0.025697917 0.047722813
0.046930604 0.02097789 0.105352655 -0.05967787 -0.3635575 0.024856795 -0.26791576 0.35114965
0.07322143 -0.6602264 0.1947679 -0.50450814 -0.20747992 0.17878385 0.07087798 -0.082089156
-0.11609302 0.026848193 -0.036828764 0.006410405 -0.005283505 0.7657908 0.8734072 0.40995532
-0.2277455 -0.06359691 0.3091426 -0.13409774 -0.73294944 -0.14457919 -0.29656434 -0.042556718
0.27158988 -0.3547675 0.13089192 0.016798472 0.15245119 0.0020753685 0.39058658 0.41887635
-1.5276887 0.38761276 0.08333539 -0.054196455 -0.10099584 -0.016646042 -0.04210177 0.0032871626
-0.20755433 -0.06277327 0.032421052 -0.023084287 -0.055703472 -0.092894875 -0.05013007 0.90837044

critic.0.bias f4 [128]
00000000: 1ff5 933c 5a4d 83be 354a b43e 08f2 7b3d
00000010: 4409 93be 1e06 b2be 930d 44be ad68 ed3d
00000020: 9331 c1bd e120 f6be 274d aebc 4d4e e0bd
00000030: 095b 76be d081 ab3c c525 a1bd cf12 febc
00000040: 8765 853e 49e0 3abe b05f 583d f265 77be
00000050: 6543 69be ea08 9abe 5a37 6e3e 2d2e 60be
00000060: 4c77 d53e d43d 01bf 8442 e63e 6bb2 98be
00000070: ca1a b0bd c048 2c3e cd4f db3e 6c93 6e3e
00000080: 70fe 63be 8127 5cbd e3ae 5abe 673d 6f3e
00000090: b211 ab3e 02fc 22be 2fee bb3e f4a7 fcbd
000000a0: 587e 00bd 3e75 d83d 7cea 223e 2495 2d3e
000000b0: 2bd2 dfbe 345f 883e ea9b 8ebe e213 bcbe
000000c0: 0985 a23e 33a0 25be 7f13 bb3e bcc0 0b3e
000000d0: 7fe6 d93d cb97 e5bd 3a65 963e dfbc dabc
000000e0: 8066 d2be 2a05 ee3e 98a0 04be 7e41 87bd
000000f0: d050 783e 351e e13d 8fa5 3abe 58df 83be
00000100: 93a1 69be 73f1 18be 402c 2ebd 98c8 0fbe
00000110: bfba 54be 3ba7 a03e b03b 4e3e 9374 2fbe
00000120: fbaf e3bd 632c 8fbd cc2d 8f3d c807 1a3e
00000130: 9bc1 363e fdf0 38bd c2eb 813e 2840 34be
00000140: 05f3 9abe 4ec3 933d f8ca 813e f667 c43e
00000150: a5e9 84be 8f4c 9b3e 1b55 e7bd ddfd b13d
00000160: 4967 ebbb 4609 003e 3d99 d4bd d410 4f3e
00000170: e4d0 ba3d d492 f63c 7a6a b7be e9b6 9d3e
00000180: 2326 b63c 0c28 84bd 80ed 1f3e b0d9 303d
00000190: b364 d83d 7f41 5d3b d4c3 8ebd 87b0 85be
000001a0: 5370 cf3e d46f b7be 09a1 163e 1dc3 c23d
000001b0: d6c5 bfbc 8ac5 4e3e ee7c b63d ecc4 85be
000001c0: 9178 003e 98a3 83be 8470 57be 5f0b bdbd
000001d0: 96d1 3c3d d662 32bd 30f8 353d c88e 1f3e
000001e0: 3c58 a53e 7d12 33bd f6a6 103e 2b92 913d
000001f0: 79e3 c93c aed6 5f3e c99e 63be 8996 313d
0.018061219 -0.25644952 0.35212865 0.061510116 -0.28718007 -0.34770292 -0.19145803 0.11592231
-0.09433284 -0.4807196 -0.021277023 -0.10952435 -0.24058165 0.020935923 -0.07868532 -0.031014828
0.26054022 -0.1824962 0.05282563 -0.24159983 -0.22779615 -0.30084926 0.23263302 -0.21892615
0.4169258 -0.5048497 0.44972622 -0.29823622 -0.085988596 0.16824627 0.4283432 0.23298424
-0.22265029 -0.05374861 -0.21355776 0.23363267 0.33411938 -0.15916446 0.36705157 -0.12336722
-0.03137049 0.10569237 0.15909761 0.16951424 -0.43715033 0.26635134 -0.27853328 -0.3673392
0.31742123 -0.16174392 0.36538312 0.13647741 0.10639667 -0.11210593 0.29374105 -0.026701389
-0.41093826 0.46488315 -0.12951887 -0.066042885 0.24249578 0.1099209 -0.18227218 -0.25756335
-0.22815542 -0.14935856 -0.04252267 -0.14041364 -0.20774363 0.31377587 0.20139956 -0.17134313
-0.1111755 -0.06990888 0.06991157 0.15042031 0.17847292 -0.0451517 0.2537518 -0.17602599
-0.30263534 0.07214986 0.25350165 0.38360566 -0.25959507 0.30331847 -0.112955295 0.08690999
-0.0071839434 0.12503538 -0.103807904 0.20221263 0.09121874 0.03009931 -0.35823423 0.30803612
0.022234982 -0.06452951 0.15617943 0.043176353 0.10566082 0.0033760963 -0.06970945 -0.26111242
0.40515384 -0.35827506 0.14709868 0.09509871 -0.023409765 0.20192543 0.08910547 -0.26126802
0.12545992 -0.2571075 -0.21039015 -0.092306845 0.046098314 -0.04355129 0.044426143 0.1558181
0.3229388 -0.043718804 0.1412619 0.071079575 0.0246446 0.21859238 -0.2222854 0.043356452

critic.2.weight f4 [128, 128]
00000000: 50d4 863d 4ce7 12be b294 39be a66c 4e3e
00000010: 9cfd 94be 3431 43bd a426 7f3e cc5f 3abc
00000020: d8f7 ba3e 0c54 8abd 348a 803e 9244 ce3b
00000030: 8c85 173e 734c 103f 4615 c9be 92c5 353d
00000040: 1a51 9f3c 687c 473d 4e77 5abe e8a1 063e
00000050: add0 0bbe 84f5 b03d 1925 68bd 52c6 d13d
00000060: 1d57 edbd c4cb 823d e7d3 063e 5e56 7d3e
00000070: a733 133c c38f b8be 0d43 6c3d d4c8 c93b
00000080: 07ca 43be e18b 91be 5edb 123e 509c 98be
00000090: fc32 00be 0011 d9bc 17c1 2bbd 7631 303e
000000a0: 39a1 0c3f 3101 5b3c 5491 3fbe 7d5d 833e
000000b0: 2d65 74bc 95f7 f2bc be03 d7bb b46d c73c
000000c0: 8c69 e0bd 9a08 4d3e 0f33 ecbd bff4 01be
000000d0: 4e92 2e3e c275 89be 0742 393d f45c bcbe
000000e0: 408d bf3c 47ae 12bd d2ee 1cbe 0a8e 60be
000000f0: 67e4 2b3c 5608 95bd 0a95 2bbc 0941 70bb
00000100: cfe9 023d fbe2 a1be 33d7 5a3e 35e9 a03d
00000110: 1e95 f4bb 9d89 25be 780b 79bd 1a25 a13e
00000120: 2fcb dc3e 7a1a 64be 77c3 473e a1ce dabd
00000130: 9b1a bcbc 975b a93d 6015 8a3d 09c6 143d
00000140: 6be2 843d 6a72 9f3e 150d e53d abff fbbd
00000150: cf95 d3bd 967f 023e 28e8 a4be be16 25be
00000160: 7780 83be 2b79 79be aee4 3b3d 970b a63b
00000170: fd5a 053e bb85 6f3e 47b5 47bd faaf 3bbe
00000180: f186 c83e 0205 293d 4ad0 61bc cdd5 183e
00000190: 912b f03d 91ec 64be 3e83 213d 3ef4 683b
000001a0: a8d9 19bc 5c92 46be 45c6 15be a988 c4be
000001b0: 3147 afbe 5d7d b0bd d598 97be 8154 783e
000001c0: 78cf 68bd 5b76 5e3d c238 9dbd 65c5 0ebe
000001d0: 06e1 c93e 8a17 2fbe c003 ddbd 6428 bfbc
000001e0: 5c6b fabb ab61 cc3c 1039 3e3d b4ed 1d3c
000001f0: b808 09bc 4121 88be 8391 5d3e 9698 a33d
00000200: da98 8a3d e79b 6dbc cc24 c73d 5a03 4abd
00000210: 2e9e 043d b942 be3d 608c 0abe 4743 0e3e
00000220: e5e6 eb3d 46d2 6abd e952 35bd 7be1 6bbd
00000230: 2f44 90bc ea71 3cbe 72b7 173d 4c29 1cbe
00000240: e447 f8bc 0ade 10bc 673a 833b 0431 d3bc
00000250: 05a5 863b fafd 693d 969e e4bc 458b e83d
00000260: 5d23 173d 80d2 c33b e844 8fbb 2f46 acbd
00000270: b386 e7bd f6c8 613c b3b9 283d 236a 4fbd
00000280: 4904 fa3c 138a a6bd a8cc a33c 100f 2f3d
00000290: 4bb3 1cbe c5aa fb3d 0eb8 0fbc d70f bd3c
000002a0: c189 41bd 1939 fd3c 85d0 35be e985 143e
000002b0: fd75 f4bc 6d9b df3b 2cb5 8fbd 5aea c23d
000002c0: 4e35 b8bd ca8f ddbc a9ae 14bd 73be 613c
000002d0: 0bcf 7f3d 4d4f 713d bd80 043e 725b 853c
000002e0: f652 e73b a9f8 893d 9a07 cfbc febe 16be
000002f0: 87b5 70bd 4aca 66bd 56c9 bfbd 6ef0 d63c
00000300: 6200 34bb 8d72 15bd fc9e 00be f0fe 4ebd
00000310: a999 f8bd 2825 5cbd 51a6 00bb 2158 3c3c
00000320: 5637 14be 2ab8 7abd fa76 623c bd40 b1bd
00000330: 26ec 39bd 3f4f 2cbe 0a9f 2f3d 3dbd 013e
00000340: 3f79 e0bc f289 46bd a538 2d3c 0deb 7fbc
00000350: 677d 56bd fd8b e5bd e16e 753d 5ada 24be
00000360: be93 25be 4457 2cbd 6242 3dbd 249e b13d
00000370: c775 4cbe edc9 1f3e 7cf6 a43d 253f b0be
00000380: b436 79bb 303e 063e 90f3 0dbd 497b b23d
00000390: 59c7 c63b 1d5f ca3d 855c e5bd f426 fc3c
000003a0: 4147 b63c 02cf c5bd 7dc4 d5bd dba9 38be
000003b0: 941c bdbd 2bd4 2cbd a0cd 84bc f675 26bd
000003c0: 7335 48bd 1905 23be c15c b93c c9a4 1e3e
000003d0: 2ca0 eb3d acf2 22bd 8489 073c e654 4b3e
000003e0: f03e 8ebd 16f8 d3bd a004 f73c 8dc6 e9bd
000003f0: eb36 b4bc dbf3 84bd 48d0 1e3e 7018 5e3d
0.06583464 -0.14346045 -0.18123129 0.20158634 -0.2909974 -0.047654346 0.24917084 -0.011375379
0.36517215 -0.06754312 0.2510544 0.0062947953 0.14797038 0.5636665 -0.39274043 0.04437787
0.019447852 0.048702627 -0.21334574 0.131477 -0.13653822 0.086405784 -0.056676004 0.10242905
-0.11588881 0.063865215 0.13166772 0.24739978 0.008984483 -0.3604718 0.057681132 0.006157974
-0.19120036 -0.28427032 0.14341494 -0.29806757 -0.12519449 -0.026497364 -0.04193219 0.17206368
0.54933506 0.013366983 -0.18707782 0.25657263 -0.0149167 -0.029659072 -0.0065617254 0.024344303
-0.109576315 0.20022812 -0.11533176 -0.1269102 0.17047998 -0.26847655 0.045228984 -0.36789668
0.023382783 -0.035810735 -0.15325478 -0.21929184 0.010491467 -0.072769806 -0.010472545 -0.0036659858
0.03196126 -0.31618485 0.21371154 0.07856981 -0.007464065 -0.16165777 -0.060801953 0.3147362
0.43123767 -0.22275725 0.19508158 -0.106839426 -0.022961905 0.082694225 0.06742358 0.036321674
0.06488498 0.31141979 0.11184136 -0.12304624 -0.10331308 0.12743983 -0.3220837 -0.16121957
-0.25683948 -0.24362628 0.045872383 0.0050672996 0.1302299 0.23390858 -0.048756864 -0.18328848
0.39165452 0.04126454 -0.01378257 0.14925309 0.1172706 -0.22355868 0.039431803 0.003554597
-0.009390272 -0.19391769 -0.14626415 -0.38385513 -0.34234002 -0.08617661 -0.2960879 0.24250986
-0.056838483 0.05431209 -0.07676841 -0.13942488 0.39429492 -0.17098823 -0.10791731 -0.02333469
-0.0076421928 0.024948915 0.046441138 0.009639192 -0.008363895 -0.2658787 0.2163754 0.07988088
0.06767435 -0.014502502 0.09723815 -0.049319603 0.032377414 0.0929007 -0.13530111 0.13892852
0.11518649 -0.05732944 -0.044268522 -0.05758808 -0.017610637 -0.1840283 0.03704018 -0.15250129
-0.030307718 -0.008842001 0.004004765 -0.025780208 0.0041090273 0.057126977 -0.02790765 0.113546886
0.03689896 0.0059760213 -0.004372228 -0.08411824 -0.11304989 0.013780823 0.04119272 -0.05063833
0.030519621 -0.08131804 0.019995049 0.042738974 -0.1530277 0.12288431 -0.008771909 0.023078842
-0.047250513 0.030911015 -0.17755325 0.14504208 -0.029841417 0.006823948 -0.07016978 0.09517355
-0.08994542 -0.027046103 -0.03629938 0.013778317 0.06245331 0.058913518 0.12939735 0.016278956
0.0070594503 0.06736881 -0.02527218 -0.14721295 -0.058766868 -0.05634526 -0.09364574 0.026237693
-0.0027466048 -0.036486197 -0.12560648 -0.050536096 -0.12138683 -0.053746372 -0.0019630382 0.011495621
-0.14474234 -0.06121079 0.013822312 -0.08654926 -0.045391224 -0.16827105 0.04287628 0.12669845
-0.027401565 -0.0484714 0.010572587 -0.015620005 -0.052365687 -0.11208341 0.059920195 -0.1609892
-0.1616964 -0.04207541 -0.046205886 0.08672741 -0.19966803 0.15604372 0.08054826 -0.34423175
-0.003802699 0.1310966 -0.034656107 0.08714921 0.0060662446 0.09881423 -0.11199287 0.030780293
0.022250773 -0.09658624 -0.10437868 -0.18033545 -0.092339665 -0.042194527 -0.01621133 -0.04063984
-0.0488791 -0.15919913 0.022627236 0.15492548 0.1150516 -0.03978221 0.008272532 0.19856605
-0.06945598 -0.10350053 0.030153573 -0.11414824 -0.021998843 -0.06491824 0.1550914 0.054222524

critic.2.bias f4 [128]
00000000: 05f6 503e 7127 5b3d a9c0 debb 7758 95bd
00000010: c5a0 073b 2cc6 9a3d 22a7 123e bbd4 f93e
00000020: c678 40bc 1693 95bd e870 d03c f0b7 f0bd
00000030: c04b 50bd 4f36 5f3e fe01 d4bc e987 0ebd
00000040: d117 10bc c904 753d ef41 03be 6d4a 593d
00000050: 9fa3 05bd 598f 123d 2133 3abd 5265 553e
00000060: 7aab f93d 14fa 09be 5495 423e c158 023e
00000070: 445d 9bbd 28c6 afbb f5e9 47bd e116 d83b
00000080: db8a 61be 8395 483e 33e5 473d 79bd 25be
00000090: 6674 5d3e f30e 69bd d04d 863d 4cce 653d
000000a0: 0fb0 95bd 6dea 1dbe 14e8 3ebe 55d4 7abe
000000b0: d730 cdbc 0d72 8c3e 1c07 83bc 81fb 873d
000000c0: ae90 edbe 8854 05be f49e 003e 1f09 35be
000000d0: a426 52bd 0884 6f3d a6da 80bd 1b15 1d3d
000000e0: eb0d 923d 02ec f43d 293b a8bb f637 f23d
000000f0: 7a3a aabd 710e ac3d a0e1 3fbd ca4f afbd
00000100: 8f08 583e 6345 0abe c734 f7bd 1daf 87bd
00000110: 9b5f 67be b870 95bd dc74 733d a7b0 5a3e
00000120: 833b 823d ab0c 533d 5166 b4bd 8772 1a3e
00000130: 83ec 223e a959 813d 107c a93e 1d17 d83d
00000140: 88c2 20be b51b 2e3e afd4 80bb a2c3 ac3d
00000150: 9232 5dbd a249 83be ffb6 99bd f787 233e
00000160: 2b05 673e 224b b8bd 8a7f 603d c469 9bbc
00000170: 9886 823e 450e 6bbd deee 46be 467b 0d3d
00000180: f16f a13d 947d a8bd 9759 06be 7e82 5ebc
00000190: bc37 42be 2b4a 84bd 64aa f73c e8f1 8a3d
000001a0: 7790 f23d 5f89 e13c 28db b5bd e77b 7b3e
000001b0: 7add ee3d 9ace 4bbe 4650 ecbb 07fa 90bc
000001c0: 8dd0 b1bd 2844 81bd 4ac9 59bd 6a48 f23c
000001d0: c644 5a3d a6d0 22bd 7a4c 65bd 8f65 843e
000001e0: ebd6 67be 080b 7fbd b7d2 233d decd 0f3e
000001f0: 8c23 75bd 2d72 273e d5e1 11be 4a23 5f3d
0.20406349 0.05350441 -0.006797869 -0.07292264 0.0020695191 0.075573295 0.14321569 0.48795113
-0.011747545 -0.07303445 0.025444463 -0.11753833 -0.05085349 0.21798061 -0.025879856 -0.034797583
-0.008794741 0.059819017 -0.1281812 0.053049494 -0.032626744 0.03578124 -0.045458917 0.20839432
0.1219091 -0.13474303 0.19002277 0.1272917 -0.075861484 -0.0053641982 -0.048807103 0.0065945243
-0.22025625 0.19588284 0.048802566 -0.1618556 0.21626434 -0.056899022 0.0655781 0.056104943
-0.07308971 -0.15421458 -0.18643218 -0.2449506 -0.025047703 0.27430764 -0.015994601 0.066397674
-0.46399444 -0.13020527 0.12560636 -0.1767926 -0.05130638 0.058475524 -0.06291704 0.038350206
0.07131561 0.119590774 -0.0051340056 0.1182708 -0.08311935 0.08401192 -0.046846032 -0.085601404
0.21097015 -0.13503031 -0.12070613 -0.06625197 -0.22595064 -0.0729689 0.059437618 0.2135645
0.06359007 0.051525753 -0.08808578 0.15082751 0.15910535 0.063159294 0.33102465 0.105512835
-0.15699208 0.17002757 -0.003931604 0.084357515 -0.054003306 -0.25642115 -0.07505607 0.15969835
0.22560565 -0.089987054 0.05480913 -0.018971331 0.25493312 -0.057386655 -0.19427058 0.03454139
0.07882679 -0.08227077 -0.13120113 -0.013580916 -0.18966573 -0.06459459 0.030232616 0.06784421
0.11843961 0.027531324 -0.08879691 0.24558984 0.11663337 -0.19903031 -0.007211718 -0.017697347
-0.08682356 -0.06311828 -0.05317048 0.029575545 0.053288244 -0.039749764 -0.055981137 0.25858733
-0.22640578 -0.06226638 0.039995875 0.14043376 -0.059848353 0.16352148 -0.14246304 0.054477014

critic.4.weight f4 [1, 128]
00000000: c798 cfb9 117c b6ba 3a50 fa3c 8c3d bd3a
00000010: b27e e4bc ec25 8139 400c 913d 68e5 b9bd
00000020: 9953 e939 490b 6ebd 30bf bbb9 a2bf 88bb
00000030: 9744 25ba e7ed 143e 5d34 1d3a 5b69 5dba
00000040: 7375 2c3a dd92 99bb 8244 a0bd aa2e 43ba
00000050: d1b9 3b3c d61b 75b9 d7f0 903a 71e8 ccbd
00000060: 8466 303d 3598 83bd 7d63 3d3d 36e1 6b3d
00000070: 022f 56bc 57f8 3c3a 20a7 cbb9 088e c5b8
00000080: 8f8d 493d 0a31 933d 5115 34b9 4890 bbbd
00000090: 7949 ed3d 0895 1c3d ac12 4239 e198 edba
000000a0: 7d24 9f3a 2eba 05bd 5c43 48bb 9f8d a73d
000000b0: df89 a7bd a86a 17be 34ab ce3a fc1a a93d
000000c0: 050e d5bd 82ad b33c b071 b23c b5d7 123d
000000d0: e0ff b339 ae01 513d b15c 89ba 17c1 d7bc
000000e0: 5337 2b3a 1d79 6dbd 3b9f b1bc 340e e83c
000000f0: 58cd f93a aed5 1f3c f8b4 7e3d ee38 e33d
00000100: d6ee c1bd 92d4 fdb9 5d2b 38bd fe38 97bd
00000110: 9d54 a13d 60e8 473d fe13 973d 146b cdbc
00000120: 69b2 3b3d 23b8 d3ba fdc4 a63a 10fd 92bd
00000130: 5e1c 4e3d fcb8 d0b7 0c64 eabd c16f 913a
00000140: 3f1d 853d adaf b43d 5261 073a a1f8 0bbb
00000150: df27 0ab9 f491 ba3d 97a2 0bbb 7ac7 d43c
00000160: 35ab 84bd 85fc 0c3d c5b2 5fba fa52 3d3a
00000170: 7b3a 39bd 7e61 1cbb add3 bf3d d3be 493d
00000180: 1bd3 c7bc 549a d7b9 b535 c83c eeeb d6ba
00000190: 3d09 ef3c 655a 3739 2307 29ba a296 88ba
000001a0: 81ed 6bbd 3ee9 43b9 eee0 ffbc 7eab 94bd
000001b0: aab7 023a af0a f8bd 9271 f2b9 d6fa 41ba
000001c0: d61c 823e 19dc 5bbd 5e4e 0f3a 3812 ad3a
000001d0: 100a 02bb f3fd 9e3b 6675 6bbd 9580 d13d
000001e0: 7fc5 4b3d 7e7c a739 1fa9 ebbb 8f86 2bba
000001f0: 1865 a43a 2f33 033e 5aeb bebc bc46 2b39
-0.00039595945 -0.0013922473 0.030555833 0.0014437898 -0.027892444 0.0002463305 0.070824146 -0.09076959
0.00044503508 -0.05811623 -0.00035809865 -0.004173235 -0.0006304471 0.14543878 0.00059968774 -0.000844618
0.00065787806 -0.004686697 -0.07825567 -0.0007445613 0.011457876 -0.0002337539 0.0011058104 -0.10005272
0.043066517 -0.064255156 0.046237458 0.057587825 -0.013072731 0.00072086364 -0.00038843695 -9.4201474e-05
0.049207266 0.07187088 -0.00017174079 -0.09158379 0.115862794 0.038228065 0.00018508238 -0.0018127227
0.0012141612 -0.032648258 -0.0030557727 0.08181309 -0.08180594 -0.1478678 0.0015767575 0.082571
-0.10403065 0.02193332 0.021782726 0.035850246 0.00034332182 0.051026992 -0.0010479895 -0.02633719
0.0006531376 -0.05797683 -0.021682372 0.028327085 0.001905839 0.009755535 0.062184304 0.11094843
-0.094693825 -0.00048414298 -0.04496323 -0.07383917 0.07877467 0.048805594 0.0737686 -0.025075473
0.045824442 -0.00161529 0.0012723502 -0.07177174 0.05032002 -2.4881672e-05 -0.11444864 0.0011095927
0.06499719 0.0882257 0.0005164343 -0.0021357911 -0.00013175559 0.091098696 -0.0021306628 0.025974024
-0.06477968 0.03442051 -0.00085334136 0.00072221423 -0.045221787 -0.002386182 0.09366546 0.04925425
-0.024392655 -0.0004112298 0.024439672 -0.0016397217 0.02917921 0.00017485915 -0.0006447902 -0.0010420869
-0.05759955 -0.00018683539 -0.031235185 -0.07259272 0.00049864745 -0.12111413 -0.00046242453 -0.0007399743
0.25412625 -0.0536767 0.0005466695 0.0013204282 -0.0019842423 0.0048520504 -0.057485007 0.10229603
0.049748894 0.00031945476 -0.0071917917 -0.0006543183 0.0012542335 0.12812494 -0.023305584 0.00016334181

exp_avg f4 [4]
00000000: 5eb1 963a 92a5 8e3a 307c b2b9 8f79 c2bb
0.0011496951 0.0010883084 -0.00034043333 -0.005934901

exp_avg_sq f4 [4]
00000000: 094b 5f3a 6f24 873a df9d 183b dc6e 633a
0.0008517956 0.0010310541 0.0023287458 0.0008675882
