genesis_tutorial/logs/drone-hovering/model_200.pt (torch, 474410 bytes, 36 tensors)

std f4 [4]
00000000: 2a17 023f b258 303f 7923 c53e c1df 2b3f
0.50816596 0.6888534 0.38503626 0.67138296

actor.0.weight f4 [128, 17]
00000000: 0d2e c43e 663f 14be a863 053f a76a 53be
00000010: a488 a03e 89fa 12be 5a54 463f c76f 24be
00000020: 185c b53d 5af0 c63d fe68 733d 5dfa 113e
00000030: 8305 6f3c e842 bc3d 2c3e a83c 2d03 2b3e
00000040: caa8 b43d 799b 2dbe 0e53 52be a87f 3dbf
00000050: 4ad7 193e 7d44 f03d c71f 2a3d c2b3 a53c
00000060: 4263 a4bd 2c4c 303e 4b45 3e3d 4f1c e13d
00000070: ebac 28bd 798d 473b 7301 0dbd 15ff 57bd
00000080: 270a 19be b93d 04be 9f08 773d b936 a0ba
00000090: b23a b03e 1885 afbd 561e 0d3d dcad e3be
000000a0: e0a8 733d 72f9 ecbe ba45 fe3d ac6f babd
000000b0: 3c6c b83d 9988 16be c47e 93bd a606 7c3d
000000c0: 660b a0bd 60cf 51be 25d7 d73b 1f8d 053e
000000d0: 6773 edbd de8a b43e de5c c23d bd88 eabd
000000e0: afb8 f5be f457 e0be 6e4f 02bf 53fa 4dbe
000000f0: 418b 80be c98e 203d 5383 51be 7c4b 61be
00000100: fa07 0d3c 01f0 c9bd 425b 1c3e 4aeb 1d3e
00000110: 545e 563e f3c2 b83e 303c 563e fc62 86bd
00000120: 4376 003f aafc 963c bb36 d93e eb94 4abd
00000130: c125 993e 7ecc 2b3e 7b8c b5bd 3936 c5bb
00000140: 61ba e53d d4c9 373e 28e6 2b3e f8b7 013e
00000150: 9c0f 99bd b443 123d 77b2 2a3d 6a81 a13e
00000160: 472f 9cbd 9c94 883e e0f6 66bd 5b58 f43e
00000170: 341b 93bd 05a7 113d 509c 123e 6200 f0bc
00000180: 7873 0f3e b83f f83d 63e4 9bbc 5e42 b73d
00000190: f029 993d 4775 1d3e f542 1b3f aa56 bfbe
000001a0: 1637 493e 6890 dabd 48f8 a23e d7af bebe
000001b0: 83e7 c23e 99cc d8be cf53 d0be 38ef babc
000001c0: 1e62 dfbd 5fbe 063e 7b45 47be 5872 0abd
000001d0: d516 d9bd c56c 4ebc fd93 8d3d 8eee d4be
000001e0: ef98 cabe 4fa5 0abf f8b7 223e 4d2a 10bf
000001f0: 8177 163e a5eb 21be b278 113f f42d 83be
00000200: 8139 70be 3fac ca3c 0e54 663d 3c40 27bc
00000210: 0b2c 4fbe abb7 afbc 5fa0 7e3c acf7 25be
00000220: 4fb9 d8bc 3b8b f23e 17a2 8cbe 1cac 15be
00000230: ee8e 3a3f 1911 e4be a6b4 e43e a3ce 75be
00000240: c8e9 d33d 3408 693e 7d74 6d3e e546 b7bb
00000250: b9ba 38be e525 3ebe ee8f d63d 73e4 bd3d
00000260: 140f 37bd 110b 193f 04f9 b33e b84d ef3b
00000270: 6ef5 563c 6103 c23e d5df 51bf 16b3 02bf
00000280: 2f66 ffbe baa7 7c3d 99c2 7ebe 6ab0 e43c
00000290: d466 01be 25bc f03d 1097 2dbd 15ee 05be
000002a0: a1c4 853e 96fc b93c 2337 d0be 2a94 533e
000002b0: 859d 8c3f 8b3a 51be a1d2 21bd 51ed 6ebe
000002c0: 15f1 063e 0fb0 a93d 3480 593d 25fe f2be
000002d0: f7cd ce3d 5c80 85bc 82e7 8e3d 1067 31bc
000002e0: 605c 0b3d 0cd2 f13c 64ea 9d3d f89c 89bd
000002f0: 4691 273e bf47 5fbf a12d f33d 59f1 3cbd
00000300: b897 223f 9f86 813e 92d1 3c3e 5b27 843e
00000310: ef8c 3b3e e39c 383c b4fb 92bd de0d b03d
00000320: d2c8 0f3e f385 b8bc 1f0d b9bd 4c85 28bd
00000330: bfbf 373f 4bdc 763e 70ab 94bf 924e 3b3e
00000340: 9c7d 9e3e a5d3 4a3e d951 fcbc 608e a5be
00000350: 2d37 c13e d34a 033d 09e7 943a 3752 873d
00000360: cab2 d83d b412 2cbd c3c9 73bd df91 31bc
00000370: 0607 b33d 8a17 b03e 2abb 083f 1c57 2bbf
00000380: 5d1f 60bd 5e58 013f 10b3 b6bd 0705 d0bd
00000390: 9490 9e3c 2fb1 3d3e e3a3 d83d bad5 95bd
000003a0: 7662 48bc 8bba ce3c 1598 03be 4378 23bc
000003b0: d513 223e c9f6 1b3d 7b4c 44be f8f4 c5bd
000003c0: 3771 4b3e 7b3d 9e3d 30c9 16be 531f 223f
000003d0: 8424 433c 1956 513f d484 acbd 57d0 bbbe
000003e0: 35c8 bcbc 4210 953d 0e0c d23d 47da 2bbd
000003f0: c59d 1d3c 9e24 66bd 977b fabc 745e 86bf
0.38316384 -0.1447731 0.5210519 -0.20646153 0.3135425 -0.14353384 0.7747246 -0.16058265
0.08855456 0.09713812 0.0594263 0.14255662 0.014588716 0.09192449 0.020537458 0.1670043
0.088212565 -0.1695384 -0.20539495 -0.7402291 0.15023533 0.11731813 0.04153421 0.020227317
-0.080267444 0.17216557 0.0464528 0.109917276 -0.041180532 0.0030449315 -0.03442521 -0.0527335
-0.14945279 -0.1291417 0.060310956 -0.001222334 0.3441978 -0.085703075 0.03445276 -0.44468582
0.059487224 -0.46284062 0.12415643 -0.09103331 0.09005019 -0.14700545 -0.07201913 0.061529778
-0.07814674 -0.20489264 0.0065869265 0.13042115 -0.11594277 0.35262197 0.09490369 -0.11451862
-0.47992465 -0.43817103 -0.5090245 -0.20115022 -0.25106242 0.03919867 -0.20460252 -0.22001451
0.008607859 -0.0986023 0.15269187 0.15421787 0.20934421 0.36086234 0.20921397 -0.065618485
0.50180453 0.018431026 0.4242457 -0.049458425 0.29911616 0.16777226 -0.08864685 -0.0060184267
0.112171896 0.17948085 0.16787016 0.12667835 -0.074736804 0.035709098 0.041674104 0.31544048
-0.07626205 0.2667588 -0.056387782 0.4772366 -0.07182923 0.035559673 0.14317441 -0.029297058
0.14008892 0.121215284 -0.019029802 0.089482054 0.07478702 0.15376769 0.60649043 -0.37370807
0.1964992 -0.106720746 0.3183005 -0.3724353 0.38067254 -0.42343596 -0.4068894 -0.022819147
-0.10907386 0.13158558 -0.19460098 -0.033800453 -0.10600058 -0.012599175 0.06912992 -0.41588253
-0.39569804 -0.5415849 0.15890491 -0.56314546 0.14694025 -0.15812548 0.5682479 -0.25620997
-0.23459436 0.024740336 0.056232505 -0.010208186 -0.20231645 -0.021449884 0.015541165 -0.1620776
-0.02645555 0.4737185 -0.27467415 -0.14616436 0.72874343 -0.44544294 0.44669074 -0.24004607
0.103473246 0.22757035 0.23188968 -0.005593168 -0.18039979 -0.18569143 0.10476671 0.09272089
-0.044692114 0.5978251 0.3515092 0.007302966 0.013120038 0.37893203 -0.81982166 -0.51054513
-0.49882647 0.061683394 -0.2487892 0.027916152 -0.12636882 0.11754636 -0.042380393 -0.13079102
0.26126578 0.02270345 -0.40667066 0.20661989 1.0985571 -0.20432489 -0.039507512 -0.23332717
0.13177903 0.08285534 0.05310078 -0.47459522 0.100978784 -0.016296558 0.0697775 -0.010827795
0.034023643 0.029519103 0.07710722 -0.067193925 0.16364011 -0.8721885 0.118739374 -0.046128605
0.63512754 0.2529802 0.1843932 0.25811276 0.1831548 0.011267873 -0.07176915 0.08596395
0.1404145 -0.02252481 -0.09035706 -0.041142747 0.71776956 0.24107473 -1.1614819 0.18291691
0.30955207 0.19807298 -0.030800747 -0.32335186 0.37737408 0.03205378 0.0011360358 0.06607478
0.10580976 -0.042010024 -0.059518587 -0.010838001 0.08741574 0.3439296 0.5341059 -0.66929793
-0.05471741 0.5052546 -0.08920872 -0.10157209 0.01935605 0.18524621 0.10578134 -0.07316156
-0.012230506 0.025235435 -0.12850983 -0.009977403 0.15827878 0.03807715 -0.191698 -0.09665865
0.19867407 0.0772657 -0.14725184 0.63329047 0.0119105615 0.81772 -0.084237725 -0.36682388
-0.023044685 0.072784916 0.102562055 -0.041956212 0.009620135 -0.056187265 -0.03057651 -1.0497575

actor.0.bias f4 [128]
00000000: 3356 0d3e 122e 0e3e 8a87 2d3e 1a67 0ebe
00000010: 221f 85bc 3385 6a3d ec2d 083e c236 0d3e
00000020: ae0e 5c3e 840e 60bd 5772 b63d 784e 053d
00000030: 3b1d 433d a1c5 ba3d 60df 623d 80d5 0fbd
00000040: 911c 41bd c993 293e 36ce babc 0914 26be
00000050: 0f17 c5bc 502e 54be f815 283d 302e 2cbe
00000060: a1b3 833d 7f4f 423d cf11 723e 4581 b7bd
00000070: d02d 31be 836b 0d3e 76eb 3e3e 4e9c 41be
00000080: e334 11be 0184 94bd 05c5 933d 20e3 b63c
00000090: ef37 8c3d 8720 733e 5cc4 923d def8 92bc
000000a0: d67b 69be efb6 733d 913f dabc cc13 a9bd
000000b0: 2e53 40bd e6b3 ad3d c6e2 35be 503d d0bd
000000c0: e7c7 013e fd73 863d 9052 66bd 0d54 033b
000000d0: bcce 303d ff54 f5bc 370c f5bd 7c53 99bd
000000e0: c021 e63d 0ce6 893b a42c 0cbe c39e e1bc
000000f0: 2ea2 483d 5027 383d 3691 7fbd d015 383d
00000100: 23f4 713c 50b9 2dbd 6cb7 e0bc 058b 9c3d
00000110: 29bc 50be ae95 1cbd 359f 1dbe 069a 23bd
00000120: 7cc8 6ab9 9e49 ddbd f4ea adbd 0eb1 21be
00000130: f6e2 96bd e2dc aebe 6f7f aabc 7146 0ebe
00000140: 8e70 513b e338 143d 980e 4a3e 5d3a ca3d
00000150: 4816 f13d 48a7 2b3e 0b24 8ebe be83 89be
00000160: 5d29 c03d 03af fc3d 8dbf 38be b2ea 663e
00000170: b5de 3e3d 3b62 d63c 5225 903a a012 debd
00000180: 6c74 42bc 3a0e 4d3d 10d5 fabd fdc0 523e
00000190: d393 3e3d cdc0 efbd 6afa 233e 1698 c53d
000001a0: 0934 86bd 39d5 aabd 6c09 083e 7ddc 26be
000001b0: 77fd b0bd 8e45 8ebd 5878 dbbd 41cf 53be
000001c0: f1be 9dbd 5f66 d13d 5c0f 32bd f575 d53c
000001d0: cb16 023d e638 85bd e0a6 5c3c 33f8 81bd
000001e0: f4c5 a53d 60b2 8f3d 7447 993d 660d 97bd
000001f0: 433e 12be ffe4 ca3d 82b7 04be 3bcb b73d
0.13802414 0.13884762 0.16946235 -0.13906518 -0.016250197 0.057255935 0.13298768 0.1379042
0.21489975 -0.054701343 0.08908527 0.032545537 0.0476353 0.09119726 0.05538881 -0.03511572
-0.047146384 0.16560282 -0.022803407 -0.1621858 -0.024058847 -0.20720792 0.041036576 -0.16814494
0.06430746 0.047439095 0.23639606 -0.08960203 -0.17302632 0.13810544 0.18644509 -0.18907282
-0.14180331 -0.0725174 0.07215313 0.022325099 0.06846606 0.23742877 0.07166359 -0.017940935
-0.22801146 0.05950063 -0.026641639 -0.08255729 -0.046954326 0.084815785 -0.17762288 -0.101679444
0.12673913 0.06565092 -0.05623108 0.0020039112 0.043165907 -0.029947756 -0.119652204 -0.074866265
0.11236906 0.004208332 -0.13688904 -0.027541524 0.04898279 0.044959366 -0.062394343 0.044942677
0.014767679 -0.042413056 -0.027431212 0.07643703 -0.20384277 -0.038228683 -0.15392764 -0.03994181
-0.00022390665 -0.10805057 -0.084920794 -0.15790197 -0.07367508 -0.34152895 -0.020812718 -0.13894059
0.0031957957 0.036187064 0.1973213 0.09874413 0.11771828 0.16763031 -0.27761874 -0.26858324
0.093828894 0.12338068 -0.18041821 0.22550467 0.04659911 0.026169887 0.001099745 -0.10843396
-0.011868577 0.050062396 -0.1224767 0.20581432 0.046527695 -0.11706696 0.16013494 0.09648149
-0.06552894 -0.0834145 0.13284844 -0.16295047 -0.086420946 -0.0694686 -0.10716313 -0.2068453
-0.07702435 0.10224604 -0.04347168 0.026057223 0.03176002 -0.06504993 0.0134675205 -0.06346168
0.08094397 0.07016444 0.07484332 -0.073756024 -0.14281563 0.09906959 -0.12960628 0.0897431

actor.2.weight f4 [128, 128]
00000000: 2f13 763d f293 933d 2a3d 823b 1025 06bc
00000010: a2b6 293c 0d10 113d f38f 043d 8b9f 4c3d
00000020: 9d7d 10bc 7453 393d 2c6e 0dbd 83c8 6abc
00000030: 0889 05bd cafe bc3c f97c 47bd 39c5 2abd
00000040: 5f50 483d 4af9 d53c b41c 9abc d3bd 04be
00000050: 894a 87bd 2459 9b3c e36d e53c 6572 39bd
00000060: bb39 173c 2efe 813c f1c7 b73c 5f8b 02bc
00000070: 9d6e 01bd 31f3 94bd fb49 5d3d 8e87 503d
00000080: 4b23 42bd 527e cabc d09e b13b 6779 453d
00000090: 33db 103d 05e0 1c3d 2ef4 32bd 5c0c 573d
000000a0: d139 bbbd 527f 533c a6ff ab3d 81e3 393d
000000b0: c35e 223d b765 ba3c db2f 10bd 3718 ff3b
000000c0: f8f1 4dbd ee90 d9bc 6c0d 17bd 3227 a23b
000000d0: e5af d1bd 5da9 e63d e6ff 46bb a278 c03d
000000e0: 948d 58bd a0f5 7a3c 4584 f33d 9151 633c
000000f0: 51cd 913c dfa1 823d 21da e8bc 2026 98bd
00000100: 43b9 053c 58ce 213d 1df5 aabc 9b3b 11bc
00000110: d101 5dba 774d 9e3d 7588 333d ef80 a93c
00000120: 2974 d03c 1898 31bd 9b33 07bd a9c1 3e3c
00000130: 94f3 643d d0fc 083d c315 893c f0f5 74bd
00000140: fcd2 14be b6c3 d23c 3068 a43d 9f77 0a3c
00000150: c423 9ebb f563 a4bd 73b6 093d c1ab a53d
00000160: 902b 0fbd 538f 803d 2eb8 4fbc b530 3ebd
00000170: 6068 99bd f235 e33c d648 773c ac6a cd3a
00000180: 2d7d ed3d 6264 473d f084 053d 202e 00bd
00000190: e67d 82bd 76d3 83bc fab1 2e3b 45c9 8e3c
000001a0: abcb c7bc 847c fa3c 0107 46bd b297 563d
000001b0: cc75 1ebd 03d3 0fbd 1bff 353d d0d4 36bd
000001c0: 8291 2fbd 53d5 71bb bb5b 04bd fbe1 443d
000001d0: 3e01 ae3c bb8e 953d 8005 763d 4c70 a4bd
000001e0: fbfb 4bbd 3606 cabb ebde 04bd 95bd 60bc
000001f0: e92a 5abd 2f2d a93b a106 22bd 734a 43bc
00000200: 50dc 0cbd 06ea b93b ff90 6abd c671 423d
00000210: 629c 353d 966e 78bc b72d 033d f65c c63b
00000220: c069 24bd ca99 8d39 e932 9dbd 2650 033d
00000230: 0067 94bd 1851 123d b273 b939 644d 463d
00000240: 7683 89bc 624e 64bc 518e 2c3d fa6d 8b3d
00000250: 4760 cd3c 44a7 86bd 9472 06bc 4b63 1c3d
00000260: c8f0 7f3d 94de 79bd fab4 c33d d2e2 0bbd
00000270: 2acf ea3d 17a7 09bd cf35 e23b d88b 193d
00000280: 2a45 c73a ce3f 99bc 8f29 e03c 51ff 2ebd
00000290: a23f f9bd e6b3 04bd c203 3a3d 8567 e63c
000002a0: 02f3 bebc 05d2 6f3d ede0 d93b 72a5 813b
000002b0: 85ba 273d b9aa a3bb c120 c03c 574c 6fbc
000002c0: fdb0 f63c 1f64 813d c82b 44bd f081 6d3d
000002d0: 1ee0 323c d0e3 c8bc 74bf 46bc a3e3 6e3d
000002e0: 803e 0b3d b8d8 86bc 2467 333d d192 183d
000002f0: 031d 21bd b070 0b3a 0e13 84bd 56dc 043d
00000300: 01cc 50bd 5c41 d239 02cb 503c dc31 f3bc
00000310: 5783 9fbc 1421 b63c 3d0f 313d 2c78 74bd
00000320: c9e0 67bd 7352 a2bb 0efc 443d f6a8 9d3d
00000330: 8472 703d 05a5 95bd f832 9abc cc99 6abd
00000340: 3240 25bd 8beb 5d3b f8d4 5c3c f549 a4bd
00000350: 25e1 12bd 66ec d53c 6f0d 50bd 65c9 91bd
00000360: a3b4 e2bc b600 833d 4e22 3ebc f271 dcbd
00000370: 2804 54bd 41b0 97bd bfb4 6ebd 0ece b53b
00000380: 905e 153c c79b 77bc f9a6 8bbc 3319 e93d
00000390: 5b6e c43c 608f f4bc 5f23 febc 973a 0bbd
000003a0: 5ef8 1ebd ac62 cb3c 00f4 833c 76f5 9bbd
000003b0: 0b32 6f3a 575b 383d 93a7 3bbd 4a73 cbbc
000003c0: 5343 8bbb 18a6 bcbb 8277 693d b579 1e3c
000003d0: 5d6c 623d 8ec7 16bd 659f 303d 9dc0 3a3c
000003e0: ecd9 bbbd be50 28bd 0834 50bd 157a 7ebd
000003f0: c0af a3bd 2933 7d3d 7470 a73d 6711 11ba
0.06007689 0.07205953 0.0039745765 -0.008187547 0.010358484 0.035415698 0.032363843 0.04995684
-0.008819011 0.045245603 -0.034528896 -0.014330032 -0.032601386 0.023070712 -0.048703168 -0.041691992
0.048904773 0.026119847 -0.018812515 -0.12963037 -0.06606013 0.018963404 0.0280065 -0.04527511
0.009230073 0.015868273 0.022434207 -0.007967799 -0.03159963 -0.072729476 0.05402563 0.050910525
-0.04739694 -0.024718437 0.0054205433 0.04821148 0.035365295 0.03829958 -0.0436899 0.05250202
-0.09141887 0.0129087735 0.083983704 0.04538298 0.039641153 0.02275358 -0.03520189 0.007784869
-0.050279588 -0.026558366 -0.036878034 0.00494852 -0.10238627 0.11262772 -0.003036493 0.09398009
-0.052869394 0.015317351 0.11890463 0.013874427 0.017798098 0.06378531 -0.028424324 -0.07429147
0.008161846 0.039503425 -0.020868832 -0.008864309 -0.00084307516 0.07729619 0.043831307 0.020691363
0.025446014 -0.04335794 -0.0330082 0.011642852 0.055896357 0.033444226 0.01673401 -0.059804857
-0.14533609 0.025728088 0.08027685 0.008451371 -0.004826041 -0.08026878 0.033621263 0.080894
-0.034953654 0.06277337 -0.012678189 -0.04643317 -0.07490611 0.027735684 0.015093049 0.001567205
0.11596141 0.048679717 0.032597482 -0.03129399 -0.063716695 -0.016092043 0.0026656375 0.017429957
-0.024389109 0.030576952 -0.048346523 0.05239076 -0.03868656 -0.035113346 0.04443274 -0.044636548
-0.042863376 -0.0036900833 -0.032314043 0.048067074 0.021240827 0.07302614 0.06006384 -0.080292314
-0.049800854 -0.006165291 -0.032439154 -0.013717075 -0.05326358 0.005162857 -0.039557103 -0.011919606
-0.034389794 0.0056736497 -0.057267185 0.047471784 0.04433859 -0.0151630845 0.03202602 0.0060535623
-0.040139914 0.00027008198 -0.07675726 0.032058857 -0.07246208 0.03572187 0.0003537215 0.04841365
-0.016786318 -0.013934704 0.04212791 0.06808086 0.025070323 -0.06574872 -0.0082060285 0.03818063
0.062485486 -0.061003283 0.09556003 -0.03415186 0.11465295 -0.033606615 0.006903387 0.03748688
0.0015203108 -0.018707182 0.027363567 -0.042723957 -0.1217034 -0.032398127 0.04541374 0.028125534
-0.023309235 0.0585499 0.0066491277 0.00395649 0.040949363 -0.004994717 0.023453118 -0.014605603
0.030113691 0.06317925 -0.047893316 0.057985246 0.0109176915 -0.024522692 -0.012130607 0.05832256
0.03399515 -0.016460761 0.043799534 0.03724939 -0.03933431 0.0005319221 -0.06448947 0.03243669
-0.050975803 0.00040103018 0.012743713 -0.02968686 -0.019471807 0.02223257 0.043227423 -0.059684917
-0.056610856 -0.0049536764 0.04809194 0.07698242 0.05870296 -0.073068656 -0.018823132 -0.05727558
-0.040344425 0.0033862318 0.01347851 -0.08021919 -0.035859246 0.0261137 -0.05079406 -0.07118491
-0.027674025 0.0639662 -0.011604859 -0.10763921 -0.051761776 -0.07406665 -0.05827784 0.0055482453
0.009116784 -0.015112824 -0.017047392 0.113817595 0.023978403 -0.029853523 -0.031022726 -0.033991423
-0.03881108 0.024827324 0.01610756 -0.07615177 0.00091245834 0.045008983 -0.045814108 -0.024835248
-0.004249969 -0.0057571046 0.056998737 0.009672572 0.055279125 -0.036811404 0.04312076 0.011398462
-0.09172425 -0.041092627 -0.05083087 -0.062128145 -0.07992506 0.06181637 0.081757456 -0.0005533904

actor.2.bias f4 [128]
00000000: 38a7 3a3d 8aba c9bb 9aa5 e83d e5ef 4fbd
00000010: aac9 c93d f1a9 b6bd b511 57bd 3081 10bd
00000020: c782 973d 8995 c23c cac6 8e3c 3104 53bd
00000030: de3c bebb 7e17 303d 5a82 afbc 535e 12bc
00000040: 3c19 3e3d 7249 4d3d 071e 21bc f56a bc3d
00000050: 7654 203d ef03 81bc c8fb f3bb 307a ee3b
00000060: 4740 043c 2424 ac3c e728 a0be 5ad5 4b3d
00000070: ad8d 13be a92b 5dbd 953e c03e dd3c 54be
00000080: dd46 27bd 36be 99bc 5244 403d dc0f 383d
00000090: 06e0 9ebc 8727 40bd 24a4 3c3e 535a 3a3d
000000a0: ea4b 9bbd a0d6 f93c fb07 903d 209e 913d
000000b0: 9753 653d 37d5 52bc b390 a6bd 247f ae3d
000000c0: 795a 713d 3546 b63c fc12 893c de23 fc3c
000000d0: db79 c8bc 96b7 6e3d ec5e 703d 1206 7a3c
000000e0: 4f5a 82bd c37d 06bb 1d80 e0bc 1a28 493d
000000f0: 9d08 8b3d fe9f 633d a286 683d a296 7cbc
00000100: bfdf b0bd 99f4 e4bd 2f9e 0e3f 4757 403d
00000110: 1b25 50bc ee9b 433d 712b 98bd 8d6b 8fbd
00000120: 8e0d 833d 3efb 083b 0b21 423d c19d edbc
00000130: 10bd 803e 2962 823d 065a 05bb a080 3bbd
00000140: 0540 34bc e8ea 4d3d 5b52 03bc 8eea 24bd
00000150: 0026 b2bd dd54 263d dada 3e3e ba04 023d
00000160: 2b45 2d3d 5f34 aabd 0791 1a3d 74c8 ce3d
00000170: b6ab 653d 00a8 b0bd 00ad 833c 9613 1ebd
00000180: 1a3c 463b 563e 413c c133 debc d731 b8bd
00000190: d8a1 adbb 5e05 19bd e3bd 28bd 9874 19bd
000001a0: 0e1a b7bd 6429 703d 73fc 5e3d 9388 ecbd
000001b0: 02d4 1abc 4b34 91bc 252b 353d 8c39 de3c
000001c0: 26a7 a4bd 8f26 833c fb2e 0dbd f86b 213d
000001d0: bee9 943d 9381 65be eb2d a93c c018 0bbd
000001e0: 2ac4 563b 5dcc 4fbc ce8c d3bd 425c 333d
000001f0: e335 c7bc 342b d1bc 14f6 a43d 6ac5 8f3c
0.04556963 -0.0061562704 0.11359711 -0.05076589 0.098529175 -0.089191325 -0.05250712 -0.035279453
0.07397991 0.023752945 0.017428774 -0.05151767 -0.005805596 0.042991154 -0.021424461 -0.008933621
0.046410784 0.05011887 -0.009833819 0.09200088 0.03914305 -0.015748946 -0.007445786 0.0072777495
0.008071966 0.021013327 -0.31281206 0.049764015 -0.14409514 -0.053996716 0.37547746 -0.20726342
-0.040839065 -0.018767457 0.046940155 0.044937 -0.019393932 -0.046912696 0.1842199 0.045496296
-0.07582839 0.030497849 0.07032772 0.07110238 0.05598792 -0.012868217 -0.08133068 0.08520344
0.058924172 0.022250274 0.016732685 0.030778822 -0.024472168 0.05828055 0.058684275 0.015260236
-0.06364881 -0.0020521737 -0.02740484 0.04911051 0.06788752 0.055572502 0.05676902 -0.015416773
-0.08636426 -0.11179466 0.5571012 0.046958234 -0.012704159 0.047756128 -0.07430161 -0.070029356
0.0639907 0.0020901705 0.047394793 -0.029005887 0.25144243 0.06366379 -0.0020347848 -0.045776963
-0.011001592 0.050272852 -0.008015241 -0.04026275 -0.08698654 0.040608276 0.18638173 0.03174279
0.04230229 -0.0831077 0.037735965 0.10096827 0.05607196 -0.086257935 0.016073704 -0.038592897
0.0030248226 0.011794647 -0.027124288 -0.08993881 -0.0052988343 -0.037358634 -0.041196715 -0.037464708
-0.089405164 0.058633223 0.054439973 -0.11549487 -0.009449961 -0.01772513 0.0442306 0.02712705
-0.080396935 0.016009597 -0.034468632 0.039409608 0.07271145 -0.2241271 0.020651778 -0.03395915
0.0032770731 -0.012683001 -0.10329591 0.043789156 -0.024317687 -0.025533296 0.08054748 0.017550189

actor.4.weight f4 [4, 128]
00000000: 9155 95bb 8a1b 963b 6e2a 313d 9131 1f3a
00000010: 68ea bb3b b8e1 f6ba cff8 f739 b269 eb3a
00000020: d2f0 b2ba 5981 c6bb 79f0 f737 84e4 e43a
00000030: dac9 a63a 4480 a7ba bc9a abba ba45 2bba
00000040: 70e4 923b 8e02 45ba 3890 02bb 2c2f e4b8
00000050: 292a 6cbb f0c1 e3ba eb0b b33b d5ec 863b
00000060: fdeb 133b 9332 1c3c 495d 113d 72fd 8c3b
00000070: bcee 14be 582f 67bb d41b 89bd 9fa8 f7bd
00000080: cb66 d33b e1b2 2f3c 7427 1c3c d90c 5fbc
00000090: 3127 1c3b 64b2 e2bb 083f 7b3d 4b1f e23a
000000a0: e404 15bb e81a 59bb 668c 9ebd 2614 893c
000000b0: 3fec 57bb b8f0 8fbc 22c4 cfbd dd09 b3bc
000000c0: de99 283d d2c8 e0b9 3685 adbb e696 833b
000000d0: 071d 603c 0a02 903b f1fd bdbb d840 2cbb
000000e0: 01fb 9cba d477 453a d379 c13a 5732 66bb
000000f0: e8fa 88ba 4c3e eb3d 9d25 0abb f76d 223b
00000100: d1a2 ddbd de2c dabd e44e ad3e 52aa 0b3e
00000110: 3dad bd3a 49a3 8abb 274e 74bd 7339 af3b
00000120: c03e afb8 030c 8f3b 7995 743b 836a 8aba
00000130: 5478 d1bd 4b07 98bc 8cca 013b 16bd 02bb
00000140: 7f4c 31ba c471 5bbb a2c3 fc3a caa0 e63a
00000150: 8844 953d a018 32bb b68b 073d 24b7 5fbb
00000160: ca4a 18bd 152c 753b aef0 a03b cd7e 10bd
00000170: 4112 4ebb 5e6f 93bb d45f 8dbb 1a2c 23bb
00000180: 5064 c33b 1900 97ba ba5c a3bb ab5c 0ebd
00000190: a08f 3dba 524f 1739 9b9a 05bc 02ab c0bb
000001a0: f584 293b 959c ddbb 71c5 cbbb b344 a33b
000001b0: c9d4 8d3a 5eb5 743a e143 0a3e 0d63 d73b
000001c0: 25f4 243c 8889 453a 4fe5 68ba 5a6d d7bc
000001d0: bf26 c2bb c309 c4bd d0c4 59bb 4003 453b
000001e0: 7d70 533b 2ad9 ce39 9385 c33b e6c0 eb3b
000001f0: e838 463b 4faa 873b b740 40bd efe0 ab3b
00000200: 73ac 0ebb a263 89bb 39a2 cf3b 5457 5d3b
00000210: 6c1d 56bb 52fe eabb 196f 1bbc 2312 acb9
00000220: ba9c 17bc 72be b638 0a4e 00bc 9663 1d3b
00000230: 9a44 22bc c609 a8ba aae4 9abb fd91 803a
00000240: 5dad b8bb a053 82bb 8f27 06bc e031 6e39
00000250: 3f8e a83b 2e03 e8bb 55db ec3b 4086 e0b8
00000260: 5e46 c53a 7988 043c 3378 c23c 097a 8e3b
00000270: 91ae e3bd 9e8d 2bbc fc84 953d 5f20 0fbe
00000280: c8fa 72ba 015c ef3d cdbc 7a3a a01c a73d
00000290: 5cc0 ef3a ce60 2cbc efd2 fcbc fe9e abbb
000002a0: 5291 773b aad0 2e3c 79d7 253e bb39 213c
000002b0: 8a40 1a39 6967 203d 4883 a93d fa98 f2bc
000002c0: afcb 3abe 8c92 b93b 3566 79bb 886f d33a
000002d0: 9a99 afbc e222 343b 8d96 35bc 7204 733a
000002e0: 6c07 a6bb f708 253b 2c14 4b3a 79bc 5f3b
000002f0: cb8c b7ba 9516 21be 0a3f 81bc 0053 09bc
00000300: 99e7 dcbb 2773 47bc 1882 4a3e 3383 1c3d
00000310: a03f 26bb d1b0 a13a 581e 90bd 801b 90ba
00000320: cc7a 99bb c639 62ba 00d0 fd3b b5b8 c2bb
00000330: f709 8f3e 9bc7 5dbc 14b3 173c 9c79 c9bb
00000340: b586 0f3c 9331 7fbb 2b5a fc3b 74aa af3b
00000350: 459f 1b3e 8454 20bc 3708 923b bd10 9dbb
00000360: 5c11 303b a6b7 00bc 2030 bb3b 5fa7 39bc
00000370: 52f1 78bb f7b4 c1bb 0fbc 9fbb 7b10 8a3c
00000380: 964f a83b ceef ccbb 3418 4bbc 1431 823b
00000390: ca69 14bc d28a 7cbb 9635 b5bc 4bf2 3ebc
000003a0: 3ac1 efbb 2283 eabb 3ca8 88bb 9c66 ea3b
000003b0: dffc aebb cdb1 c63a bf1e 96bd c6f4 253c
000003c0: 124a e6bb 8744 49bb 3881 28bb 58cb 3f3d
000003d0: 66d4 743b c2a0 033d e475 983a f869 9c38
000003e0: f246 77bb a4ae 25bb 0e9c 8a3d 496a 39bc
000003f0: 1e7d 9bbb c53a de3b dd91 c33c c43e 943b
-0.0045573195 0.0045809196 0.043253355 0.00060727546 0.0057347305 -0.001883558 0.00047296888 0.0017960577
-0.0013652092 -0.0060579 2.9556673e-05 0.0017463122 0.0012724951 -0.0012779315 -0.0013092379 -0.00065335224
0.0044827983 -0.00075153343 -0.0019922387 -0.00010880674 -0.0036035872 -0.0017376523 0.005464067 0.004117588
0.002257108 0.009533542 0.035489354 0.004302674 -0.14544195 -0.0035276022 -0.06694761 -0.12092709
0.006451463 0.0107238 0.009530891 -0.013613903 0.002382707 -0.0069182385 0.06133941 0.0017251758
-0.002273851 -0.003312761 -0.077416226 0.01673324 -0.003294721 -0.017570838 -0.10144831 -0.02185529
0.041162364 -0.00042874232 -0.005295421 0.004015791 0.013678796 0.0043947743 -0.0057980944 -0.0026283767
-0.001197666 0.00075328094 0.0014761038 -0.003512522 -0.0010450752 0.114864916 -0.0021079548 0.0024784782
-0.108220704 -0.10653089 0.3384925 0.13639191 0.0014471185 -0.004230891 -0.059644844 0.0053474247
-8.3563384e-05 0.0043654456 0.0037320538 -0.0010560307 -0.10228029 -0.018558165 0.0019804565 -0.001994913
-0.0006763413 -0.0033484558 0.0019284377 0.0017595526 0.07288462 -0.0027175322 0.033092223 -0.003413626
-0.0371807 0.0037410308 0.0049115038 -0.035277177 -0.0031443986 -0.00449936 -0.004314402 -0.0024898113
0.005962886 -0.0011520415 -0.004985419 -0.034756344 -0.00072311796 0.00014430031 -0.008154537 -0.0058797607
0.0025866602 -0.006763051 -0.006218605 0.004982555 0.0010820861 0.0009334887 0.13502456 0.006573087
0.010067974 0.00075354474 -0.00088842673 -0.02629726 -0.005925029 -0.095721744 -0.0033228882 0.0030061752
0.0032263093 0.00039453182 0.005966851 0.007194626 0.003024632 0.0041401754 -0.046936717 0.00524532
-0.0021770268 -0.0041927854 0.006336477 0.0033773975 -0.0032671345 -0.0071714306 -0.009486937 -0.0003281991
-0.009253675 8.7139095e-05 -0.007831106 0.0024015657 -0.009904051 -0.0012820296 -0.004726966 0.0009809133
-0.005635901 -0.003977254 -0.008188142 0.00022716029 0.00514391 -0.007080457 0.007228295 -0.00010706158
0.0015050878 0.008089178 0.023738956 0.004348044 -0.1111728 -0.010470776 0.073007554 -0.13977192
-0.00092689367 0.1168747 0.00095648767 0.08159757 0.001829158 -0.010521127 -0.0308623 -0.005237459
0.0037775827 0.010669867 0.16195478 0.009840424 0.00014710627 0.03916112 0.08276993 -0.02961396
-0.18241762 0.0056632217 -0.0038055305 0.0016131261 -0.021435548 0.0027486612 -0.011083257 0.0009270377
-0.0050668027 0.0025182345 0.00077468413 0.0034139438 -0.0014003752 -0.1573127 -0.01577713 -0.008381605
-0.006741476 -0.012173451 0.1977619 0.03821106 -0.0025367513 0.0012336021 -0.070370376 -0.0010994524
-0.004683828 -0.0008629825 0.007745743 -0.005942429 0.2793729 -0.013536359 0.009259004 -0.00614853
0.008760144 -0.003893946 0.0077011785 0.005360896 0.15197475 -0.009785775 0.0044565457 -0.004793255
0.0026865816 -0.007856285 0.005712524 -0.011331408 -0.0037985635 -0.0059114653 -0.0048747133 0.016853562
0.0051364405 -0.006254173 -0.012395907 0.0039731357 -0.009058425 -0.0038534892 -0.022120278 -0.011654447
-0.0073167356 -0.0071567455 -0.0041704457 0.0071533453 -0.005340203 0.001515919 -0.07330083 0.010129159
-0.007027873 -0.0030711011 -0.0025711786 0.046824783 0.0037358045 0.032135732 0.0011631814 7.458398e-05
-0.0037731496 -0.0025281096 0.06768046 -0.011316844 -0.0047451397 0.006781908 0.023873264 0.004524084

actor.4.bias f4 [4]
00000000: 8e72 663e f7eb 013e 66a1 793e 4c1b 063e
0.22504637 0.1268767 0.24377975 0.1309635

critic.0.weight f4 [128, 17]
00000000: 0c95 183e 955e 43bf 58f3 893e d530 6b3e
00000010: 2fb1 173e f2b1 6dbe 2489 8b3d 1419 36be
00000020: e276 4d3e 4994 ab3d 72ac 01bd b3bf 8b3e
00000030: 2cfa 6f3d 8d27 a13d 1317 37bd 9041 46bd
00000040: c4ce b0bd 083b f63d 298f 7d3e bd77 36bf
00000050: 5943 95bc cb0c 9d3e 1cec 303e bef7 13be
00000060: b3f6 a53e 1e7c bbbe 8ec9 d53b 5675 21bd
00000070: ffbc f5bd df63 0c3d 8389 533d afff c33d
00000080: d57a e0bd 139f 823d 2386 cebd 8697 943d
00000090: 9f61 8b3f 6902 80bd 4f57 92be 3170 a7bd
000000a0: 2dd5 3dbd 27ab 903d ef25 b3bd a643 22bd
000000b0: 9a8b b53d 63cd 4cbc 9d99 a5bd 7e72 2a3e
000000c0: 6100 ebba 0856 113e ae35 c33d 2bc9 013d
000000d0: 284a d33e b105 bc3f e8ba 67be 478a 5dbe
000000e0: 3000 53be 8d14 fe3d 1f5a 4fbe a8a5 0d3e
000000f0: 895c 23be 3a50 d1bd 6ead 29be b09a abbd
00000100: 6043 5f3d c5f5 61bd f693 9c3d 2e8b 863d
00000110: 729d 7a3e 77e8 8f3c ee5f 8fbf d71d 9d3e
00000120: d9e9 813e 852d dbbd 78ff 81be 3b1a 883d
00000130: 584a 7ebe dc5d 1a3e 8ae6 efbc e215 283d
00000140: ae7e 243d 0d08 f6bb 7b0a f53d 4f1a 23be
00000150: 9990 81bd 96f2 0d3e 37d5 0bbf 583f 9bbf
00000160: fcd9 f2bd 9cf9 bb3e b3d5 933d d185 3b3e
00000170: 2ef7 8e3b c84d 4b3d 9629 73bd 7c9d 133d
00000180: 0cd3 0c3e 1fca bf3e aa81 89be f5d0 6ebe
00000190: 5df9 8fbe bf24 43be d522 cd3e 044f c53e
000001a0: 46b0 43bf 34b6 34bd 0dd1 533b e19a 8dbe
000001b0: 16f0 043d b26f f9bd 5e66 02bd e7fb 193e
000001c0: 0cd9 3ebe 50de 4e3e 8e55 573d dab1 4b3e
000001d0: ae4c 16bd acf2 8abe 0ccd 99bd 4311 aabe
000001e0: ebe7 77bf a642 013f bde4 b83e 632d 293e
000001f0: 35a7 9b3c 59e8 36be ebaa 543d c415 253e
00000200: cedb 72bd ddb7 31be 4c41 70be 424e dcbd
00000210: ae0d da3d dd09 443d 4740 813d 5443 9b3d
00000220: 14b1 04be b70d d33e 3c9b 113f e439 07be
00000230: 7152 4dbe 109e e1be d0f6 863e e5d1 f7be
00000240: f796 063d 55b4 fb3d 1b62 9abe f9ff 4f3e
00000250: f052 06be 19e8 5fbe efdd bbbd 388d afbd
00000260: 4237 23be a60e bc3e 9264 5a3e 7dab a9bf
00000270: cf8d 92bd 93bf 033d 02dd f3bd 92fb e03e
00000280: 2a85 ae3d 7e48 71be 0151 0abc a32e 373d
00000290: 25c2 d3bd 7a28 49bd 5ac8 6fbd 4356 d1bd
000002a0: 242f 16be 210d f6bd 6e36 803e 4015 5d3e
000002b0: 40ea 98bd af30 e0bd d112 9fbe a8d5 0fbf
000002c0: e5af 023f 8a6c 43be 49bf 713d 69ae 9dbd
000002d0: e59a 9abd 6386 783e 41a8 43be 2264 713d
000002e0: eac9 a13d f7ec acbd e5d5 abbd 5f43 59be
000002f0: cea7 8d3e 5abd 21bf 04c7 2bbe 4311 81bd
00000300: 25a2 18bc 4385 143e b9a7 c2bd ae7c 7cbe
00000310: 761a 903d 8f90 3c3d f5f7 c83d 2015 4ebd
00000320: fbc9 a1bd 969e d0bd 77d9 41bd dd0e 3ebe
00000330: edc8 2b3e eb5b 1abd 4d0e cfbe bffa 903e
00000340: 06d5 503b f2cc 92be af73 973d 43aa c8be
00000350: 03c9 f83c 8792 143e c388 85bd 0886 55bd
00000360: 0ae9 f7bd 96d3 59bd 5675 c2bd 9e0c a6bd
00000370: 5c7c 8fbd 5b8c f93e 06c1 403f e77c d43e
00000380: c549 e4be d65c 24be ddb6 c33e 72ea 093e
00000390: 79db 3fbf 679d 51be 129d 97be 835a 64be
000003a0: 9fa3 ab3e 5fc3 2abe 36a8 b1bc 3122 1bbe
000003b0: 525b 8bbd e710 46be f442 943e fcfb 8b3e
000003c0: cf48 aabf 9fde de3e d032 e23d 1f62 babd
000003d0: b5f7 99be 7c10 1a3e 86d4 263d f178 b73c
000003e0: 15ba 20be 631e e03b 9cc0 51bc ef79 8e3d
000003f0: 87af 3bbb dc1c 8f3c 048e b6bc 1955 a73e
0.14900607 -0.76316196 0.2694347 0.22967847 0.14813684 -0.23212412 0.06813267 -0.17783004
0.20064881 0.083778925 -0.031658597 0.27294692 0.058588192 0.07868872 -0.04469974 -0.04840237
-0.086331874 0.12022978 0.24761643 -0.71276456 -0.01822059 0.30673823 0.17277569 -0.14449975
0.3241478 -0.3661813 0.0065242713 -0.03941854 -0.11998939 0.034274932 0.051644813 0.09570252
-0.10960928 0.06377997 -0.10084178 0.07255463 1.0889167 -0.0625046 -0.28582236 -0.08175696
-0.04634588 0.07063895 -0.0874747 -0.039615296 0.088645175 -0.01250014 -0.0808594 0.16645238
-0.001792919 0.14192975 0.09531723 0.03168599 0.41267514 1.4689237 -0.22629893 -0.2163478
-0.2060554 0.124062635 -0.20249222 0.13832724 -0.15953268 -0.1022038 -0.16570064 -0.08379114
0.054507613 -0.055166025 0.07645409 0.06569515 0.24474123 0.017566903 -1.120115 0.30686828
0.25373724 -0.107020415 -0.2539022 0.06645628 -0.24833047 0.15074867 -0.029284734 0.041036494
0.040159874 -0.007508284 0.119648896 -0.15928005 -0.06326408 0.1386207 -0.54622215 -1.2128706
-0.118579835 0.36713874 0.07218494 0.18312766 0.004362962 0.049634725 -0.05936583 0.03603886
0.13752383 0.37458894 -0.26856738 -0.23321898 -0.28119937 -0.19056986 0.40065637 0.38536847
-0.76440847 -0.044119075 0.003232065 -0.27657226 0.032455526 -0.12179507 -0.031835906 0.150375
-0.18637484 0.20201993 0.052571826 0.19892064 -0.03669422 -0.2713827 -0.07509813 -0.33216295
-0.96838254 0.5049232 0.36112013 0.1652122 0.019000629 -0.17862071 0.051920813 0.16121584
-0.059291653 -0.17355295 -0.23462409 -0.10757114 0.106471404 0.04786097 0.06311088 0.07581201
-0.12958175 0.412214 0.56877494 -0.13205677 -0.2005098 -0.44065905 0.26360178 -0.48402324
0.032858815 0.12290255 -0.30152974 0.2031249 -0.13117576 -0.21865882 -0.0917319 -0.08571857
-0.15939048 0.36729926 0.21327427 -1.3255459 -0.07155954 0.03216512 -0.11907388 0.43941933
0.08521493 -0.2356281 -0.008442164 0.04472221 -0.103397645 -0.049110867 -0.05854068 -0.10221531
-0.1466642 -0.12014223 0.25041527 0.21590137 -0.07466555 -0.10946786 -0.31069043 -0.5618539
0.51049644 -0.19084373 0.059020314 -0.07699282 -0.07549075 0.24270014 -0.19107153 0.058933385
0.0789984 -0.08443635 -0.083904065 -0.21217106 0.27667087 -0.6317955 -0.16775137 -0.063021205
-0.009316002 0.1450396 -0.09504647 -0.24656937 0.07036297 0.0460363 0.09812919 -0.050313115
-0.07899853 -0.10186498 -0.04732653 -0.18560357 0.16775866 -0.037685316 -0.40440598 0.28316304
0.0031865253 -0.28671986 0.07395112 -0.391924 0.030369287 0.14509021 -0.06520226 -0.052129775
-0.121049955 -0.0531803 -0.09495036 -0.08107875 -0.070061415 0.48739895 0.7529453 0.41501543
-0.44587532 -0.16051039 0.3822545 0.1346834 -0.74944264 -0.204702 -0.29612023 -0.22300152
0.3352327 -0.1667609 -0.021686655 -0.15149762 -0.06804527 -0.19342385 0.2895733 0.27340686
-1.330347 0.4352922 0.11044848 -0.09100746 -0.30071798 0.15045351 0.040730022 0.022396537
-0.15695985 0.00683956 -0.012802269 0.06956851 -0.0028638558 0.017469816 -0.022284515 0.32682112

critic.0.bias f4 [128]
00000000: 5991 413d 890c 83be 5e18 003f bed3 553c
00000010: 7945 7bbe 0f3a 00bf 672e 7abe 2a78 703e
00000020: e3d4 5abe 21e0 1abf 4d8f 41bc 55b6 61be
00000030: 85eb 74be f858 48be 7485 023d 23a6 21be
00000040: 2521 a53e 89ef 1abe e98c c93d c511 45be
00000050: 9009 6dbe 0a4a d3be 35ab cb3e e3c9 26be
00000060: cd37 003f a039 23bf e795 e53e 4b0a bfbe
00000070: 6aef 3dbe 6eba c13e 8dd3 0f3f b083 bd3e
00000080: b651 1dbe 7c37 f3bb 2b07 b7be 6bc0 a63e
00000090: 2fdf d03e b6f4 97be fb41 013f c7f3 2abe
000000a0: 49dc 38be c212 593e 0378 483e 54bc ee3d
000000b0: c2cb 04bf 08ae d33e fee5 99be 07ee c0be
000000c0: c2c2 e23e 1c61 6cbe 4ed1 023f e1bc 933e
000000d0: fb06 6ebc 4e84 59bd 25c1 c83e db89 d93d
000000e0: 5806 0dbf d76b 153f 4349 cabd 8cf9 8b3d
000000f0: f3be 8a3e 4b65 473e 1d09 9bbe 4eec 8ebe
00000100: 41cd e8bd 9a3a 95bd 5724 16be 8025 70be
00000110: ac9d 70be 7e3c a83e 2c1b 683e 1ffa 5dbe
00000120: 4bb2 82be eddf cc3c 8887 cf3d e6de 8a3e
00000130: 99a8 773e baec f2bd ca07 033e 2fc1 31be
00000140: 1810 c5be 260c 323d 2ca3 a73e 9748 073f
00000150: cb43 41be db83 a53e 6537 02bd 95ec 863e
00000160: 941a c03d df68 8c3e 5127 70bd 5c21 b43e
00000170: 038a 703d 272b 71bd a945 dabe e36d dd3e
00000180: 1b13 3dbe ba7c 79be 57de f13d 2bed f33c
00000190: b273 673d 66bd e43d a374 43be 5b59 81be
000001a0: 051e 033f 9426 9cbe 6f2f 933e c32b 7e3e
000001b0: 1315 573d 9cf2 c83e ea2e 5c3e 2a8a afbe
000001c0: 2f5c 403e 3645 3fbe 5994 a4be effa 0ebd
000001d0: 9fb2 47bd d19c ef3c 4ef2 6b3d 34ee 813d
000001e0: db6e 953e a370 25be 559e 823e 397e 9bbd
000001f0: 55ba 663d ceb4 8b3e 3909 5cbe 6acd 0b3e
0.047257755 -0.255955 0.5003718 0.013050972 -0.2453822 -0.5008859 -0.24431764 0.23483339
-0.21370272 -0.60498244 -0.011813951 -0.2204221 -0.23917969 -0.19565189 0.031865552 -0.15786032
0.3225185 -0.15130438 0.098413296 -0.1924506 -0.23148179 -0.41267425 0.39779058 -0.16287951
0.50085145 -0.63759804 0.4484093 -0.3731254 -0.1854836 0.37837547 0.56182176 0.37014532
-0.15363201 -0.0074223857 -0.35747656 0.32568678 0.40795276 -0.29678887 0.50491303 -0.16694556
-0.18052782 0.21198562 0.19577031 0.116570145 -0.5187341 0.41343713 -0.30058283 -0.376816
0.44289213 -0.2308392 0.51100624 0.2885504 -0.014528031 -0.05310469 0.39209858 0.10621997
-0.55087805 0.58367676 -0.09877255 0.06834707 0.27098808 0.19472234 -0.3028039 -0.2791466
-0.11367274 -0.07286568 -0.146623 -0.23451805 -0.23497647 0.32858652 0.22666615 -0.21677445
-0.25526652 0.02500912 0.101332724 0.27123183 0.24185409 -0.11861558 0.1279594 -0.1735885
-0.3848884 0.043468617 0.32741678 0.5284514 -0.18873517 0.3232716 -0.03179111 0.26352373
0.093800694 0.2742376 -0.058631245 0.351817 0.05872537 -0.058879044 -0.4263127 0.432479
-0.1846432 -0.24363986 0.11809986 0.029776176 0.05650682 0.111689374 -0.19087462 -0.25263485
0.5121768 -0.30498183 0.28747126 0.24821381 0.052510332 0.39247596 0.21502271 -0.34285098
0.18785165 -0.18678746 -0.3214443 -0.034907278 -0.04875433 0.02924958 0.057604127 0.06344262
0.2918614 -0.16156249 0.25511423 -0.075924344 0.056330044 0.2728638 -0.21487893 0.13652578

critic.2.weight f4 [128, 128]
00000000: 9615 4cbd 960e 213b d03d aebe 24a9 623e
00000010: a9db 46be 2ac4 273e 66a7 273e 1693 45be
00000020: ba13 913e ee47 073e 6cbc 063e 10a9 c13d
00000030: 9446 f9bb f69c 023f 7a43 e1be a49b 573e
00000040: 8c7a 88bd 1e78 c3bb a115 89be e2e2 c33d
00000050: c539 0d3c 775f 203e 43d2 8abe 0bd0 25bc
00000060: 2fda c6bd a959 6a3e 83de a1bb fc17 5e3e
00000070: 5f17 df3d b031 89be c85d 28be ffab 1ebe
00000080: 7cc9 b6bd 71f0 dfbd 812b 9f3e bd1a 3dbe
00000090: 2743 48be ca0b 303e d092 72be 45e5 273e
000000a0: 499c d33e 60d0 29be e56e a0be 804b 753e
000000b0: 346b 243e 0364 46be 6e05 ed3b 1279 d43d
000000c0: 3439 84be fbc1 ad3d 79cf a0be adad a2be
000000d0: f1d6 8a3e 618d 01be b0ce 0abe ad31 8fbe
000000e0: 4468 5e3e 5fd9 6dbe 5866 4dbd e685 8bbe
000000f0: 4cad dabc a547 11be 6ffd 003e 590b 923d
00000100: 8ffe d4bd 8096 9bbe d4ad 1d3e 1ae7 183e
00000110: 8738 563d 8f57 b2bd d047 33be 2577 ec3d
00000120: 3e16 8e3e c624 a0bd d427 973d 1b32 6ebe
00000130: d1b1 01be 2d25 aa3d c86c d23d 4908 53bd
00000140: caa0 f53d 3d96 2c3e 180d 22bc 64ae 9fbe
00000150: 1ea8 2abe 2507 bcba e789 3abe ffee aebe
00000160: b10f 96be f392 8abe c030 45bc e729 1cbe
00000170: 09aa 973a 353e 9a3e 393a 243d 7e0f 84be
00000180: 9f53 953e af9d 5d3e 64ca 21bc b3cb e83c
00000190: cf61 1a3d f4f8 babd f4bb 563e 41ff 78bb
000001a0: 85b7 4dbe d226 a8bc 5405 34be 4c65 ccbe
000001b0: 42e8 74be 91b6 8abe 4449 08be d4d1 853e
000001c0: fda0 46be 0e75 40bd 32c2 8a3d f702 8cbd
000001d0: 2ac8 543e 1abe d5bd e54c 8b3d 82ab fd3d
000001e0: 6478 99bc 748b 243e d347 343b a01a a53d
000001f0: 5366 46bc 8f0e 29be 6969 bd3d a9ba 0fbd
00000200: 9122 483e 7007 33be 83e9 de3c 1836 ab3d
00000210: ee44 88be 6532 973d e24e d8bc cdad 533d
00000220: 1df8 943e 46e5 b5bd d058 2b3e c10c febd
00000230: 9230 8a3d 621f 3d3e 8349 f9bd e50a 19be
00000240: 5f68 5f3d 09a9 3c3d 44c6 ec3c 3e3f 38bd
00000250: aa29 d4bd 2a54 333d 9593 3cbd 9468 183e
00000260: 447f 343c b9d7 dd3b 662a 3c3d 4d93 bd3b
00000270: 1751 04be 804d 87be 3497 7a3d fa13 843c
00000280: 0b48 44be 9671 9abe 14d2 593d 9e8b e7bd
00000290: 55ec 1ebe 40e9 9c3d 9faf fc3c 09b9 a13c
000002a0: 3f6b 9e3e 32b8 083d de0f 2dbe 377d dc3e
000002b0: 356d edbb 0971 af3d 196e aabd 8457 8dbd
000002c0: bc2a b7bd 8774 d33d 052f 27bd 2b57 b33c
000002d0: 1d4a 783e 778c 46be 136a 2a3e 7846 96be
000002e0: e2e7 1a3d e445 f03d cd91 91be 04dd a0be
000002f0: 0584 3fbd 0df6 5cbd 3a57 1dbd 28fe eebc
00000300: ef49 09be 21ac a7be 3ba5 f1bc bfcc d2bd
00000310: 307e 8fbd 2a0f c7bc 9b36 523d bd23 e33c
00000320: ed72 b43c f4c2 95be f851 053e 598b aebd
00000330: 68b6 85bc f8a5 98bd 3d64 833e a8e0 ff3c
00000340: 7605 48bd e9bf 283e 472b 363d a650 c03c
00000350: 98e7 4fbe b485 d7bd 8b02 a2be 6a50 74be
00000360: 0561 c5be 2e5f 62be 6bd2 a7bc 658d af3c
00000370: 2e23 3a3e d934 9f3e e82a 59bd f073 e0be
00000380: d484 cd3e ef9f 2f3e 45fc 383d 7534 8d3e
00000390: c4b1 5a3e 16ae 74be 102b 30bc ca72 c7bd
000003a0: 18fc bfba 74e5 5ebe fabe 73be fb37 a8be
000003b0: 1f6f 9dbe 483d 85bd 7e21 9ebe 75b2 193e
000003c0: d7c0 8dbc 7dfd 573c bb96 94bd 485c 9abd
000003d0: 795f cb3e 4c5d d9bd 179e 36be 450b 913d
000003e0: e869 4bbd e31c 4cbd 8411 1b3d eeb3 dc3c
000003f0: 74b5 cb3c 5851 a9bd ccb7 b03d 4c78 113e
-0.049825273 0.0024575344 -0.34031534 0.22134835 -0.19419731 0.16383424 0.16372451 -0.1929439
0.28335363 0.13211033 0.13157815 0.09456074 -0.0076072905 0.51020753 -0.43996793 0.21055466
-0.06663999 -0.005965247 -0.26774314 0.09564759 0.00861973 0.15661417 -0.27113542 -0.010120402
-0.09709584 0.22885765 -0.0049398555 0.21688837 0.108931296 -0.2679572 -0.16442025 -0.15495299
-0.08925149 -0.109345324 0.31087878 -0.18467231 -0.19556867 0.17191997 -0.23688817 0.16396053
0.41330174 -0.16583395 -0.31334606 0.23954582 0.1605652 -0.19374089 0.0072333133 0.10374655
-0.25824893 0.084842645 -0.3140829 -0.3177313 0.27117112 -0.12651588 -0.13555408 -0.27967587
0.21719462 -0.23227452 -0.05014643 -0.27250594 -0.026693963 -0.14187486 0.12596677 0.07131071
-0.10400116 -0.3038826 0.15398341 0.14931908 0.052300002 -0.08708107 -0.17507863 0.115461625
0.27751344 -0.07819514 0.073806435 -0.23261301 -0.12665488 0.08307872 0.102746546 -0.051521573
0.11993559 0.16854186 -0.009890817 -0.31187737 -0.16665694 -0.0014345391 -0.18216668 -0.34166715
-0.29308847 -0.27065238 -0.012035549 -0.1525036 0.001157106 0.30125585 0.040094588 -0.2579307
0.2916536 0.21642183 -0.009874914 0.028417444 0.037690934 -0.09129515 0.20970136 -0.003799394
-0.20089538 -0.020526323 -0.17580158 -0.39921033 -0.23916724 -0.27092412 -0.13309199 0.2613665
-0.1939735 -0.046986632 0.06775321 -0.06836503 0.20779482 -0.104366496 0.06801776 0.12386228
-0.018734165 0.16068822 0.002750863 0.08061719 -0.012109357 -0.1650946 0.09248621 -0.035090122
0.19544436 -0.17483306 0.027210956 0.08359927 -0.2661509 0.07382659 -0.026404802 0.05167942
0.29095545 -0.08881621 0.16733098 -0.12404776 0.06747545 0.18469003 -0.121722244 -0.14945562
0.054542895 0.046059642 0.028903134 -0.044982187 -0.10359509 0.043781437 -0.046039183 0.14883643
0.011016671 0.006770101 0.04593887 0.005785382 -0.12921558 -0.26426315 0.061179355 0.016122807
-0.19168107 -0.30164784 0.05317886 -0.11305927 -0.15519841 0.076616764 0.030845461 0.019741552
0.30941197 0.033378787 -0.16900584 0.4306428 -0.0072456845 0.085664816 -0.08321781 -0.06901458
-0.08943698 0.1032496 -0.040816326 0.02189215 0.24247022 -0.1938952 0.16642027 -0.29350638
0.037818797 0.117320806 -0.2843155 -0.31418622 -0.046756763 -0.05394559 -0.038413264 -0.029173926
-0.1340711 -0.3274851 -0.029497733 -0.102929585 -0.0700649 -0.024299223 0.051321607 0.027727002
0.022027457 -0.292503 0.1301955 -0.08522672 -0.01632233 -0.07453531 0.25662413 0.031235054
-0.048833333 0.16479458 0.044474866 0.023475956 -0.2030319 -0.10523549 -0.31642565 -0.238588
-0.38550583 -0.2210662 -0.020486077 0.021429727 0.18177482 0.31095007 -0.053019434 -0.43838453
0.40140402 0.17150854 0.045162458 0.27579084 0.21356875 -0.23894534 -0.010752454 -0.09738691
-0.0014647273 -0.21767217 -0.2380332 -0.3285521 -0.3074884 -0.06505829 -0.30884928 0.15009482
-0.017303867 0.013182995 -0.07255312 -0.075371325 0.39721277 -0.10613498 -0.17833744 0.070822276
-0.049661547 -0.049832236 0.0378585 0.026941266 0.024866797 -0.08267468 0.086288065 0.14206046

critic.2.bias f4 [128]
00000000: 1e11 303d a882 573d 0fb3 863c bd01 ddbc
00000010: 6b3f acbc 339f 97bd dae5 ad3d 508f dc3e
00000020: 411a 02bd 2cb6 01bd 9125 d03c a96d cfbd
00000030: f056 933d 5401 153e 3ee8 473c 03a4 293c
00000040: f3b0 cbbc 14b6 9c3b ca29 91bd a882 56bd
00000050: 3178 033e c9c6 1a3c 5ce8 b13a 060e 2e3e
00000060: b52d cf3d 0415 b7bd 885a 183e efdb a73d
00000070: 9049 b1bd 6e67 0ebe 92ff 22bd 312f 6f3b
00000080: 1ee6 21be 13ef e13d 0084 583d 1b3f d5bd
00000090: e811 273e 4789 673d e065 443d 716e fb3d
000000a0: b23d b5bd 3e93 1dbe 480e 3dbd f86b 51be
000000b0: 0485 bfbc 700e 413e fcb1 5fbc fed1 c53b
000000c0: 7930 febe 2996 1fbe 8c82 1e3e 8ea0 bdbd
000000d0: 1f10 64bd e5b5 643d 9921 05bd 5953 673c
000000e0: bb37 e2bd 1568 d5bc 6c12 bf3d 5d13 ea3d
000000f0: c70e 07bd 7188 893d 29ac b6bd 2ce7 6cbc
00000100: 09e2 3b3e b410 883c 7c81 9ebd 9acb b5bc
00000110: 9342 dfbd 2af9 e33c 5ebb 803c fbd7 6b3e
00000120: 5b42 a339 c8b6 92bb 9b35 cdbd 978e a83d
00000130: 45d2 b13d 3a4e 603c 28f5 983e f776 0e3e
00000140: 0a09 19ba e11a 013e c55e f7bc c8ee 773d
00000150: d43c 1b3d 1dfb 2bbe d6db 97bd 9764 1d3e
00000160: 6839 473e 65ca 91bd c723 0e3c 9c21 0bbe
00000170: 07f2 5d3e 7ee6 a4bb b01b f9bd a8e5 963c
00000180: 2447 4a3d 3975 e6bd fe13 0abe 1eae 4cbb
00000190: 8c78 44be 6221 22bd 6fe1 c8bc a360 6c3d
000001a0: 9ed4 ca3c 28b4 363b ac15 cbbd 94c2 573e
000001b0: 5eb4 8b3d 4917 0abe 6dc5 e0bd e3e9 16be
000001c0: 3e4a 8fbd a079 0fbd 24a1 60bc 0a1e 713d
000001d0: 3623 5d3d eeef 143d 2861 0dbd cd06 3b3e
000001e0: 6219 3fbe b053 b1bd f543 533d cc85 aa3d
000001f0: f70f 9a3c fa79 d43d ee3d 28be 28d0 6b3d
0.042985074 0.052614838 0.016442804 -0.026978368 -0.021026334 -0.07403412 0.08491106 0.4307809
-0.03176332 -0.031667873 0.025408538 -0.10128338 0.071943164 0.14551288 0.012201367 0.010354045
-0.02486465 0.0047824476 -0.07088049 -0.052370697 0.12838818 0.009446808 0.0013573277 0.16997537
0.1011614 -0.08939555 0.14878285 0.08196246 -0.08656609 -0.13906643 -0.039794512 0.0036496634
-0.15810439 0.11031928 0.05286026 -0.10412427 0.16315424 0.056527402 0.047948718 0.122769244
-0.08849658 -0.153882 -0.046156198 -0.20451343 -0.023378856 0.18853164 -0.013653275 0.006036996
-0.49646357 -0.15584625 0.15479487 -0.09259139 -0.055679437 0.05583753 -0.032502744 0.014118993
-0.11045786 -0.026050607 0.093296856 0.114294745 -0.032973077 0.06715477 -0.08919556 -0.014459413
0.18347944 0.016609527 -0.07739541 -0.022191811 -0.1090137 0.027828772 0.015714344 0.23031609
0.0003113922 -0.0044773556 -0.1001999 0.08230322 0.08682684 0.013690526 0.2987454 0.13912569
-0.0005837834 0.1260791 -0.030196557 0.060530454 0.037899807 -0.16795011 -0.07414977 0.15370403
0.19455492 -0.07118682 0.008675522 -0.1358704 0.21674357 -0.0050323596 -0.12163484 0.018420056
0.04938425 -0.11252827 -0.13484189 -0.0031231712 -0.1918661 -0.039582618 -0.024521558 0.057709347
0.024759587 0.0027878378 -0.09916243 0.2107032 0.06821512 -0.13485445 -0.10975156 -0.14737658
-0.069965824 -0.0350281 -0.013710294 0.058866538 0.053988658 0.036361627 -0.034516484 0.18264313
-0.18662027 -0.0865854 0.05157848 0.08326301 0.01880644 0.10374828 -0.16429874 0.05757156

critic.4.weight f4 [1, 128]
00000000: 6bbe 053d b315 503b 94ed 0c3d b349 b2bb
00000010: 1178 4bbd 2a9c 0cbb 8af1 903d 0f71 bcbd
00000020: 5556 ebbb 08c3 6fbd 2ad4 a4ba 59a0 5fba
00000030: 2ab6 223c d9a9 143e f47a 073b ecbe 7339
00000040: fb91 0cb9 ccde c2b8 eeca a1bd 2eca d4bc
00000050: 6f11 893c 9b42 283b 16a2 1f3c 3333 cfbd
00000060: 711d 313d b210 84bd 7252 443d 38ff 6b3d
00000070: 381e 0cbd 7852 abbb 06e1 0439 1208 853a
00000080: 966e 523d 351c 953d 9b02 2dbb aa8a bbbd
00000090: d721 ec3d 2d82 443d 9e5c 8dba b84d ac3c
000000a0: df62 bdba 7737 11bd 0d51 163d 1494 aa3d
000000b0: de10 a6bd a30d 19be 942b d539 f2e5 a03c
000000c0: fa33 dbbd 0957 ef3c d85a c53c d6e1 293d
000000d0: 7bd3 753a 98b5 513d 603a 2f37 f9b2 0cbd
000000e0: 920d c7bc f8e3 85bd 99cc 9d3b ba9c 8c3c
000000f0: f42e 813b 9ddc 943b c3b2 803d 7b6c ec3d
00000100: b35e c4bd 1ba7 023d fcfa 40bd a43e 97bd
00000110: 9535 a53d 5ebd 5b3d 2fd3 963d 4100 f7bc
00000120: 16f4 5e3d 1423 fcba 2c4b e1bb ccbc 98bd
00000130: 746f 5d3d 6bb6 90bc 10fd ecbd 9273 e03b
00000140: d6f4 8b3d 6e66 b33d 08b4 e139 affe 5c3c
00000150: 6233 0ebd 85b4 bd3d 5a09 9bba 4961 003d
00000160: ec2e 88bd f1e3 283d 69a4 0dbc 12a0 2e3c
00000170: 4ab8 3ebd ac79 ef3b e851 c33d 19bf 4c3d
00000180: 9992 44bd 068b 5b3b 7a42 ec3c d407 ef3a
00000190: 7d56 003d 692b fdb9 d7fe 78bc 979d 25b8
000001a0: a899 79bd d44a b3bb 18b4 08bd ed06 98bd
000001b0: 91b9 ac3b bde6 f7bd 2465 ee3b ffcd 02bc
000001c0: b2ad 823e e591 5cbd 017c 833c a436 613b
000001d0: ad2e a139 7d91 60bb ca82 6dbd 2cfd d03d
000001e0: 7d29 673d 1cd5 5fbb 8bf7 17bd 7342 8f3c
000001f0: 26bf 4c3c 7f97 023e 085a dcbc 0ddb cb3a
0.0326523 0.0031751215 0.03440626 -0.0054409145 -0.04967505 -0.0021455386 0.0707732 -0.09201252
-0.0071819224 -0.058535606 -0.0012575437 -0.00085306686 0.009931127 0.14517917 0.002067265 0.0002324541
-0.00013405822 -9.29214e-05 -0.07900034 -0.025975313 0.016731946 0.0025674466 0.009743234 -0.10117187
0.04324097 -0.06448497 0.04793019 0.057616442 -0.034208506 -0.005228337 0.00012672329 0.00101495
0.051374994 0.07280771 -0.0026399258 -0.091573074 0.11529892 0.047975708 -0.0010785048 0.021033153
-0.0014449022 -0.035453286 0.03669839 0.08329025 -0.08108686 -0.14946608 0.00040658994 0.019640896
-0.10703273 0.029216306 0.02409117 0.04147514 0.00093775213 0.051198572 1.0444404e-05 -0.03435037
-0.024298463 -0.06537622 0.0048156497 0.017164577 0.003942365 0.0045429007 0.06284096 0.115441285
-0.09588375 0.031897645 -0.047114357 -0.073849946 0.080668606 0.05364739 0.07364499 -0.030151488
0.054431997 -0.0019236528 -0.0068754163 -0.07457885 0.054061368 -0.017665109 -0.11571705 0.0068497146
0.06833808 0.08759771 0.00043049478 0.013488456 -0.03471697 0.09262947 -0.0011828349 0.03134278
-0.06649575 0.041233007 -0.0086451555 0.010658281 -0.04656247 0.0073082056 0.09537107 0.049986932
-0.04799137 0.0033499612 0.028840292 0.0018236586 0.03133248 -0.00048288263 -0.015197477 -3.9485833e-05
-0.060937554 -0.0054715667 -0.033374876 -0.07423196 0.0052711447 -0.12104557 0.0072752405 -0.007983684
0.25523144 -0.053850073 0.01605034 0.0034364844 0.0003074309 -0.0034266405 -0.05798606 0.10204539
0.05643605 -0.0034154123 -0.03710131 0.01748774 0.012496745 0.12753104 -0.026898399 0.0015552953

exp_avg f4 [4]
00000000: 3075 0cb9 8101 e9ba afa7 2e3b 014c 95ba
-0.00013395096 -0.0017776937 0.002665024 -0.0011390449

exp_avg_sq f4 [4]
00000000: 444b 9139 6a84 d438 39bd f139 30ca 0339
0.00027712632 0.00010133612 0.00046108084 0.00012568454
