genesis_tutorial/logs/drone-hovering/model_0.pt (torch, 474042 bytes, 36 tensors)

std f4 [4]
000000 3e 47 80 3f 46 6d 7f 3f 81 3e 7f 3f 58 35 80 3f
       1.0021741 0.99776113 0.9970475 1.0016279

actor.0.weight f4 [128, 17]
000000 63 ab 08 3e bb 8f 40 be f2 f0 d5 3d 09 b2 52 be
       0.13346629 -0.18804829 0.10446347 -0.20575728
000010 99 bb da 3d 20 a8 84 3d 73 14 10 3e 14 6b f0 bc
       0.10680313 0.0647738 0.14070301 -0.029347934
000020 25 76 08 3e 0e 79 4c 3e 68 c0 a1 3d 2c d7 27 3e
       0.13326319 0.19968054 0.07898027 0.16390675
000030 e9 3b 09 3e 58 9d ed bd d2 c5 21 bd ae 2a 35 3e
       0.1340176 -0.116022766 -0.039495297 0.17692062
000040 c0 f4 65 3e 7e 27 34 bd 5c ec 1e be b2 30 3d be
       0.22456646 -0.043982975 -0.15519851 -0.18475607
000050 a9 85 e0 3d 85 92 3f be 0c 9e 3b be 89 6f 57 3e
       0.10962994 -0.18708237 -0.18322009 0.21038641
000060 f6 b2 58 bd 48 eb e5 3d d0 9d 12 bd 39 40 b4 3c
       -0.052905045 0.11226517 -0.035795033 0.02200328
000070 3d 05 21 be 23 71 56 3e ad bf 39 3e c4 b4 30 bd
       -0.15724654 0.20941596 0.18139525 -0.04314114
000080 d3 77 04 be 3c 81 17 be 77 68 14 bd 3d 62 3a be
       -0.12936334 -0.14795393 -0.036232438 -0.18201537
000090 7c 79 9e bc 82 e5 fe bd 9d cd b0 bd e2 da 3a be
       -0.019345038 -0.12446119 -0.086329676 -0.1824756
0000a0 f8 57 2c 3d 52 aa 08 be 9d bf 3c be f3 e9 b7 3c
       0.04207608 -0.13346222 -0.1843247 0.022450423
0000b0 2a cb 58 3e ba 7f 26 3d 53 75 0d 3e 34 b7 d2 3c
       0.21171251 0.040649153 0.13814287 0.025722124
0000c0 de ac 39 bc 9b 52 76 be 03 f3 e0 bd ab b3 48 be
       -0.011332719 -0.24054949 -0.10983851 -0.19599788
0000d0 1c 7d 05 be e1 88 3f 3e e1 a9 39 3e e5 b0 b4 bd
       -0.13036007 0.18704559 0.1813121 -0.088228025
0000e0 81 5a c9 3d ea ab 44 be b9 a1 20 be 20 04 6b be
       0.098317154 -0.19206205 -0.15686692 -0.22950792
0000f0 2f 90 fb bd 04 1b 88 bd 87 64 21 be 37 cf 37 be
       -0.1228336 -0.06645778 -0.15761004 -0.1795014
000100 e5 d7 a6 3d e3 fc 93 bd 0a 4e 5c 3e 6c 54 52 3e
       0.08146647 -0.07225969 0.21514145 0.20540017
000110 37 f9 0a be 1a 81 3b 3e a4 80 6b 3e 66 08 40 3e
       -0.1357163 0.18310967 0.22998291 0.18753204
000120 ff a4 52 3e 2a bf 01 be 66 c2 0b 3e 74 c6 2a bc
       0.20570754 -0.1267058 0.13648376 -0.0104232915
000130 1a 29 df 3d fe c7 b8 3d bb 1a f5 3d ab 7b 50 be
       0.108965114 0.090225205 0.11967989 -0.20359676
000140 59 ea 63 3e 90 81 20 3e db 17 42 3e 78 54 0a 3e
       0.22257365 0.15674424 0.18954413 0.13508785
000150 f7 f1 d1 bc e1 3e b0 bd 96 06 4e 3e 3a ef 8a 3d
       -0.025628073 -0.08605743 0.201197 0.0678391
000160 b4 42 0e be 7c 21 1a 3e 0e 1a 2a bd 0e e7 45 3e
       -0.13892633 0.15051836 -0.041528754 0.19326422
000170 b8 f5 40 bc bd da 87 3d d4 ea 48 bd 9b 64 cb bd
       -0.011777334 0.06633518 -0.049052075 -0.09931298
000180 8b 7f de 3d e2 66 3b 3d 21 b8 ad bd e5 73 da bc
       0.10864171 0.045752414 -0.084823854 -0.026666591
000190 02 b0 6f be 38 38 f1 3d be fb a2 bc 81 f8 3c be
       -0.23406985 0.11778301 -0.01989543 -0.18454172
0001a0 87 ad 12 be 2c 8b 38 be a6 8a e1 3d 1d e2 91 bd
       -0.14324008 -0.1802184 0.11012773 -0.07123206
0001b0 22 73 01 3e 73 65 94 3d 47 c0 6c be 86 9d 01 bd
       0.12641576 0.072459124 -0.23120223 -0.031644367
0001c0 e8 77 45 be 77 cd 53 3e 85 53 37 bd 1d 32 56 be
       -0.19284022 0.20683847 -0.044757385 -0.20917554
0001d0 98 db 1c be 97 17 f3 3c 95 78 b0 3d d8 62 f3 3d
       -0.15318143 0.029674334 0.08616749 0.11884087
0001e0 e8 79 17 be f9 33 66 be 58 73 02 be fa 70 32 be
       -0.14792597 -0.22480763 -0.12739313 -0.1742591
0001f0 2e 5b 42 3d 7d b0 ff bc 1e 99 4c 3e 2e 11 59 3e
       0.047450237 -0.031212086 0.19980285 0.2119796
000200 ef 63 29 be db 62 1e be b5 bb 09 3e ed 93 95 bd
       -0.16542028 -0.15467398 0.13450511 -0.07303605
000210 0f 55 00 be 45 05 90 bb b6 ab 6d 3c 5c f2 76 be
       -0.12532447 -0.0043951594 0.014506271 -0.2411589
000220 4a e2 12 be 73 45 45 3e 43 4e b6 3b 40 73 5d bd
       -0.14344135 0.19264774 0.0055635287 -0.05406499
000230 95 8d 49 3e e3 9d 54 be 0e e0 23 3e a3 49 35 3e
       0.19682916 -0.20763354 0.16003439 0.17703871
000240 b0 61 1a 3d 0d 9a cb 3d 0e 6d 79 3e b7 c1 5e bc
       0.03769082 0.09941492 0.24358007 -0.01359599
000250 c0 2f 30 be 77 13 e1 bd 13 1c fb ba c1 18 e8 bd
       -0.17205715 -0.10990041 -0.0019158147 -0.113328464
000260 7c c3 2c bd fa 57 8e 3c ce 00 78 3e b2 b1 54 be
       -0.042178616 0.017375935 0.24219057 -0.2077091
000270 93 17 47 bc 84 6f 8a 3b 4b 29 79 be a3 57 51 be
       -0.012151617 0.0042247195 -0.24332158 -0.20443587
000280 f9 ef cf bd d7 e6 19 be 13 33 04 be 58 a7 b6 bd
       -0.10153193 -0.15029465 -0.12910108 -0.08918637
000290 c6 16 4a bd ff b3 4a 3e 07 12 76 be 14 bf 5a be
       -0.049338125 0.19795226 -0.24030314 -0.21361953
0002a0 f2 82 f9 3d 2c b2 21 3e 76 6c f6 bb 7a 3d 6e 3d
       0.12183179 0.15790623 -0.007520254 0.058164097
0002b0 16 38 2a 3e 0a d6 e9 bd 93 c2 d7 bd 92 4d 29 bd
       0.16622958 -0.11417778 -0.10535159 -0.041333742
0002c0 ed 69 65 3e 5a a0 9f bd 4b cc 1d be f9 d0 5a be
       0.22403689 -0.077942565 -0.15409963 -0.21368779
0002d0 e9 bb 84 3d 19 57 29 bd 1a 28 0b 3e 3e 75 49 3e
       0.064811535 -0.04134283 0.13589516 0.1967363
0002e0 c2 07 5b 3e 64 b7 9a bc 15 1d b0 bb dc 6f 2e 3e
       0.21389678 -0.018886276 -0.0053745606 0.17034858
0002f0 fb e1 0f 3e 12 11 5f be d9 9c 75 3e 8b 6f 51 3d
       0.14051048 -0.21783856 0.23985614 0.051131766
000300 35 65 3b 3e b3 d6 a9 3c 17 11 09 3e 07 0a d9 3b
       0.18300326 0.02073226 0.13385426 0.00662351
000310 e5 3c de 3d b0 b9 10 3e be d0 e0 bc 76 be 03 3e
       0.108514585 0.14133334 -0.027443286 0.12865624
000320 9a 56 ac bb 91 7e db bd 4b 6a 3a be 34 32 78 bd
       -0.005259347 -0.107175 -0.1820461 -0.060594752
000330 40 e5 1b 3e a4 d1 42 3e 6e 35 3c be 5c 96 57 3e
       0.1522417 0.19025284 -0.18379757 0.21053451
000340 92 de 90 bc 8d 45 09 be 70 18 d0 3d 23 54 db bd
       -0.017684255 -0.13405438 0.10160911 -0.10709407
000350 8c c5 08 3e 5e ef 52 bd e7 59 ce bd 80 05 6d 3d
       0.13356608 -0.05149781 -0.10075741 0.057866573
000360 38 9f 5e 3e 5b cd 79 3d 19 8a a6 bd 3e 9d 34 3c
       0.21740425 0.060986858 -0.08131809 0.011023818
000370 5a 49 fe 3d 90 ae 0d 3e de 08 58 3d 5d a4 24 be
       0.124163345 0.13836122 0.05274283 -0.16078325
000380 c9 c4 2e be 24 17 6a 3e cf b8 f6 3d e2 48 aa bd
       -0.17067255 0.2286039 0.12046968 -0.083146825
000390 f3 c5 58 3d d1 5e 3e 3e 26 d3 0c 3c 6b b4 1b be
       0.052923154 0.18590857 0.008595264 -0.15205543
0003a0 e1 40 57 be bd 03 20 3e ed 6f 3d be af 63 6a 3e
       -0.21020843 0.15626426 -0.18499728 0.22889589
0003b0 d7 08 fe 3d be 1f 3e 3c 80 83 f6 3d 1c 91 45 be
       0.1240403 0.011604248 0.120368004 -0.19293636
0003c0 11 ac a6 bd fa 29 7c bd a1 e8 6d bd f4 01 29 3e
       -0.08138288 -0.06156347 -0.05808318 0.16504651
0003d0 f8 f0 d8 bc 0e 4c 57 3e a9 c0 fc 3d d6 8b 43 be
       -0.02648209 0.21025106 0.123414345 -0.19096312
0003e0 21 46 58 be ec 55 35 bc 09 79 4a 3e d6 81 2b be
       -0.21120502 -0.011067849 0.19772734 -0.16748747
0003f0 a4 a9 80 bd 78 b8 2d be b3 a8 34 be 3e c7 9b bb
       -0.062823564 -0.169649 -0.17642479 -0.004753976

actor.0.bias f4 [128]
000000 e9 c5 96 bb 38 37 51 3e 77 b0 07 3d af 1d 5f bd
       -0.0046012294 0.2043122 0.033127274 -0.054471668
000010 df 58 a9 3d 03 ca f9 bd 2c 70 d8 bc 60 67 9c 3d
       0.08268904 -0.12196734 -0.026420675 0.07636905
000020 77 dc 6c 3e 5b 69 ce bd ce 6d 20 3d de e2 22 3e
       0.23130976 -0.10078689 0.039167218 0.15906855
000030 e4 a5 68 3e 60 da 38 3d 00 2b c4 bd e2 55 93 bd
       0.22719532 0.045130134 -0.09578514 -0.07194115
000040 af 94 a5 3c dd f4 dc 3d 44 82 87 3c 1d 49 42 be
       0.0202125 0.107888915 0.016541608 -0.18973203
000050 b1 8e 62 be 29 5e 6b be bd d0 be 3d ee 1b 36 be
       -0.22124745 -0.22985138 0.093171574 -0.17784092
000060 39 14 b5 bd c3 9f 1d be 45 a4 54 3e 58 07 5b be
       -0.08841748 -0.15392976 0.20765789 -0.2138952
000070 e2 e7 ea bd 2d 57 25 3e f8 9c 49 3e 43 16 1c bd
       -0.114700094 0.16146536 0.19688785 -0.038107168
000080 a8 db 35 bd 72 b7 0c be 77 0b 69 be 27 d9 c1 3c
       -0.044398934 -0.13741854 -0.2275828 0.023663117
000090 83 ab c3 3d 39 1c 6a 3e c3 bd 61 3e fe 13 29 3d
       0.09554198 0.22862329 0.22045045 0.04127883
0000a0 95 63 71 be 1f 62 93 bd cd 1f b0 3d 99 de 26 bd
       -0.23573144 -0.071964495 0.085998155 -0.04073963
0000b0 b5 f0 22 3d a3 a6 02 3e 2d 25 ae bd 69 5a 25 be
       0.039780337 0.1275888 -0.085031845 -0.1614777
0000c0 71 2b 2e 3d a3 dc 21 3e 83 65 96 3d b6 f0 3a 3e
       0.042521898 0.15806822 0.073435806 0.18255886
0000d0 aa 1c 25 3d 39 b1 cf 3d 9f fd 61 be 82 11 be bd
       0.04031054 0.101412244 -0.22069405 -0.09280683
0000e0 d1 de 1d 3e b9 50 34 be 25 0e 74 be 98 ee bd bd
       0.15417029 -0.17608918 -0.2383352 -0.09274024
0000f0 39 f0 80 3c 77 2d 5c be 9b 88 79 bc 02 92 e9 3d
       0.015739547 -0.21501718 -0.015230323 0.11404802
000100 37 fe 01 3e c4 57 3d be df d8 e6 bc cf f0 df bd
       0.12694632 -0.18490511 -0.028179584 -0.109346025
000110 61 bc 54 be 3d b5 f2 3d b9 20 53 be b8 f3 a6 bd
       -0.20774986 0.11850975 -0.20617951 -0.081519544
000120 e3 40 94 bd 05 ba 5f be 44 81 e1 bd 17 94 65 be
       -0.07238939 -0.21848305 -0.110109836 -0.22419773
000130 ea 61 c4 3d 27 b3 d0 bd b9 a5 61 3d a4 e2 0a be
       0.09588988 -0.101904206 0.055089686 -0.13563019
000140 1f 72 74 3d 5a 8d 0f be 8e 41 27 3e d4 cb 51 3e
       0.059679147 -0.14018765 0.16333601 0.2048791
000150 56 bf 8d 3d 7d fd 55 3e 61 77 48 be 05 f0 90 bd
       0.0692126 0.2089748 -0.1957679 -0.0707703
000160 07 cc 91 bd d6 5e 76 3e 0f 64 ca bd d9 ce 6a 3e
       -0.07118993 0.24059615 -0.09882366 0.22930469
000170 a0 08 71 3e 31 29 3b 3e 03 92 d5 3d 45 1a 2e be
       0.23538446 0.18277432 0.1042824 -0.17002209
000180 f7 57 53 3e 3c c4 73 3d 59 cf 0f 3c a1 f0 3b 3e
       0.20639025 0.059513316 0.008777463 0.18353511
000190 ab 02 ba 3d 32 6f 0b 3e ee 78 48 3e 4b fe 67 3c
       0.0908254 0.13616636 0.19577381 0.014159749
0001a0 ad 05 b1 bc c6 05 24 be e7 48 33 3e d1 c2 36 be
       -0.021609152 -0.16017827 0.17508279 -0.17847754
0001b0 31 9a 50 be fe ab 02 3e d3 c7 ba bd 47 95 3c be
       -0.2037132 0.12760922 -0.09120145 -0.1841632
0001c0 45 95 54 be 09 71 55 3e 5c d0 c4 3d 97 43 89 bd
       -0.20760067 0.208439 0.09610054 -0.06702345
0001d0 df 88 8e 3d 44 56 ba 3d af 94 da 3c 58 97 0a 3e
       0.069597 0.09098485 0.026682226 0.13534296
0001e0 8f a3 1b 3e 24 ec 0c 3e 70 a6 f9 3d 30 68 32 be
       0.15199111 0.13761955 0.121899486 -0.17422557
0001f0 98 d3 03 be 07 66 f6 3d 06 be e3 bd 33 c5 7c 3c
       -0.12873685 0.12031179 -0.111202285 0.015427875

actor.2.weight f4 [128, 128]
000000 de 79 b0 3d 15 f0 55 3d 09 e7 ac bc 68 cc af bb
       0.08616994 0.052230913 -0.02110626 -0.0053649433
000010 c5 b1 3a 3d be b6 24 3d d3 09 32 3d 12 c1 ec 3c
       0.04557969 0.04021334 0.0434664 0.028900657
000020 90 0e 47 3d 7e ff 4e 3d de e1 97 ba 6d a9 65 bc
       0.048597872 0.050536625 -0.0011587699 -0.014017445
000030 e4 b7 6e bd c6 3d df 3b 63 84 af bd fb b8 1c 3d
       -0.05828084 0.006812784 -0.08570173 0.03826235
000040 c1 d9 84 bc e0 30 4c 3c 3b 46 91 bc 14 90 92 bd
       -0.016217114 0.012462825 -0.017733684 -0.07156387
000050 1a 43 a0 bd c9 a0 47 3d f2 87 e6 3c b4 a1 82 bc
       -0.078252986 0.04873732 0.028140996 -0.015946247
000060 e6 76 59 3d 98 a0 a9 bc 0d 07 8c 3d 18 96 92 3c
       0.053091906 -0.02070646 0.06837282 0.017893836
000070 78 3b 63 bd 26 2e 2b bd aa 40 4d 3d 96 cf 0b 3d
       -0.055476636 -0.041792057 0.050110497 0.034133516
000080 77 af 0a bd fb 3b 03 3c 9e 64 22 3d 95 e8 33 3d
       -0.033858743 0.008009906 0.039646737 0.04392298
000090 8a 3c e8 3c ac 1e 91 3d 2c 90 ef bc 43 f0 61 3c
       0.02834918 0.07085928 -0.029243551 0.013790193
0000a0 26 eb 5a bd 59 ae 51 bd 79 9f a5 3d 7d 9e bb bc
       -0.05344691 -0.05119166 0.080870576 -0.022902722
0000b0 9c 9e fc 3c 49 56 e9 3c 62 ba 3b bb 0d b9 82 3c
       0.03083735 0.028483527 -0.0028645028 0.01595738
0000c0 57 62 a2 bd f7 66 5a bd 5e 6e 3c bd 70 dd 4f 3c
       -0.07928913 -0.05332085 -0.04600369 0.012687072
0000d0 88 f8 6d bd e4 3e ab 3d 59 f5 bd bc 1d 54 b7 3d
       -0.058098346 0.08361605 -0.02318828 0.0895159
0000e0 2f df ab bd 6d 74 b3 3d 01 1a a7 3d d5 be ad 3d
       -0.08392178 0.08762441 0.08159257 0.08483664
0000f0 82 bb 37 3d 49 f4 a3 3d 10 47 95 bd c9 3d 9e bd
       0.044856556 0.08005578 -0.07288945 -0.07726628
000100 bb 4c 4a 3b e5 9d a5 3d 5e 9b 1d 3c 1b 95 f3 3a
       0.0030868489 0.080867566 0.009619562 0.0018583866
000110 3a 95 d3 3c 0b 95 b1 3d 36 29 80 3d bb 88 e4 bc
       0.025827993 0.08671006 0.0625786 -0.02789723
000120 3a 26 7c bc e9 61 c1 bb d6 e1 31 bd a3 f0 fa 3c
       -0.015389973 -0.0059015644 -0.043428265 0.030632323
000130 6e 89 ea 3b 4d ca 14 3d 0d 83 49 3c 81 07 09 bd
       0.007157496 0.03632574 0.012299311 -0.033454422
000140 1f 7f 08 bd b0 76 6f 3d e8 4b 9d 3d 74 b6 57 3c
       -0.033324357 0.0584628 0.076804936 0.013166059
000150 61 35 87 bc ef c1 b3 bd 15 7a 1f 3d 45 ee cc 3c
       -0.016504945 -0.08777224 0.038934786 0.02501596
000160 d7 77 5b bd e2 a2 a0 3d 71 5a f8 bc 87 ab 87 bd
       -0.053581085 0.078435674 -0.030316563 -0.06624513
000170 d4 01 b8 bd 96 14 c2 3c 40 f0 8e bd 6c 1a b8 3d
       -0.08984724 0.023691457 -0.06979418 0.089894146
000180 bf a8 4a 3d 80 03 03 3d 2c 82 18 3d 79 c0 61 bd
       0.049477335 0.03198576 0.037233517 -0.055115197
000190 3c 1d 37 bd 6d cc 49 bd 0a 24 5b 3d 39 da 46 3d
       -0.044705614 -0.04926722 0.053501166 0.048547957
0001a0 90 d3 03 bd 57 1b 08 3d 8b 7e 0e bd d6 6b ad bc
       -0.032184184 0.0332292 -0.03478865 -0.021169584
0001b0 67 b5 a8 bd aa a6 8b bd b6 08 5b 3d 41 d6 96 bd
       -0.08237725 -0.06818898 0.053475104 -0.073650844
0001c0 b6 7c 87 bd 04 4c 32 3b d7 1e 48 bd e4 d8 2a 3d
       -0.066155836 0.0027205953 -0.048857536 0.04171075
0001d0 8c b8 83 3d 76 62 5d 3d fd 66 c2 3c 1b bc 78 bd
       0.06431684 0.054048978 0.02373075 -0.060726266
0001e0 cb ea 5d bd 30 16 f7 3c 80 3b ef bc 62 06 01 3d
       -0.054178994 0.030161947 -0.029203176 0.031500228
0001f0 d7 f7 46 bc b8 dd d9 3b 05 b7 6c bc fd 6a 0b bd
       -0.012144051 0.0066487454 -0.014447932 -0.03403758
000200 f9 f3 a1 bd ba c0 9c ba 5e d1 b0 bd 3c 94 77 3d
       -0.07907862 -0.0011959292 -0.086336836 0.0604441
000210 56 5f 37 3d 73 04 94 ba 24 90 fc 3a a0 67 24 bd
       0.044768654 -0.001129283 0.0019269031 -0.040137887
000220 32 67 8c bc d8 ac 09 3d 9c 4c a1 bd 77 05 4a 3d
       -0.017139051 0.033612102 -0.0787594 0.049321618
000230 5f c2 46 bd be fa 23 3d 36 47 ad bd 93 76 c0 3c
       -0.04852521 0.04003405 -0.08460848 0.02349404
000240 4c 69 72 bd d3 17 ab 3c 0c 88 2b bc 7d af 88 3d
       -0.05918245 0.020885384 -0.010469448 0.06674097
000250 c1 5d 5e bd 3d 1c 98 bd 46 c4 f1 3a f6 bb 4e 3c
       -0.05428863 -0.07427261 0.0018445335 0.012618056
000260 da 92 b0 3d 56 ee af bc 1f bd 8b 3d 35 4f 32 bd
       0.0862176 -0.021475952 0.06823181 -0.04353257
000270 1b a7 95 3d 01 ff c7 bc 7d b1 ee bc 75 62 9c 3d
       0.073072635 -0.024413588 -0.029137367 0.07635967
000280 89 b9 69 3c 8b c5 9b bd 69 65 46 bc a4 e6 35 bd
       0.014265426 -0.07606038 -0.012109139 -0.04440941
000290 c2 90 a7 bd 2d 7b b5 bd 52 dc 0f 3d 16 c9 e9 3a
       -0.08181907 -0.088613845 0.035122223 0.0017836418
0002a0 b8 c8 99 bd a8 6c b1 ba 05 c8 f7 3b ca a6 93 3c
       -0.07508987 -0.001353641 0.007561686 0.018023867
0002b0 8a 33 30 3d 6e 1b 9b bd 67 a4 87 3c ba 8d 6c bd
       0.0430179 -0.07573591 0.016557885 -0.05775235
0002c0 20 71 09 bc e2 fa fa 3c 62 cb 60 bd ee e3 37 3d
       -0.0083887875 0.030637208 -0.05488146 0.044895105
0002d0 42 87 76 bd 60 54 02 bc 54 8d 65 3b d5 c0 78 3d
       -0.060187586 -0.007954687 0.0035026865 0.060730774
0002e0 93 6b 77 3d d3 50 c3 bc 62 54 51 3d fe 14 b5 bc
       0.060405325 -0.02384225 0.051105864 -0.022104736
0002f0 65 88 8f bd 41 e6 ba bb 2c c2 01 bd c3 21 70 bc
       -0.07008437 -0.005703718 -0.031679317 -0.014656487
000300 0e f5 28 bd 83 6b 60 ba 08 f1 2f bd cb 3c c6 bb
       -0.041249327 -0.00085609424 -0.042954475 -0.0060497276
000310 b8 cb de ba df 35 b8 b9 cb 07 4b 3d e3 cc 53 bd
       -0.0016997969 -0.00035135352 0.04956798 -0.051709067
000320 cf 9a 41 bc 73 61 ae bc f6 09 58 bd 3b aa 4d 3d
       -0.011816694 -0.021286702 -0.052743874 0.050211173
000330 fb bf 89 3d 35 67 ea bb 6d 33 8f 3c 9e 5c 9d bd
       0.067260705 -0.0071534165 0.017480576 -0.07683681
000340 d0 06 b8 bc 0a a6 47 bd 32 fe 05 3c 49 9d 82 bd
       -0.022464186 -0.04874233 0.008178281 -0.06377656
000350 55 f6 b8 bb 7f b3 80 3c b1 c2 e6 3c fa db 25 3d
       -0.0056445994 0.01571059 0.028169008 0.04049299
000360 33 f8 ab bd b6 e7 24 3d db 74 50 3d b7 4f b5 bd
       -0.083969496 0.04026004 0.050892692 -0.08853095
000370 6e 68 55 bd d8 c9 9b bd bc 3c b1 bd af 9e 3b bd
       -0.052101545 -0.07606858 -0.08654162 -0.04580563
000380 51 58 8f 3d a9 58 44 3d 82 54 38 bd 29 6a a8 3d
       0.06999267 0.047936115 -0.045002468 0.082233734
000390 b5 fc 14 bc 37 6c 90 3d 58 99 b4 bd 47 71 68 bd
       -0.009093453 0.0705189 -0.088183105 -0.056748655
0003a0 3f 98 2b 3c 40 8c c8 3b 79 41 19 bd 3f d6 a2 bd
       0.01047331 0.0061202347 -0.037415955 -0.079510204
0003b0 95 71 3a bb 96 0d 94 3d f8 8a 79 bd 5d 90 48 ba
       -0.0028449048 0.07229154 -0.060923547 -0.00076509063
0003c0 dc 49 79 bc fb 41 60 bc d4 0c 88 3d 02 7b 89 bb
       -0.015215363 -0.013687606 0.06643072 -0.004195572
0003d0 b9 1d 65 3c bf f5 57 bd df 62 f1 3c ef 4a 53 3c
       0.013984137 -0.052724596 0.02946609 0.0128962835
0003e0 a9 04 b5 bd bb 42 2d bc 1d ea 0e bd 12 4c 50 bd
       -0.088387795 -0.010574992 -0.034891237 -0.050853796
0003f0 2d c9 92 bd 01 f2 5c 3d 8f 4e a2 3d 4d cc 52 3d
       -0.071672775 0.05394173 0.0792514 0.051464368

actor.2.bias f4 [128]
000000 f8 83 01 3d c9 ff 59 bc 4f fe dc 3c e0 98 37 bd
       0.031619996 -0.013305613 0.026976733 -0.044823527
000010 b9 57 67 3d 51 d4 87 bd 10 41 9c bd 4f 5d 53 bd
       0.056480143 -0.06632293 -0.07629597 -0.051602658
000020 46 95 5f 3d a0 28 50 3c fe 0b 82 3d 7e b2 aa bd
       0.054585718 0.012704998 0.063499436 -0.08334826
000030 28 c4 25 3d 89 b8 f6 3c 71 74 07 bd 3c 9d 89 3c
       0.040470272 0.03011729 -0.03307003 0.016798608
000040 b6 2b 43 bc 9d 0b a6 3d 70 d1 e1 3c ee a2 23 bd
       -0.011912277 0.08107684 0.027565688 -0.039950304
000050 82 8b dc bb eb f9 a2 3b d2 ea 53 bd c9 bc 44 bd
       -0.006730498 0.00497364 -0.051737614 -0.048031602
000060 9d ef 73 bb 50 31 7d bc 14 84 ae bd 2c dc b1 bd
       -0.0037221678 -0.015453652 -0.08521286 -0.086845726
000070 f4 c5 b6 3d ab 3e 49 3d 19 b8 5d 3d 59 0a a0 3d
       0.08924475 0.04913203 0.054130647 0.07814474
000080 46 48 b2 3c 73 58 50 bc a1 e3 9a 3d ff 17 3a 3d
       0.021762978 -0.0127164 0.07562948 0.04543304
000090 bd 69 21 bd 46 33 ec bc 4a e6 00 bd a1 18 90 bb
       -0.03940748 -0.028833043 -0.03146962 -0.0043974672
0000a0 c4 b8 a1 bd dd ab b5 bd 35 38 d4 3b ae 3c 85 3d
       -0.07896569 -0.08870671 0.006476427 0.06505714
0000b0 84 09 f4 3c 30 12 7e 3d 89 21 74 bd 55 98 e7 3c
       0.029789694 0.062029064 -0.059602294 0.02827088
0000c0 d7 de 31 bd 17 46 97 bc 9a 37 0c bd 95 04 68 3d
       -0.043425407 -0.018466039 -0.034232713 0.056644995
0000d0 d1 6f 84 bd 2a d3 bf bc 80 94 94 3d 25 52 19 bc
       -0.0646664 -0.02341612 0.072548866 -0.009357964
0000e0 e5 0d 50 bd 7f 5b 9d 3d 28 0a f6 3c e0 49 8e 3d
       -0.0507945 0.07683467 0.03003414 0.06947684
0000f0 f7 b3 31 3d d7 91 89 bc 4c a8 18 3d ea ba 06 bd
       0.04338452 -0.016793175 0.037269875 -0.0328931
000100 ba 2c 98 bd 4d 4e 5c 3d 1d 10 2e 3d 2c 57 84 bc
       -0.07430406 0.05378561 0.042495836 -0.016154848
000110 bd 12 ad 3d 8f 6d 90 3d 5a f5 b2 bd b6 ca 09 bd
       0.0845084 0.07052147 -0.08738203 -0.033640586
000120 69 a8 44 3d 63 ea a9 3d 44 75 6e 3d 75 8d db 3c
       0.04801217 0.08296659 0.058217302 0.02680085
000130 b6 69 9d 3d 42 78 cb bc 3d 38 ae bc d0 33 00 3d
       0.076861784 -0.024837617 -0.02126705 0.031299412
000140 7e 80 e4 bc 99 16 59 bd 52 20 9e bd 01 48 89 3c
       -0.027893301 -0.053000066 -0.07721008 0.016757967
000150 27 31 e0 3c 6b 57 7e 3d 1d 79 39 3d d0 a3 36 3d
       0.027367188 0.062095087 0.04528152 0.044589818
000160 a5 3b 0f 3d 8a 0c 82 3d 71 3e 0f bd 2e 8b 0e 3d
       0.03496899 0.06350048 -0.03497166 0.0348007
000170 a1 0b 4f 3d c1 5f b5 bd 6c 81 98 3d ea 71 9f bd
       0.0505482 -0.08856154 0.0744656 -0.07785399
000180 0c c7 a5 bd 9d a6 62 3d 97 af 48 bd 29 89 70 bc
       -0.08094606 0.055334676 -0.04899558 -0.014681139
000190 1f 9e 92 bd 3c 74 be 3c 2c ae 33 bd 3e bb 51 bd
       -0.071590655 0.023248784 -0.043867275 -0.05120396
0001a0 f2 2d 36 bd 89 76 5c 3b 20 a8 ce b9 7c 3a e0 bc
       -0.04447741 0.0033639988 -0.00039416645 -0.027371638
0001b0 91 49 1f 3d d9 ed ee bb 46 ad a4 bc d3 71 9a 3d
       0.038888518 -0.0072915372 -0.020102154 0.075412415
0001c0 27 25 1a bd 21 e6 b0 bb 55 8f a9 bd 5b 77 95 3d
       -0.037633087 -0.0053985273 -0.082792915 0.07298156
0001d0 75 4e 1d 3d 69 47 54 3b eb 70 85 bd e3 63 33 3d
       0.0384049 0.0032391197 -0.06515678 0.04379643
0001e0 06 e0 92 bb e0 e1 43 3d 60 43 bb 3c ba 36 44 bb
       -0.004482272 0.047822833 0.022859275 -0.0029939846
0001f0 ce 83 e7 bc 5d 02 34 3d e8 9f 84 3d f1 5a 74 bd
       -0.028261092 0.043947566 0.06475812 -0.05965704

actor.4.weight f4 [4, 128]
000000 1a 22 7d bd af a2 83 bd 01 e6 f3 bc e7 4a b2 3d
       -0.0618001 -0.06427514 -0.02977276 0.08705693
000010 85 f0 42 bd 10 5f a1 bd 1a bb 7e 3d ba 95 80 bd
       -0.04759266 -0.0787946 0.062190153 -0.06278558
000020 7c b3 9f bd fb a3 ff 3a d3 b0 98 bd 05 07 05 3d
       -0.07797906 0.0019503826 -0.074556015 0.032477397
000030 d7 e6 35 bd 8f a4 96 3c af 0a eb bc af c2 fc bb
       -0.0444096 0.018389015 -0.028691618 -0.007713638
000040 7c 07 f4 ba 8e a5 2c bc da f5 19 bd 30 10 a7 bc
       -0.0018617953 -0.010537518 -0.037587978 -0.020393461
000050 2e 9c f1 bb 53 60 04 3c 3d a5 9a 3d be 48 87 bd
       -0.0073733544 0.008079606 0.07551048 -0.06605671
000060 53 84 f9 bc 62 38 9c bd f5 94 6f bd 7a 64 4d 3b
       -0.030458605 -0.07627942 -0.058491666 0.0031340406
000070 1c 1a 4c 3d 8a 64 03 bc e0 53 5b 3d 03 46 8e bb
       0.049829587 -0.008019576 0.053546786 -0.004341842
000080 ab d1 34 3d 5b 80 5f 3d 63 a6 0b 3d 87 5c 36 3d
       0.044145267 0.05456577 0.034094226 0.044521835
000090 8a cb 09 3d 8e d3 70 bd 24 5f 2b bc bb 20 07 3d
       0.033641376 -0.058795504 -0.010459695 0.0329902
0000a0 ff b3 86 bd 4c da 73 3d 21 31 a4 3d e6 00 21 bd
       -0.065773 0.059534356 0.08017183 -0.039307497
0000b0 24 eb d0 bb ae e4 55 3d 1e d0 6a bd 1b 0b fd ba
       -0.006375687 0.05222004 -0.057327382 -0.0019305678
0000c0 66 6a 82 3d 87 f4 e0 ba dc 04 82 bd e7 7d 53 3d
       0.0636795 -0.0017162719 -0.06348583 0.05163374
0000d0 78 09 2c bd d4 15 a5 3d f9 8a 23 3c 91 0a 01 bd
       -0.042001218 0.08060804 0.009981864 -0.031504218
0000e0 72 e2 81 3d 76 ca 09 bd fa b1 a0 bd b0 ca df bc
       0.06342019 -0.033640347 -0.07846446 -0.027318329
0000f0 e5 e0 13 3b eb a1 7b 3d 78 a8 0c 3c 24 a0 81 3d
       0.0022564468 0.061433714 0.008585088 0.063293725
000100 b8 a1 94 bd d2 78 a2 bd be 2c b5 3d f2 91 87 3d
       -0.07257408 -0.07933201 0.088464245 0.06619634
000110 d6 a4 cf 3c 1c a6 93 3d 14 bd a9 bd f2 33 13 3d
       0.025347155 0.07209417 -0.08288017 0.03593821
000120 02 5d 89 3c 58 27 a7 bd a3 e6 95 bd e8 11 27 bd
       0.016767982 -0.08161801 -0.07319381 -0.04078856
000130 aa a9 76 bd 03 9b 95 bc dc 5f 66 3d 0d f9 87 bd
       -0.060220398 -0.018262392 0.056243762 -0.066392995
000140 c6 dc 78 3d 50 82 57 bd f3 19 4b 3d 1d f0 a0 bd
       0.06075742 -0.05261451 0.049585294 -0.07858298
000150 cf 21 a0 3d 93 1d 56 bd 6c 05 5f bb 3b 7a a6 bd
       0.078189485 -0.052274298 -0.0034030331 -0.08128782
000160 b0 da 95 3c cd 40 ea 3c d6 0c 21 bd 51 68 25 bd
       0.018292755 0.028595353 -0.039318882 -0.040382687
000170 9a e5 ac bd 1d bd 15 bd ce eb 1a bd 08 d4 b8 bd
       -0.084422305 -0.036557306 -0.037822537 -0.09024817
000180 10 94 a5 3d 2b 10 ae bc a2 84 94 bd f0 41 61 3d
       0.08084881 -0.021247944 -0.0725186 0.054994524
000190 93 90 55 bd 2e 25 3d 3d 2f 00 76 bd a8 87 77 bc
       -0.05213983 0.046178035 -0.06005877 -0.015108027
0001a0 05 69 95 bd 67 54 70 bd a1 49 83 bd 27 9c 95 3d
       -0.072954215 -0.058674242 -0.06410528 0.07305174
0001b0 36 85 98 bd d1 67 ac bd 1e 31 9e 3d e8 1c fe 3c
       -0.07447283 -0.08418239 0.07724212 0.031019643
0001c0 ce 96 2d 3d 57 a1 03 bd 97 c2 3c bd 1c 6e aa bd
       0.042380147 -0.032136288 -0.046084013 -0.08321783
0001d0 4d 96 ec 3c 82 51 d1 bc 12 11 02 bd 2f d4 3b 3d
       0.028880263 -0.025551561 -0.03175456 0.04585665
0001e0 e0 02 99 3d 5c f9 b5 bd c4 78 ab 3d c0 99 b1 bd
       0.074712515 -0.08885452 0.083726436 -0.086719036
0001f0 b5 3a 81 3d ca 3e 81 3d 66 94 76 3d 34 5e d6 3b
       0.063100256 0.06310804 0.060200118 0.0065419916
000200 c6 45 9b bd 0d 56 1c 3d f6 38 79 bd a6 f7 a0 bc
       -0.075816676 0.038168002 -0.060845338 -0.019649338
000210 91 08 1f 3c d4 cc b6 bd 79 e8 62 bd 28 e9 9c bd
       0.009706632 -0.089257866 -0.055397484 -0.076616585
000220 bd 9f 09 bd 02 99 02 bd 9d 48 8e bd 27 9f ad bd
       -0.033599604 -0.0318842 -0.06947444 -0.084776215
000230 ac dd 84 bd 6f c8 08 3c 6a 0a 9e bd 55 e8 11 3d
       -0.06487593 0.008348568 -0.0771683 0.03562196
000240 72 97 85 3d 99 c6 8c 3d 06 ed af bd e9 5d 8e 3c
       0.065230265 0.06873817 -0.085901305 0.017378764
000250 84 3a d1 3c bf 7c 80 bd 0f 3b 6d bd 6f 70 96 3d
       0.025540598 -0.062737934 -0.05791765 0.07345664
000260 be 27 a5 bd 2f 2c 9e 3d 4c f1 a3 3c d2 2d 82 bd
       -0.08064221 0.07723271 0.02001252 -0.06356396
000270 1f 9c 73 bd 52 c4 fd bc 50 47 b0 3d 95 1c 9b bd
       -0.05947506 -0.030977402 0.08607352 -0.07573811
000280 52 4d 6e bd 51 93 8c bd 45 c3 5c 3b de e5 66 3d
       -0.058179207 -0.06864036 0.0033685726 0.056371562
000290 0a f5 59 bd e3 7e 7d bd 48 a7 99 bc 25 7b 80 3d
       -0.053212203 -0.061888587 -0.018756524 0.06273488
0002a0 8e 42 92 3d f3 f4 91 3d 6a 3e 95 3d d7 3e 80 3d
       0.071416005 0.071267985 0.07287295 0.06261986
0002b0 99 5d a8 3d 99 b5 b7 bc c1 6f 8b 3d 88 e7 fe 3c
       0.08220977 -0.02242546 0.06808425 0.031116262
0002c0 e4 27 f8 bb 8c fa e8 bc 50 ad 39 bd 94 f7 c4 bc
       -0.0075731147 -0.028439783 -0.0453313 -0.024043836
0002d0 ff 8e aa bd c6 35 f4 bc 52 7d 1f 3c 83 39 99 bd
       -0.083280556 -0.029810797 0.009734469 -0.074816726
0002e0 36 20 0e bd 33 b4 40 3c 5c 70 34 3d 60 f9 8e 3d
       -0.034698687 0.011761713 0.044052467 0.06981158
0002f0 2f b2 15 3c 3b ea 1d 3d 9b fe 6e 3d bd 6d af 3d
       0.009136721 0.038553458 0.05834828 0.08565853
000300 2d c6 a7 bc fa d3 84 3b b2 80 aa 3d 10 39 2f 3d
       -0.02048024 0.00405359 0.08325328 0.04277903
000310 8a 3a 97 3d 1c 3a 76 b9 44 5f b6 3c 21 27 00 bd
       0.07384212 -0.00023482036 0.022262223 -0.031287316
000320 24 5d 8d 3a a0 29 38 bb ea c5 7a 3c 91 d0 6a bd
       0.0010785204 -0.0028100982 0.015305975 -0.05732781
000330 7a 0e a8 3d c7 88 2f bc 4a 99 ea bc 26 cd 6d bd
       0.08205886 -0.010713763 -0.028637547 -0.058056973
000340 c5 ae 59 3d 6f 17 95 3d a1 8c 20 bd 6c fe 3f bd
       0.05314519 0.0727986 -0.039196614 -0.046873495
000350 77 93 86 3d 98 86 8e bc 2b 05 90 3d 5b 3c 0d 3d
       0.065710954 -0.017398164 0.07032236 0.034481388
000360 b0 fb 96 3d 5e 54 8e bd 7b 7f 8d 3d 6b 96 70 3d
       0.07372224 -0.069496855 0.069090806 0.0587372
000370 1e 18 ed 3c 7f 19 16 bd d1 39 56 bd 8b 6f b3 3d
       0.028942164 -0.03664541 -0.05230123 0.087615095
000380 b6 03 fd 3a f0 80 99 3d f4 63 8a bd e2 ef 99 3d
       0.0019303474 0.07495296 -0.06757346 0.07516457
000390 84 5f 3e 3d ff 52 7d bd 52 77 9b bd 69 b9 4a 3d
       0.04647781 -0.06184673 -0.07591118 0.049493227
0003a0 03 7b 9f 3d 17 0c 39 3d a1 4c a8 3c d8 e7 74 bd
       0.077871345 0.045177545 0.020544352 -0.059791416
0003b0 41 66 4e bd 5b 72 8e bc 03 67 db 3c 05 cf 7e 3d
       -0.050390486 -0.017388513 0.026782518 0.062209148
0003c0 38 d9 95 bb 31 0a 53 3d 0d b7 d3 3c 2d 60 28 3d
       -0.0045730136 0.05152339 0.025844121 0.041107345
0003d0 99 60 08 3d 88 6c b3 bd 76 92 89 3d 9e 0d ad bd
       0.033295248 -0.08760935 0.06717388 -0.08449863
0003e0 e4 67 4f bd f0 69 9c 3c 2d 59 63 bd 83 9a 8d bd
       -0.050636187 0.019093484 -0.055504967 -0.069142364
0003f0 da 54 8e bd 7c 11 a1 bd bf ad 62 bd 6d e6 ee 3c
       -0.06949778 -0.07864663 -0.05534148 0.02916261

actor.4.bias f4 [4]
000000 6a e7 7b 3d 75 3d 00 3d 0d 75 aa 3d 2e dd da bc
       0.06149999 0.03130861 0.08323107 -0.026716795

critic.0.weight f4 [128, 17]
000000 d0 18 62 bd 5f 2e 52 3e ba 75 d8 bb c1 ac 6b bc
       -0.055199444 0.20525502 -0.006605831 -0.014384449
000010 7c 8b 61 3e 78 38 3d be a1 6c f5 bc ce 9f 03 3e
       0.22025865 -0.18478572 -0.029959025 0.1285393
000020 e8 60 e6 3d e6 75 41 3e f1 75 3d be 47 a4 b5 3d
       0.11248952 0.18892631 -0.18502022 0.08869224
000030 a9 f0 87 3c de b7 db 3d 49 cc 47 3e b8 57 b8 3d
       0.016594248 0.10728429 0.19511522 0.09001106
000040 6f 09 fa 3c 61 6b 0b 3e 1a c9 5a 3e 96 2e c9 bd
       0.030522076 0.1361518 0.21365777 -0.09823339
000050 7d c7 20 3c f1 1f 2c bd 43 a9 40 3d b7 09 3e be
       0.009813187 -0.04202265 0.04703642 -0.18558393
000060 3c 7a ad 3d ce 1e 26 be 88 b9 23 be 9a b1 49 be
       0.0847058 -0.16222689 -0.15988743 -0.19696656
000070 bd c6 67 3e ee 01 81 3d e1 a8 bb bd 95 f8 48 3d
       0.22634406 0.06299196 -0.091630705 0.04906519
000080 8a ed 0f be 8f dd 10 3e 3b bc 58 bd 58 ac 1f bd
       -0.14055458 0.14147018 -0.052913886 -0.03898272
000090 10 b1 41 3e d5 00 09 3c 6a c8 20 be 3c 5d ba bc
       0.189152 0.008362015 -0.15701452 -0.022749536
0000a0 e1 3c dc 3d d4 f4 28 3d 00 43 11 be 61 91 aa 3d
       0.10753799 0.04124911 -0.14185715 0.0832851
0000b0 69 ea 19 3e 30 df 0d 3e 64 a3 79 be d2 f5 38 3e
       0.15030827 0.1385467 -0.24378735 0.18062523
0000c0 4c c2 01 bd cd ed 18 3e 0f 6d 3a 3d e3 f4 6a 3d
       -0.031679437 0.14934464 0.045514163 0.05736245
0000d0 31 3b 11 3d 0e 31 70 3e 07 61 da 3c b2 5f 23 3e
       0.03545684 0.23456213 0.026657594 0.15954474
0000e0 a8 a9 46 be 77 e1 2a bd d4 80 1e be 7b 3a cd bd
       -0.19400656 -0.041718926 -0.15478832 -0.1002092
0000f0 6a 72 7f 3c db e2 16 3e b1 d7 5b 3c 04 ad 07 be
       0.015591243 0.14734976 0.013418124 -0.13249594
000100 bf 4c 34 3d 43 b9 94 bd 70 dd 5b 3e a1 aa 5f 3d
       0.044018503 -0.07261898 0.2147119 0.054606084
000110 ac ec 47 3d 02 24 8f bd 28 20 1b 3e 7e 40 30 3e
       0.048809692 -0.0698929 0.15148985 0.17212102
000120 15 5a 57 be fb 96 0e 3e 85 20 75 bd 60 22 6b 3d
       -0.21030457 0.13924782 -0.059845466 0.05740583
000130 b3 2b 27 3e 5e 63 9a bd b9 9d cc 3d de ad be 3d
       0.16325264 -0.07538484 0.09991021 0.09310506
000140 c2 2d 07 3e ac 77 27 3e 06 1e 71 3e 23 8c 44 be
       0.13201049 0.16354245 0.2354661 -0.19194083
000150 af 06 06 be ed 70 d8 bd 50 1b 64 be 46 e7 0c be
       -0.13088487 -0.10568414 -0.22276044 -0.13760099
000160 b3 3a b1 bd b2 b0 66 3e af 64 e9 3d d5 29 60 be
       -0.08653774 0.22528341 0.11396157 -0.21890958
000170 c0 88 20 3e 0c 1b 3c be 41 f2 29 be c1 3d cb bc
       0.15677166 -0.18369693 -0.16596319 -0.02480972
000180 10 cc 48 be 93 39 3b 3e d7 ba c1 ba 78 59 08 bb
       -0.19609094 0.18283682 -0.0014780414 -0.002080528
000190 8b 62 23 be 19 c9 e2 3d 17 99 e3 3d 10 df a0 bd
       -0.1595556 0.110735126 0.11113184 -0.07855046
0001a0 3c 6d e4 bd 3a 2e 3b bd 5d 14 87 3c 13 1d 5c be
       -0.11153647 -0.045698382 0.016489202 -0.21495466
0001b0 8c dc 02 be ee 32 f6 bd 0c 7c b4 3c a6 88 74 be
       -0.12779444 -0.12021433 0.022031806 -0.23880252
0001c0 34 3b cd 3d 21 a7 36 3e 01 c0 73 3e 8a 11 cb 3c
       0.10021058 0.17837192 0.23803712 0.024788637
0001d0 f1 51 02 be 65 87 25 be 9b 9e 15 be c6 8a 18 3e
       -0.1272657 -0.1616493 -0.14611284 0.14896688
0001e0 a3 9e 8b bb 65 24 46 3e b6 de 24 3b 6c 0b 04 3d
       -0.0042608543 0.19349821 0.002515716 0.032237455
0001f0 02 2e 68 be a6 1c 37 bd e3 0a 04 bd ea 97 40 be
       -0.226738 -0.044705056 -0.032236945 -0.1880795
000200 bc 1b 3b be d2 13 65 be 85 09 4c 3c ce 78 0b 3c
       -0.18272299 -0.22370842 0.0124534415 0.008512689
000210 e6 e4 75 3e 56 a3 6d 3e 18 69 e3 bd ac bb 0b 3e
       0.24013099 0.23206839 -0.111040294 0.1364581
000220 c4 47 ab 3d 6e d9 c4 bd 66 f7 c9 bd 91 d0 9f bd
       0.083632976 -0.09611784 -0.09861641 -0.07803453
000230 75 49 43 bd 63 0a 4c bd 46 bd 7c 3c ee e7 74 bd
       -0.047677476 -0.049814593 0.015425986 -0.059791498
000240 0c df 23 bc c9 56 af bd bc c9 12 be 1e 29 21 be
       -0.010001909 -0.08561475 -0.14334768 -0.15738341
000250 aa fe 3d be 9c b0 04 be ea 7f a6 3c c0 91 99 3c
       -0.18554178 -0.12957996 0.020324666 0.018746257
000260 62 6f f1 bc 8f 36 73 3e 0b 1b dd bd 44 c5 2c 3e
       -0.029472057 0.23751281 -0.10796174 0.16872126
000270 e4 d9 6b 3e 75 5a 03 be f6 ea c0 bc 86 67 08 3e
       0.23032337 -0.12827475 -0.023549538 0.13320741
000280 03 15 1f be 51 34 91 bc 7c 45 71 3d e7 47 4f be
       -0.15535359 -0.017725142 0.058904156 -0.20242272
000290 bd 66 d1 bd 2e e5 07 be de 53 35 3e 42 08 f6 3c
       -0.10224674 -0.13271019 0.17707774 0.030033235
0002a0 a3 11 df 3d c8 97 62 be ef 93 a8 bd bc 89 28 3e
       0.10892036 -0.22128212 -0.08231341 0.16458791
0002b0 78 42 85 3c 63 57 0f 3e 03 47 4f be ff 09 4e be
       0.016267046 0.13998179 -0.20241933 -0.20121
0002c0 b4 2b c2 3d 35 ab 15 be 46 49 59 bc 66 b0 2f 3e
       0.09480992 -0.14616092 -0.013262099 0.17157134
0002d0 f0 8f 11 3c 01 aa 50 be 55 1c e5 3b b1 2b 52 3d
       0.008884415 -0.20377351 0.006991903 0.0513112
0002e0 fc 02 1e be 8d 2e 47 be 2a bd ee bd d1 cc ab 3d
       -0.15430826 -0.19451351 -0.11657174 0.08388675
0002f0 da 48 27 be 20 b5 f3 bd 71 9a e0 3d e6 99 8e 3d
       -0.16336384 -0.11899781 0.10966957 0.069629475
000300 bf 76 0b 3e 7a dd 32 3e cc bc 73 3c b2 d5 49 3c
       0.13619517 0.17467299 0.014876556 0.012319015
000310 f2 15 35 3e 57 89 37 3d c4 6c e3 bd 57 0a 6d be
       0.17684153 0.04480871 -0.1110473 -0.23148476
000320 52 7c 47 3e f8 6e 87 bd 92 90 af 3d dd 53 59 be
       0.19481018 -0.066129625 0.085724965 -0.21223398
000330 5e 0f 70 3e a4 7b 1a bd 08 e6 52 3e dc 52 1c 3e
       0.23443362 -0.03771557 0.20595562 0.15265983
000340 df b8 0d be b9 2d 1e be e6 15 46 3d fe 85 59 3e
       -0.13840054 -0.1544713 0.048360728 0.2124252
000350 e5 f4 d2 3d 4b 9c d3 bc af c2 49 3d 42 3e 61 3b
       0.10300616 -0.025831362 0.04925793 0.0034369384
000360 f5 6e 5f bd 8c 5c 62 3d 8f 71 25 bd 81 e3 c1 3c
       -0.054549176 0.05526404 -0.0403915 0.023668053
000370 8e 0c 99 3d fe 65 64 3e 84 ab 27 be b0 39 7f bd
       0.07473098 0.22304532 -0.16374022 -0.062310874
000380 99 05 4a be c2 61 6b be f4 24 77 3e 76 a8 53 be
       -0.19728698 -0.2298651 0.2413519 -0.20669731
000390 09 f3 43 be 92 71 0a be ab 03 12 3e 27 b9 39 3e
       -0.1913568 -0.13519886 0.14259212 0.18137036
0003a0 f9 62 42 be 73 4c 5c be d0 2e 5c 3e af ac d6 bd
       -0.18983068 -0.21513538 0.21502233 -0.104821555
0003b0 f5 bf 44 3e d5 5e 07 be dd 2e 76 3e 25 8c 25 3e
       0.19213851 -0.1321977 0.24041314 0.16166742
0003c0 a5 e7 0b 3c 78 ca 68 3d 99 70 f4 bd 32 56 4e be
       0.008539115 0.056833714 -0.11935539 -0.20150068
0003d0 eb de 0e be 24 ff 15 be bb c4 86 bd 28 bd 0c be
       -0.13952224 -0.1464811 -0.06580492 -0.13744032
0003e0 b4 d8 07 be b0 0d 43 bd f7 af db bb d9 92 e5 3d
       -0.1326626 -0.047620475 -0.0067043263 0.112096496
0003f0 df 27 46 3d 00 b4 b5 bd f3 f5 ca 3d ea e3 7e bd
       0.048377868 -0.08872223 0.09910192 -0.062229075

critic.0.bias f4 [128]
000000 e7 cd 47 be 42 1d c2 bd 20 ac 53 3e 23 19 b6 3c
       -0.1951214 -0.09478237 0.20671129 0.022228783
000010 dc 63 34 be 06 6c 70 be 77 e8 44 be fb 79 b4 bd
       -0.17616218 -0.23478708 -0.19229303 -0.088123284
000020 5d 65 95 bd ad a5 46 bc 4d 74 6c 3e 2c 60 31 3e
       -0.07294724 -0.012124461 0.2309124 0.17321843
000030 87 01 64 be 4e 1d 3a 3c a7 86 1c be 1a 5c ff 3d
       -0.22266208 0.011359526 -0.15285741 0.12468739
000040 ae 46 e5 3c 57 8e be 3c cc 0f 03 be 5c 1e 18 be
       0.027987804 0.023261232 -0.12798995 -0.14855331
000050 e0 9f 24 be bc aa a3 bd 3a 7d 22 bc 11 e9 c9 bc
       -0.16076612 -0.079915494 -0.009917552 -0.024647268
000060 17 9b 49 3e 0b d2 54 be f1 00 5d 3e ec 29 1b be
       0.19688068 -0.2078325 0.2158239 -0.1515271
000070 67 36 86 3d 06 9f 39 3e f1 9c 71 3e 5e 4d 3d be
       0.06553345 0.18127069 0.23595025 -0.18486544
000080 9e 3e fa bd 89 0f 0a bd 95 f0 7c bd c2 2d 01 3e
       -0.122189745 -0.03370622 -0.061752874 0.12615111
000090 b8 64 aa 3d cc ce 60 3e d4 2b 22 3d f4 50 b9 3d
       0.08319992 0.21953887 0.03959258 0.09048644
0000a0 07 eb 0d bc 33 9e 49 3d 10 94 71 bc bf f3 21 3d
       -0.008661992 0.049223136 -0.0147447735 0.039539095
0000b0 fa 86 47 be b9 f5 5e 3d 4c cf f9 bb dc a2 11 3c
       -0.19485083 0.054433558 -0.0076235887 0.008888926
0000c0 a5 1a 61 3e fd 12 11 be b9 7e a7 3d 12 d2 80 bd
       0.2198282 -0.141674 0.08178467 -0.06290068
0000d0 25 49 2a 3e 7c 83 52 3e a3 14 2b bb 57 d8 97 3d
       0.16629465 0.2055797 -0.002610483 0.074143104
0000e0 af ca 25 be 44 30 4b bd ca 8c fb bd e9 8c ee bd
       -0.16190599 -0.049606577 -0.12282713 -0.1164797
0000f0 f6 bc 1f 3e 8b b5 be bd 66 64 03 be b6 fa 47 be
       0.15599427 -0.0931197 -0.12831268 -0.19529232
000100 8f e2 39 bd cf be f1 bd 88 20 b1 bc 2f 96 fd 3d
       -0.04538208 -0.11803972 -0.021621957 0.12382161
000110 4c 48 d7 3c 4b d8 08 3e 5f 9e 46 bd 59 85 22 be
       0.026279591 0.13363759 -0.04849088 -0.1587118
000120 bb 68 c1 3d 5b 1a ce 3d 6d 69 0a be 5d be 33 3d
       0.09443804 0.10063621 -0.13516779 0.043882716
000130 be d5 a6 bd 34 ee 20 3e 4b 95 65 3e bf a0 bf bc
       -0.08146237 0.15715867 0.22420232 -0.02339208
000140 70 77 2e be 27 c2 1d be 07 70 36 3e f8 fe 37 3e
       -0.1703775 -0.15406094 0.17816173 0.17968357
000150 08 77 13 be ff e4 d3 bc 9c 61 15 be a9 e0 ac bd
       -0.14400876 -0.02586603 -0.14588016 -0.08441288
000160 27 bd b9 3d c3 65 2c 3e 83 03 12 be 2c a9 eb 3d
       0.09069281 0.16835694 -0.14259152 0.11506876
000170 67 11 0d bd 8e 5c 94 bc 24 38 c8 bd 87 1c ee 3d
       -0.034440424 -0.01811054 -0.09776333 0.11626535
000180 4a 66 29 3d 47 26 12 3e dc d4 98 bd 74 be 34 be
       0.041357316 0.14272414 -0.07462475 -0.17650777
000190 15 db 97 bd 8a 7a f9 3d 36 e8 19 3e f2 8c e5 bd
       -0.074148335 0.121815756 0.15029988 -0.11208524
0001a0 eb 03 4e 3e 03 39 74 be 9e 63 2b 3d eb eb 1b 3e
       0.20118682 -0.23849873 0.04184305 0.15226714
0001b0 43 42 15 3e e0 aa e2 bd ad 17 1c 3e e5 08 44 be
       0.14576058 -0.11067748 0.15243407 -0.19144018
0001c0 97 7b 56 be 27 60 08 be f9 57 7f bd 0d 00 17 3e
       -0.20945583 -0.13317929 -0.062339757 0.14746113
0001d0 03 78 8d 3d a6 5a 13 be 28 ff 63 3e d3 61 07 3e
       0.06907656 -0.14390048 0.22265303 0.1322091
0001e0 b3 c6 d0 bb 12 f3 2c 3e 03 a0 e0 3d 01 fd 5e 3e
       -0.006371343 0.16889599 0.1096802 0.21776201
0001f0 33 6a 6e be ef 58 0a bd 4f e7 41 3e 52 93 97 bd
       -0.232827 -0.03377622 0.18935893 -0.07401146

critic.2.weight f4 [128, 128]
000000 27 16 82 bd bc 00 52 bd 7a c4 92 bd d0 5e 4c 3d
       -0.063518815 -0.05127023 -0.07166381 0.049895108
000010 aa 99 09 bd 02 d9 ad bd 1c a1 0a bd 56 63 c7 bc
       -0.03359381 -0.084886566 -0.033845052 -0.02433936
000020 aa 00 39 bc cc 47 3e bd 24 c8 40 3d b6 cf 16 3d
       -0.011291662 -0.04645519 0.04706587 0.036819182
000030 d9 08 48 3d 5b 26 8f 3d f9 90 2a 3c f0 6c 5f 3d
       0.048836563 0.069897376 0.010410541 0.05454725
000040 10 4f e4 bb ab f7 7c bd 23 09 d0 3c 42 65 80 3d
       -0.006967433 -0.061759632 0.025394982 0.062693134
000050 16 d2 e2 bb 6a 68 45 bd ed 10 de 3b 85 4e 46 3d
       -0.006922017 -0.04819528 0.00677692 0.048414726
000060 b4 89 f7 3c 25 fe 99 bc 7f 60 39 3d 40 3d 82 bd
       0.03021703 -0.018797943 0.04525804 -0.06359339
000070 9d 8a 9b 3d 7a a4 d2 bc b5 54 94 3d 1e 9f 33 3d
       0.07594798 -0.025713194 0.07242719 0.043852918
000080 dd 88 95 3d 6c cd 86 bd 40 af a0 3d a7 eb 38 3d
       0.07301495 -0.0658215 0.07845926 0.04514661
000090 f5 d0 87 bd 7a 4b 8e bd fc bc a0 bd 62 20 b7 3d
       -0.06631652 -0.0694799 -0.07848546 0.089417234
0000a0 3e 04 28 3d 86 1f 95 bd 17 71 57 bc 85 cc 85 bd
       0.04101967 -0.07281403 -0.013149521 -0.0653315
0000b0 e3 37 57 bd 85 61 61 bc 1d 1d 7d bd ff a5 81 bb
       -0.052543532 -0.013756161 -0.061795343 -0.003956556
0000c0 1b 4e 21 bd 7f 73 a9 3b bf a9 4c bd ca 99 88 bd
       -0.039381128 0.005171239 -0.04996657 -0.06669958
0000d0 c1 f9 aa bd f0 1b 37 3c fe b6 a7 3b 67 97 ad 3c
       -0.08348418 0.011176094 0.00511825 0.021190358
0000e0 35 a0 03 bd 2c b7 a6 bd b5 1f a5 3c 6b 6d b7 3a
       -0.032135207 -0.08140406 0.02015672 0.0013994401
0000f0 b3 72 2f 3d 40 52 97 bc 37 3e 5f bd 46 6d ad bc
       0.042833995 -0.018471837 -0.054502692 -0.02117027
000100 ea 31 11 3d f6 b7 6e 3d 38 62 69 3c cb 60 fb 3c
       0.035447992 0.058280908 0.014244609 0.030685803
000110 e3 54 36 bd 0a 7b 4a bd 21 02 38 bd 29 96 75 3c
       -0.044514548 -0.049433745 -0.044923905 0.014989414
000120 fe 7d be 3b d2 af 5f 3d d7 e1 9e 3d 16 9b af 3d
       0.0058133593 0.054611035 0.07757919 0.08574502
000130 e0 ee fd 3c a8 4e 85 bd 26 8b 26 bd 9a 70 5e bd
       0.030997694 -0.06509143 -0.040660046 -0.054306604
000140 0a e6 f8 bb 04 8c f7 3b 9a 7f 21 bc 93 6f 56 bd
       -0.007595782 0.007554533 -0.009857083 -0.0523525
000150 13 2a 36 3d 53 28 a9 3d d6 8e cf 3c f1 a6 00 3c
       0.04447372 0.08259644 0.025336664 0.007852302
000160 8d c2 fe bc 55 12 6a bd 29 f1 31 3d c2 fe 3f 3d
       -0.031098628 -0.05714639 0.04344288 0.046873815
000170 d0 03 ad bd 68 99 13 3d a4 27 4f bd 1e 35 78 3d
       -0.08447993 0.03603497 -0.050574914 0.06059753
000180 24 01 1a bd 0c 54 b2 bd b1 16 a8 bd 17 53 72 bd
       -0.037598744 -0.08707437 -0.08207453 -0.059161272
000190 02 2d 8b bd 1e 0b 9a 3d 3a b5 85 bd 3e e8 aa 3b
       -0.06795694 0.07521652 -0.06528707 0.0052156737
0001a0 b4 dd 9f bc ca df 0e bd 5f 29 f5 3c e5 94 04 bd
       -0.019514896 -0.03488139 0.029926954 -0.03236856
0001b0 be 1b 97 bd 2e ea da 3c 7b 23 82 3c 77 e3 1e 3d
       -0.07378338 0.026722994 0.015886059 0.038791146
0001c0 b9 f5 d4 bc 61 6f aa bd 7f 8a e4 3b 43 e9 1c bd
       -0.025996076 -0.08322025 0.006974518 -0.038308393
0001d0 6f 76 2c 3d 34 9a 30 3d e9 82 5f bd 7a b9 ff 3a
       0.042105135 0.04311581 -0.054568205 0.0019510232
0001e0 98 81 37 3d 0e f4 af 3d 3a e5 0b 3d a9 eb 66 bd
       0.044801325 0.085914716 0.034154154 -0.056377087
0001f0 cb da 2c 3d ef ac a3 bd d3 92 c2 3a 4b 2a 1b 3d
       0.042200845 -0.07991969 0.0014844782 0.03788213
000200 9b 16 a8 3c cc 84 84 bc 89 01 9f 3d 80 e9 96 bd
       0.020518592 -0.016176604 0.07763965 -0.07368755
000210 e5 09 f7 3c 34 84 4a bd 20 a5 b3 bd 44 aa 31 3c
       0.030156085 -0.049442485 -0.087717295 0.010843817
000220 02 74 16 3c a1 4e 3f bd a9 3f a1 3d 73 1d 71 bd
       0.009182932 -0.046705846 0.0787347 -0.058865976
000230 02 e8 53 bd 26 44 b6 bd ae cb 75 3d a0 20 95 bd
       -0.05173493 -0.08899717 0.060008697 -0.07281613
000240 9d 1d 08 3d 1e f7 1b 3c bb 6e 52 3d 62 77 77 3c
       0.033231366 0.009519367 0.051375132 0.015104147
000250 4d 2a 32 bd 1e d2 76 3d 12 de 2b 3d cf c4 a9 3d
       -0.043497372 0.060258977 0.04195983 0.082894914
000260 09 4e c9 bc 36 6c d0 bc 7f a7 03 3d b9 06 c9 bc
       -0.024573343 -0.025442224 0.03214216 -0.024539338
000270 e6 b2 1a 3c a6 75 88 bc d6 8b 9a 3d c3 0b e0 bb
       0.009442067 -0.016657662 0.07546203 -0.0068373396
000280 6b 3f 93 bd b0 bd 26 3d 4a 5b b1 bb 2a 32 85 bd
       -0.071898304 0.040708244 -0.005412494 -0.06503709
000290 ea 67 34 3d 16 df 50 bc dd d9 b0 3d b2 34 05 bd
       0.044044413 -0.0127485 0.08635304 -0.032520957
0002a0 65 6f 12 bd 8c df 61 bd 58 79 03 bd e2 02 a0 3d
       -0.035750765 -0.05514483 -0.032098144 0.0781305
0002b0 4b fd e2 3c 46 bd 51 3d 8a 47 15 bc a8 fa 51 bc
       0.02770867 0.051205896 -0.0091112945 -0.012816109
0002c0 43 7d e1 3a 72 e4 fc bc ba 0a be 3c 5a 26 04 3d
       0.0017203469 -0.03087065 0.023198474 0.032263137
0002d0 2d 6f af bd 08 61 3f 3d 13 7a 81 3d 23 7f 8d 3b
       -0.08566127 0.046723396 0.06322112 0.0043181344
0002e0 a4 fa 56 3d 2a 1e cb 3c 67 41 00 bd a7 af 98 bd
       0.052485123 0.024794657 -0.031312373 -0.07455378
0002f0 d8 69 1d 3d ec 50 43 bd 79 80 2b 3d 75 10 aa 3d
       0.03843102 -0.047684595 0.041870568 0.0830392
000300 5c 57 38 bd 37 5a 0a bd df 86 6a bd b5 af be 3c
       -0.045005187 -0.03377744 -0.05725753 0.023277143
000310 80 ab d8 3c 55 99 0f 3c 69 3d a4 3c eb 77 1c 3b
       0.026448965 0.008764585 0.020048814 0.0023875188
000320 3a bd 60 bc f6 6e 10 bd dc ac 8c bd cc 5e c0 bb
       -0.01371699 -0.03526207 -0.06868908 -0.0058706757
000330 d5 c2 91 bd 91 cb 76 bd 4d 88 c6 bc da 61 4f 3c
       -0.071172394 -0.06025273 -0.024234915 0.012657607
000340 ab 4f 90 3d b2 ed 45 3d 32 db 4c bd db 3f a7 3c
       0.070464455 0.048322387 -0.05001373 0.02041619
000350 b2 63 05 3c a9 0a 4e bd 98 a9 a0 3c 93 b7 33 bd
       0.008141445 -0.050303135 0.019612119 -0.043876242
000360 73 54 a1 bd 35 03 d2 3c f4 3c 89 bc be 84 24 3c
       -0.078774355 0.025636295 -0.016752698 0.010041414
000370 6e b6 31 3d f3 5b 17 3d cf 75 9b 3d 5f e3 51 bd
       0.04338687 0.036952924 0.075908296 -0.05124223
000380 c1 78 8a 3c dc a5 ab 3d 7a 00 9b bd 63 af 1c bd
       0.016903283 0.083812445 -0.0756845 -0.0382532
000390 bf 87 c2 bc c0 9b b2 3c 82 d7 9d bd 1b d6 27 3d
       -0.02374637 0.021802783 -0.077071205 0.04097567
0003a0 5a 02 e3 bc b7 29 df bc ac 38 f5 bc 65 22 a7 bb
       -0.027711082 -0.02724157 -0.02993425 -0.0051005357
0003b0 41 94 b6 bd 93 bd e9 bc 40 91 95 bc 31 46 57 3d
       -0.08914996 -0.028532779 -0.018257737 0.052557174
0003c0 31 94 bd bc 1d 6e 1b 3d a9 d2 32 3d 69 73 8d 3d
       -0.023141952 0.03794681 0.043657932 0.06906778
0003d0 69 6e 17 3d c1 17 5d 3d d2 a6 48 3d a3 50 fb 3c
       0.03697053 0.05397773 0.048987217 0.030678099
0003e0 b3 ea f1 3b b2 fc 88 3d 73 73 30 3d 8f 23 f9 3c
       0.0073827147 0.06688823 0.04307885 0.030412463
0003f0 54 f1 7f bd 38 ce 61 3b f7 7d f1 bb 10 f7 19 bd
       -0.062486008 0.0034455191 -0.0073697525 -0.037589133

critic.2.bias f4 [128]
000000 b5 60 85 3d d0 09 e7 3c 59 75 62 3d c2 48 b0 bc
       0.06512586 0.028202921 0.055287693 -0.021519069
000010 c4 67 20 bd a3 63 aa bd 4b 9e 81 bd 3f ef 1e 3d
       -0.03916146 -0.083197854 -0.0632902 0.03880238
000020 05 1d 36 3d 44 dc aa 3d 1a f8 a7 bc a2 c1 22 bd
       0.04446127 0.083427936 -0.020504046 -0.039735444
000030 5e cd 7b bd 22 5d 59 3d 76 af c9 3c 55 05 fe 3b
       -0.06147515 0.053067334 0.0246198 0.0077521005
000040 e4 e3 dc bb 69 7d 99 bd c2 2c 70 3d 97 70 37 3d
       -0.006741034 -0.07494623 0.058636434 0.04478511
000050 cb 89 ad bc fb d1 3f ba 99 ad d8 3b fd a9 a8 bd
       -0.021183869 -0.00073173613 0.0066124913 -0.08235548
000060 d8 30 dc bc 6f 60 04 bd f7 3d 84 3c 81 76 71 bd
       -0.02687876 -0.03231853 0.016142828 -0.058950905
000070 e0 f8 82 bd 38 d9 8d bd d6 d3 ad 3d 7d b0 ad bd
       -0.063951254 -0.06926197 0.0848767 -0.08480928
000080 34 1e ac 3d f1 4e b7 bb 9b 75 c9 bc ae b4 5e 3d
       0.08404198 -0.0055941273 -0.024592211 0.05437153
000090 bf fa b1 bd be 7a 7f 3d 11 24 76 bd ec b8 da bc
       -0.08690404 0.062372915 -0.06009299 -0.026699506
0000a0 f6 7d ad 3d 38 0d 84 3d 7f ad 43 bc 96 1b 9b bd
       0.08471291 0.06447834 -0.01194322 -0.07573621
0000b0 90 9b 9d bd 51 f8 0e 3d 2a bc ab bb 72 8c 4f 3d
       -0.07695687 0.03490478 -0.0052409368 0.05067105
0000c0 7a a4 b6 bc a9 79 8e 3d 52 eb ab bd 10 31 98 bd
       -0.022295225 0.069567986 -0.08394493 -0.07431233
0000d0 7d 5a 85 3c 7a c6 99 bd 08 70 23 3d c2 ad 81 3d
       0.0162785 -0.075085595 0.039901763 0.0633197
0000e0 16 7f 32 3d 9a a9 8a bd c8 aa 37 3d 66 5f ad 3d
       0.04357823 -0.0677063 0.044840604 0.084654614
0000f0 92 0f 90 bc 77 cd 74 bc e1 e4 06 3b 9f 7c b1 3c
       -0.01758555 -0.014941565 0.00205832 0.02166587
000100 be 2e 99 3c 12 21 ac bd 23 a5 b4 bd 18 69 91 bc
       0.018699046 -0.08404745 -0.0882056 -0.017750308
000110 d6 25 88 3d 1d 6e 29 bd ca b4 ee bc bc 2f f9 3b
       0.06647842 -0.041364778 -0.029138941 0.0076045673
000120 21 9d 5e 3d 98 84 1d bd ab f8 88 3d 76 eb 9c bd
       0.05434907 -0.03845653 0.06688055 -0.07662098
000130 30 f5 ba 3c 50 07 66 bd d9 4e a3 bd ea 58 50 3d
       0.022821993 -0.056159317 -0.07974023 0.050866045
000140 4d 58 91 3d ca 6b 86 bd 77 9c 33 3d ea f6 d4 bc
       0.0709692 -0.06563528 0.04385039 -0.025996644
000150 7a 77 0e 3d f9 a8 15 3d b6 64 cc 3c 13 31 7a 3d
       0.03478191 0.036538098 0.024950366 0.061081957
000160 76 bb 6b bd ea 6f ad bc cc 6d b2 3d bb 25 fd 3c
       -0.057551824 -0.021171529 0.08712348 0.03090178
000170 62 a7 08 bd 26 a4 1a 3d 70 7f 2b bd 61 54 8b bc
       -0.033362754 0.0377542 -0.04186958 -0.017008008
000180 8b b9 c8 3c 6d 77 4f bd 38 09 92 3d ae 5d 82 3d
       0.024502536 -0.050651003 0.071306646 0.06365524
000190 b7 3f af 3d a9 ce a2 bd ab 84 06 3d f8 5a db 3c
       0.085570745 -0.079495735 0.032841366 0.026776776
0001a0 cf 40 b6 bb e8 87 13 3c 13 de 2e bd 78 45 80 bd
       -0.005561925 0.009004571 -0.042692255 -0.0626325
0001b0 c4 0b 36 bc 7f 0b 44 bc 3e b3 d8 bb 92 4c 89 bd
       -0.011111204 -0.0119656315 -0.006613164 -0.06704058
0001c0 41 36 83 bd 2f 66 9a 3d 82 0a 48 bc 90 3b 77 bd
       -0.064068325 0.07539021 -0.0122095365 -0.060359538
0001d0 4f 13 4e 3d 8e 2a 4c bd fd 2a 18 3c c6 dc 6a bd
       0.050311383 -0.04984527 0.009287593 -0.057339452
0001e0 88 0f ae 3d f6 d1 ab bd a1 ec 52 3d d8 77 5d bd
       0.08499056 -0.08389656 0.0514952 -0.05406937
0001f0 94 af d5 3c 26 4e 6f 3b 83 5d b3 bd 73 6f 83 3d
       0.026084699 0.0036515086 -0.0875807 0.064177416
