genesis_tutorial/logs/drone-hovering/model_400.pt (torch, 474410 bytes, 36 tensors)

std f4 [4]
000000 34 f8 9b 3e c4 ee 97 3e bd 52 5b 3e a0 dc 9b 3e
       0.304628 0.2967435 0.21418281 0.3044176

actor.0.weight f4 [128, 17]
000000 9a 3c 28 3f 4b c6 16 bf 1f 2e 5d 3f 9e e7 a9 be
       0.6571747 -0.5889632 0.863985 -0.33184522
000010 70 bc 2d 3e 57 6a 2c 3c 7d 73 23 3f bd fa 60 be
       0.16966414 0.0105234 0.63848096 -0.21970649
000020 42 53 94 b9 f7 78 d8 3d 67 ac 78 bc 76 51 cf 3d
       -0.00028290792 0.10569947 -0.015177823 0.10122959
000030 c9 60 85 3d 38 9f a9 3c c6 64 eb bc e0 4a 08 3e
       0.06512601 0.020705804 -0.028734576 0.13309813
000040 6a c5 d9 3d ff ba 7e be 8d 06 9b bd 5a bc c1 bf
       0.10633357 -0.24876021 -0.07569609 -1.5135605
000050 45 77 2c 3e 1a 00 77 3e d1 75 02 bd e7 03 32 bd
       0.16842373 0.24121132 -0.03185064 -0.043460753
000060 cf ff a8 3d de 11 e9 3d 14 fe 15 3e 7d 3b f6 3d
       0.082519166 0.11380361 0.14647704 0.12023065
000070 8f 1f ff 3c f0 c7 6f 3c 7e 4d b5 bd 5d cf 88 bd
       0.031142978 0.014635071 -0.08852671 -0.066801764
000080 e0 84 51 be 9d 5c 08 be 88 95 0b 3e d8 8f 6f 3b
       -0.20460844 -0.13316579 0.1363126 0.0036554243
000090 f7 78 c7 3f b0 52 b2 bd ef dc ed 3d 36 72 e5 be
       1.558379 -0.08707178 0.11614405 -0.448137
0000a0 f4 f1 a9 bd a6 00 a4 be ef a8 34 3e 1f c2 e0 3d
       -0.08298102 -0.32031745 0.17642568 0.10974526
0000b0 ce b3 11 3d 79 b0 50 3d 23 68 1d be 9a 31 ba 3d
       0.035571866 0.050949547 -0.15371756 0.09091492
0000c0 7d e0 26 bd e2 be 64 be ec c4 62 3d b0 ab 73 3e
       -0.040741432 -0.22338441 0.05536358 0.23795962
0000d0 4f 34 1e be cd 50 ba 3f 0c 4d a0 3d aa c1 c9 be
       -0.15449642 1.4555908 0.078271955 -0.39405566
0000e0 71 11 2d bf e5 86 d7 be 41 a0 fb be f4 49 c1 bd
       -0.6760474 -0.42095104 -0.49145702 -0.094379336
0000f0 51 8a 32 be ea 75 1a be a0 6e bb be e2 d5 80 be
       -0.17435576 -0.15084043 -0.36607838 -0.2516318
000100 e2 8b 83 3c 63 56 8b bd 59 2b 35 3e ef ea 1b 3e
       0.016057912 -0.06803586 0.17692317 0.15226339
000110 b3 c2 89 3e 5c 51 24 bc 73 8d 9d 3e ab 4e 46 be
       0.26906356 -0.010029163 0.3077198 -0.19365947
000120 91 91 d1 3e 94 b4 d2 bd 9e d5 b3 3e dc 3d 72 be
       0.4093137 -0.10288349 0.35123914 -0.2365641
000130 38 09 4d 3e cc c7 17 be 83 83 5b be 29 f1 62 bd
       0.20023048 -0.1482231 -0.21436886 -0.05540577
000140 1a b2 e7 3d 65 3f 6d 3e 60 79 b5 3d 74 a1 c2 3d
       0.11313267 0.23168714 0.08861041 0.09503451
000150 4c 5d 6e 3c 40 6c d7 3c a5 9f ff be 72 23 c2 3e
       0.014548611 0.026296735 -0.49926487 0.37917668
000160 9b 0a 5b be 3e 74 00 3e fe 9c f3 bd ce 26 29 3e
       -0.21390764 0.12544343 -0.11895178 0.16518709
000170 bf fa 78 be 09 14 80 3d 12 5d 67 bd cf 31 29 be
       -0.24314402 0.062538214 -0.056485243 -0.16522907
000180 24 ab 19 39 5a 88 b8 3d 96 7f 98 3d 29 eb 65 3d
       0.00014654972 0.09010382 0.0744621 0.05613247
000190 08 0e a4 3d 6e 3c 4d 3e 84 6d 56 3f 75 50 b6 be
       0.08010489 0.20042583 0.8376086 -0.3560826
0001a0 fd fb a6 be fd 4a 19 be b9 6b 09 3e a7 78 0a bf
       -0.32614127 -0.14970012 0.13419999 -0.5409035
0001b0 2c e6 0e 3f 36 9b 96 be 21 a6 c4 be 5a 2c 92 bc
       0.55819964 -0.29415292 -0.38407996 -0.017843414
0001c0 b4 cc 72 bd d5 67 bb 3b 44 33 08 be e8 90 4c bd
       -0.05927725 0.005719165 -0.13300806 -0.04994288
0001d0 bd f3 9a bd f4 ec 1b 3d bc 11 8f 3c 67 62 ab be
       -0.07566021 0.038067773 0.017464511 -0.33473513
0001e0 e0 9c 0e bf d1 4b 21 bf 01 7b 46 3e c6 30 27 bf
       -0.5570812 -0.6300631 0.1938286 -0.653088
0001f0 e5 2c 95 3e 79 9c 92 be a3 7b 1f 3f fc ca 82 be
       0.29135814 -0.28635004 0.6229803 -0.2554549
000200 ea 50 fd bd c8 e5 5d 3d b8 22 0c 3e 22 10 a7 bd
       -0.12368949 0.054174215 0.13685119 -0.08157374
000210 68 c7 76 be f6 78 ae bc 13 58 d3 ba b7 1c 21 be
       -0.24099505 -0.021297913 -0.0016124271 -0.1573361
000220 a3 59 d4 3d 1d b7 65 3f 35 e2 a6 bf 04 b9 16 be
       0.10368659 0.89732534 -1.3037783 -0.14719015
000230 e5 f4 58 3f 31 79 3a bf 0b d4 03 3f 7e 88 86 be
       0.8474868 -0.72841173 0.51495427 -0.2627601
000240 32 2f 55 be d4 1f 03 3e b0 69 a1 3e 1c 23 aa bd
       -0.20818785 0.1280511 0.31525946 -0.08307478
000250 ce eb f3 bc 12 08 4d be 64 4d c1 3d bb ee 13 3d
       -0.029775526 -0.2002261 0.09438589 0.036116343
000260 d1 a4 23 bd 74 bd 6e 3f f4 6b 2e 3f 7e fc 1a bf
       -0.039952103 0.9325783 0.68133473 -0.6054152
000270 3e bd b9 3c 00 e4 87 3e bf be 90 bf da 4d 5b be
       0.022673246 0.26541138 -1.1308211 -0.21416417
000280 d4 d8 13 bf f4 f3 f7 bd 80 e8 a3 be ba 1e 54 3d
       -0.5775273 -0.12107077 -0.3201332 0.051787116
000290 e2 6a c2 be b4 27 77 3e 6d b1 5a 3b 30 69 e7 bd
       -0.3797217 0.2413624 0.0033369914 -0.1129936
0002a0 e2 85 5d 3e df 4a ea 3c 57 62 9f be 34 eb c4 b9
       0.21633103 0.028600154 -0.31129715 -0.00037559273
0002b0 4b 05 18 40 27 a8 8e be b9 e6 87 3c b7 26 d7 bd
       2.375323 -0.27862665 0.01658951 -0.10505431
0002c0 b2 c9 da 3d 43 ad 93 3d d6 32 0d 3e d1 f1 e9 be
       0.106830016 0.072107814 0.13788924 -0.45692304
0002d0 c0 c9 53 3d 42 99 6b bc c4 33 07 3e 89 75 75 bd
       0.051706076 -0.014379801 0.13203341 -0.059926543
0002e0 82 7b a1 3d 85 29 5f 3d 22 58 d7 3d c3 6e bf be
       0.07884885 0.054482955 0.10514857 -0.37389192
0002f0 f6 c6 51 3e 59 f0 a7 bf 2e 95 db 3d bc 18 26 3e
       0.20486054 -1.3120223 0.10721813 0.16220373
000300 e0 2e 35 3f 17 4e 0f 3d 13 04 0d 3d 7a 50 0c 3e
       0.7077465 0.03498658 0.034427714 0.13702574
000310 dc 97 18 3c 46 08 4c 3d c7 88 26 3d b2 87 55 bd
       0.00931355 0.049812578 0.040657785 -0.052131362
000320 b1 c4 f6 3d 7d 09 ac bd 90 ed 43 be 54 2d b0 bd
       0.12049235 -0.08400247 -0.19133592 -0.08602396
000330 ba e7 3c 3f 09 34 17 3f e4 7c e1 bf 97 a3 45 3e
       0.73791087 0.59063774 -1.7616239 0.19300686
000340 b6 6f 5c 3e e5 59 11 3e 5e a4 e8 bb ba 8a d5 be
       0.2152699 0.14194448 -0.007099672 -0.41707402
000350 d6 30 2c 3e 93 6f 01 bd 7e ee 5d 3d 44 ee bf 3d
       0.16815504 -0.031600546 0.054182522 0.093716174
000360 5a 77 be 3d c2 f0 8d bc 88 08 d8 bd 99 33 4a bd
       0.09300108 -0.017326716 -0.10548502 -0.049365614
000370 09 bb 72 3c 3f 20 36 3f ab 18 47 3f 04 c1 1c c0
       0.0148151005 0.71142954 0.77772015 -2.4492807
000380 45 f0 34 3c 02 a3 4f 3e c6 82 6b 3d 2b 50 68 bd
       0.011043613 0.20277026 0.057497762 -0.05671708
000390 04 9f 77 3d 5d f5 3b 3e 31 75 e0 3e 0e 80 ae bb
       0.060454383 0.18355317 0.4383941 -0.005325324
0003a0 59 d5 11 3d fb 1b c4 bd 46 03 28 be a0 cd 02 bd
       0.035603855 -0.09575649 -0.16407499 -0.03193438
0003b0 13 26 a7 3d a7 be 29 3d 19 ec 12 bf 73 8c a8 be
       0.08161559 0.041441586 -0.57391506 -0.32919654
0003c0 01 2d 2d 3f e8 91 2e 3d d9 10 dc 3d 13 88 7f 3f
       0.67646796 0.042619616 0.10745401 0.9981701
0003d0 17 33 06 3d 45 6c 5d 3f 17 3c 44 be 57 86 ce bd
       0.032763567 0.8649333 -0.19163547 -0.10084217
0003e0 c5 76 cb 3d fa 35 3b 3c 79 8a 9d 3d bc 12 ac bd
       0.09934763 0.011426443 0.07692427 -0.08402011
0003f0 24 90 e1 bc 5f 01 b2 bd a6 12 84 bd 7a ef 71 bf
       -0.027534552 -0.08691668 -0.064488694 -0.9450604

actor.0.bias f4 [128]
000000 6e e7 db 3c f1 62 16 3e f0 ff 2f 3e 57 da 0b be
       0.026843753 0.1468618 0.17187476 -0.13657509
000010 26 25 1b be f1 5f c9 bd 6a 1c ac 3d fa 38 0b 3e
       -0.1515089 -0.098327525 0.08403857 0.13595954
000020 9d 14 44 3e e5 71 85 bd fb 5a 44 3d 67 0c ba 3c
       0.19148488 -0.06515864 0.04793833 0.022710992
000030 0b 0c 0c 3d ad 4e f6 3d b0 bb 4e 3d 46 17 c0 3b
       0.034191173 0.12026725 0.05047196 0.0058621494
000040 f1 ae 8f bd d8 45 96 3d 67 a9 fd bc 37 f4 31 be
       -0.07015789 0.073375404 -0.030964566 -0.17378317
000050 03 a2 5c bd 3e 2c 30 be e5 b5 ab 3d 20 99 20 be
       -0.053865444 -0.17204377 0.08384303 -0.15683413
000060 bf 43 a4 bd e0 96 45 3d 03 d9 14 3e 92 2f a5 bd
       -0.08020734 0.04823959 0.14535908 -0.08065714
000070 76 f4 01 be 99 bc 1f 3e 0d 0c ba 3d 61 b0 04 be
       -0.1269091 0.15599288 0.0908433 -0.12957908
000080 a0 e3 db bc 63 cc 31 be 50 7f cc bc da 50 86 3d
       -0.026841938 -0.17363124 -0.024963051 0.0655839
000090 e4 f8 12 3d 41 f8 7a 3e a6 1c 06 3e 17 8d 81 bc
       0.03588189 0.24508764 0.13096866 -0.015814347
0000a0 97 89 5d be b7 d7 36 bc eb 6b 16 bd 57 31 8b bc
       -0.21634518 -0.011159829 -0.036724012 -0.0169913
0000b0 69 32 d7 3b b7 8a 10 3e ea b1 df bd 0d d5 04 be
       0.0065672887 0.14115416 -0.10922606 -0.12971897
0000c0 26 59 04 3e e7 0a 10 3e 22 1c 30 3c 5d 05 8d bc
       0.12924632 0.14066659 0.010748895 -0.017214471
0000d0 7e fe 13 3d b6 2b 85 bc 35 d8 1f be 06 c5 24 bd
       0.036131375 -0.016256195 -0.1560982 -0.04022696
0000e0 59 27 01 3e 17 e4 04 3d 76 94 58 be 7e 17 11 3d
       0.12612666 0.032444086 -0.21150383 0.035422795
0000f0 01 80 cd 3c 94 f0 3e bd 96 36 6a bd b1 c2 b7 bb
       0.025085451 -0.046616152 -0.057180963 -0.005607926
000100 00 9f c8 bc 75 2c 71 bd 38 0e 0b be ef 94 6d 3d
       -0.02448988 -0.05888029 -0.13579643 0.058003362
000110 7b d1 36 be 9a 6f 85 3d 39 b1 49 be e5 73 a5 bb
       -0.17853348 0.06515427 -0.19696511 -0.005049216
000120 33 35 44 3c 5c f2 16 be 9a eb a3 bd 82 5d 72 be
       0.011975574 -0.1474089 -0.08003922 -0.23668483
000130 31 be 59 3c 15 4c 65 be 4d 75 e3 3c 30 10 27 be
       0.013289974 -0.22392304 0.027765894 -0.16314769
000140 fb cd 18 bd 03 91 5d bd 7c 40 1c 3e 4b e9 a8 3d
       -0.037305813 -0.054093372 0.15258974 0.08247622
000150 bb 2f a8 3d 99 a9 b7 3d 9d 6b 4c be ea a1 2b be
       0.08212229 0.08967895 -0.19962926 -0.16760984
000160 9b 83 da 3c fd ed 4d 3e b7 84 30 be b8 6f 76 3e
       0.026674083 0.20110317 -0.17238127 0.24066055
000170 87 f5 58 3c 7d ff d4 3b 49 8b ee 3d 75 80 dd bd
       0.013242132 0.006500183 0.1164766 -0.10815517
000180 99 39 57 3c 2a 5d 05 bc 5f f2 bc bd b4 d2 6a 3e
       0.013136291 -0.008139888 -0.09225916 0.2293194
000190 c3 57 9b 3d 2f 1c ae bd 6e 64 18 3e 9e c9 83 3d
       0.075850986 -0.08501469 0.14882061 0.0643494
0001a0 66 89 93 bd e4 a3 fc bd 51 57 53 3d 7d 05 2c be
       -0.07203941 -0.12335947 0.051596943 -0.16798969
0001b0 b5 f0 26 bd fc 69 b5 bc bb cd 1d be c3 cf 24 be
       -0.0407569 -0.022145264 -0.15410511 -0.1609488
0001c0 0b e3 d2 bd 84 d9 04 3e 1e 6d 7a 3c 85 d9 84 3c
       -0.10297211 0.129736 0.015284805 0.016217003
0001d0 cc e1 b5 3d f6 4e 8d bd d1 96 ff 3c f7 0b 9d bd
       0.08880958 -0.06899826 0.031199845 -0.07668298
0001e0 26 97 03 3e 2a 25 ef 3c 9d 0a 04 3e 6e 87 da bd
       0.12850627 0.029192526 0.12894674 -0.106703624
0001f0 dd bf e6 bd 45 cb be 3d 16 09 fb bd 00 0c de 3d
       -0.11267064 0.09316114 -0.122575924 0.108421326

actor.2.weight f4 [128, 128]
000000 24 fe 27 3d 64 98 86 3d 72 46 4e 3c 95 d2 07 bc
       0.04101385 0.06572035 0.012590038 -0.008289953
000010 f2 f1 dc 3a fa 60 f9 bb 9f 43 71 3c 2c 07 4a 3d
       0.0016856773 -0.0076104375 0.014725595 0.049323246
000020 d9 e7 c3 bc b1 a6 50 3c 42 68 21 bd ae 4f 47 bc
       -0.023914265 0.012735055 -0.03940607 -0.012164993
000030 a3 67 62 bd d1 f2 4a b9 74 0c 96 bd eb 73 69 bd
       -0.055274617 -0.00019354677 -0.07326594 -0.056995314
000040 50 3a e2 3c a6 f1 d1 3c bc f7 93 ba 9b e6 38 be
       0.027615696 0.025627922 -0.001128904 -0.18056719
000050 e6 fa 7d bd 6b f0 bc 3c 32 59 6a 3c 32 cb 02 3c
       -0.062006854 0.023063859 0.014303492 0.007983016
000060 a3 0c a7 3a bc c6 ca 3c de 1d f3 3c 23 90 ba 3c
       0.0012744855 0.024752967 0.029677328 0.022773808
000070 7b 6f 44 bd d2 36 8f bd 1c 8c 45 3d ac a9 2b 3d
       -0.04795788 -0.06992878 0.04822932 0.04190986
000080 84 b3 be bd 46 7d fc 3a 00 ca b3 bc 5c 03 f0 3c
       -0.09311584 0.0019263409 -0.021946907 0.029298477
000090 71 36 da 3c a4 71 4d 3d 14 e4 de bc 8e ba a1 3d
       0.026637288 0.050157204 -0.027208365 0.078969106
0000a0 97 58 4e bd 47 dc c3 bc ad 74 19 3d d6 3a 57 3d
       -0.050377455 -0.023908747 0.037464786 0.052546345
0000b0 b6 3e 62 3d 38 54 13 3d c7 df dc bb 44 20 85 bb
       0.055235587 0.03596899 -0.0067405435 -0.0040626843
0000c0 b1 ef c8 bc 19 54 92 bb aa b2 eb bc 1f dc 25 3d
       -0.024528356 -0.0044655916 -0.028771717 0.040493127
0000d0 29 61 78 bd 8b ff c6 3d 80 b3 a3 bd ec 7f c1 3d
       -0.060639534 0.0971671 -0.07993221 0.09448227
0000e0 7a a8 81 bd 4b 29 22 bc 05 5b bd 3d fb ca 59 3d
       -0.063309625 -0.00989754 0.09245876 0.053172093
0000f0 a0 98 39 3d 8c 04 9d 3d 26 af 99 bd d6 d6 80 bd
       0.04531157 0.07666883 -0.0750411 -0.06290977
000100 ef 7b 18 bc e8 ee 3e 3d e1 83 94 bb 6d 64 03 bd
       -0.009306892 0.046614558 -0.0045323228 -0.032078195
000110 2b d2 f2 ba 84 e9 83 3d 6c 3b 3d 3d a4 2a e7 3c
       -0.001852577 0.06441024 0.046199247 0.028218575
000120 4f b3 fe 3c 93 fb da bc 74 98 49 bb 40 1d 89 3b
       0.03109136 -0.026731288 -0.0030761035 0.004184395
000130 99 62 78 3d 59 46 16 3d e4 81 2f 3c 8d a2 ba bd
       0.060640905 0.036688183 0.010712121 -0.09113035
000140 b7 89 0c be b1 3d 3e 3d 8b 68 7c 3d 54 c7 39 3d
       -0.13724409 0.046445552 0.061623137 0.04535611
000150 71 ea dc bb 31 85 ad bd 12 9e 87 3b 18 2d 9a 3d
       -0.006741815 -0.0847267 0.0041387165 0.07528132
000160 3f 71 97 bd e6 68 81 3d cb 3f 1c bd 70 9e 85 bd
       -0.07394647 0.06318836 -0.038146775 -0.0652436
000170 b8 d6 a6 bd a5 12 37 3d 0d fd 21 3c 1b 24 51 3d
       -0.08146423 0.044695515 0.009886992 0.051059823
000180 ce 4b e0 3d 5c e9 fd 3c 27 4f 7a 3d e5 1e ab bc
       0.109519586 0.030995063 0.06111064 -0.020888755
000190 d7 3d 2f bd 20 1f ad bc f4 df dd 3c 88 93 81 3c
       -0.042783584 -0.021133006 0.027084328 0.015817419
0001a0 66 d7 1f bc a6 9c f0 3c b1 44 88 bd a3 2d 86 3d
       -0.009755945 0.02937157 -0.06653727 0.06551673
0001b0 08 dc 3f bd 3a ff 0d bd 20 11 b2 3c fe b9 02 bd
       -0.046840698 -0.03466723 0.021736681 -0.031915657
0001c0 7f c1 3d bd bd 58 1d 3c 1e bd 40 3c 32 9c 50 3d
       -0.04632711 0.009603676 0.011763839 0.05093021
0001d0 3f 59 1b 3d 99 57 8c 3d 4e f5 9f 3d e6 a6 8e bd
       0.03792691 0.068526454 0.0781046 -0.06965427
0001e0 a9 1d b2 bd 0d 97 e1 bc aa c3 40 bd 08 48 60 3c
       -0.086970635 -0.027537847 -0.0470616 0.013689049
0001f0 45 53 e8 bc 80 66 ab 3c d7 8e 0a bd cb b3 06 bc
       -0.028360019 0.0209229 -0.03382763 -0.008221577
000200 cb 2e 38 bd a0 b9 84 3c 8b 72 2b bd 60 1c 5d 3d
       -0.0449665 0.016201794 -0.041857284 0.05398214
000210 e6 97 33 3d 12 d5 57 3c d6 40 86 3d 97 85 9e 3c
       0.043846034 0.0131733585 0.06555335 0.01935081
000220 77 38 18 bd fb 6d 20 bd 38 20 bb bd 7e f8 e1 3b
       -0.037163224 -0.039167386 -0.091370046 0.0068960777
000230 e5 e1 91 bd 42 64 e0 3c 45 09 ad bc 70 31 34 3d
       -0.07123164 0.027391557 -0.021122584 0.04399246
000240 7e 5a 0f 3d d2 64 80 3b 11 a0 04 3d 63 89 86 3d
       0.03499841 0.0039182687 0.032379214 0.06569173
000250 15 5c a8 3c 97 cc b7 bd 49 76 d8 bc a4 4a ab 3b
       0.02055172 -0.08974569 -0.02642359 0.0052274037
000260 3f a6 9b 3d 1f 26 66 bd f4 e8 bb 3d eb 75 ce bc
       0.07600068 -0.0561887 0.09175292 -0.025202712
000270 7f 2a 12 3e 91 aa 60 bb 75 f7 f2 3c 17 e4 3a 3d
       0.14274023 -0.0034281353 0.029659012 0.04562768
000280 9a ed 0a 3d 23 f4 a6 bd 32 8a 35 3b ae ee 3b bd
       0.033918 -0.08152034 0.002770078 -0.04588192
000290 18 7b ea bd 83 d9 bc bc b9 a0 73 3c 9f cc 50 bc
       -0.114492595 -0.023052936 0.014869862 -0.012744098
0002a0 7d 4f b3 bb c1 66 14 3d 7e 64 18 3d ba af 84 3c
       -0.005472122 0.036230806 0.03720521 0.016197074
0002b0 5c 42 c6 37 0c 13 8b 3c 1c 7b 19 3d c0 87 19 bd
       2.363434e-05 0.016976856 0.037470922 -0.037482977
0002c0 b2 2d 5d 3a 03 b5 fc 3c 9d 62 41 bd 18 71 2d 3d
       0.000843729 0.030848032 -0.047213186 0.042344183
0002d0 d9 90 31 bd 64 be a8 bc 6d 8b 15 3d ec 2b c5 3d
       -0.043351028 -0.020598598 0.03650992 0.09627518
0002e0 87 1f 50 3d d8 78 a4 bc f8 b5 a2 3d d0 e2 6a 3d
       0.050811317 -0.020077154 0.07944864 0.05734521
0002f0 15 d8 cb bc cd fb 7d bc 87 14 3e bd bd 66 bd 3b
       -0.02488331 -0.0155019285 -0.046406295 0.0057800696
000300 b7 c9 f2 bc 40 b3 f2 3b 4b 5e da bc 2f 0a 36 bd
       -0.0296372 0.007406622 -0.02665629 -0.044443306
000310 7a e7 cd bc 1e 0e 13 3d d3 f7 b4 3c 2f 5a 4b bd
       -0.02513479 0.035902135 0.022090828 -0.049646553
000320 41 55 35 bd 9a 00 b8 bc a2 52 42 3d 08 74 99 3d
       -0.044270758 -0.022461224 0.047442086 0.07492834
000330 c0 17 7e 3d 84 b0 de bc 2f 55 76 bd 22 d9 23 bd
       0.06203437 -0.027183779 -0.06013983 -0.040001996
000340 95 ee 95 bd 71 2d fe bc 96 97 b1 3b 2c a0 95 bd
       -0.073208965 -0.031027528 0.005419682 -0.07305941
000350 36 fd 7b bc 04 78 45 3c e5 b3 1a bc 57 89 71 bd
       -0.015380194 0.01205254 -0.009442304 -0.058968868
000360 43 79 0c bd 6a 20 63 3d 95 25 c5 bc f8 8c 89 bd
       -0.03429533 0.055450834 -0.024065772 -0.06716341
000370 0a fd 78 bd 37 33 9e bd 91 e9 97 bc 1a 16 fd bb
       -0.06078819 -0.07724612 -0.01854399 -0.007723582
000380 18 47 ac 3c 6b 3e 95 bc 9f 4d 81 bb a7 83 dc 3d
       0.021029994 -0.01821824 -0.0039460207 0.10767298
000390 c8 63 81 3c 12 3c e9 bc f3 b3 96 bc ef 9e 62 bd
       0.01579465 -0.028471027 -0.018396353 -0.055327352
0003a0 07 7a 38 bd 61 12 e1 bb a9 40 81 3c ff 2c a1 bd
       -0.04503825 -0.006868646 0.015777903 -0.078699104
0003b0 84 61 95 3b de 88 58 3d 33 04 93 bd 1c 35 4f bd
       0.004558744 0.0528649 -0.07178535 -0.05058776
0003c0 26 c8 66 bb 78 9f bb 3a ed 23 dd 3c 9f ab 7e bb
       -0.0035214513 0.0014314493 0.02699467 -0.0038859618
0003d0 87 61 8b 3d 24 a8 a1 bd c0 24 23 3d 20 0f f1 ba
       0.06805711 -0.078933984 0.03982997 -0.0018391348
0003e0 2d a5 92 bd 07 8a 44 bd 5e 20 2e bc cb 1d 8f bd
       -0.07160411 -0.047983196 -0.010627834 -0.069881044
0003f0 86 1f e8 bd cb 7a cc 3d 48 6c 54 3d c9 d4 c7 3c
       -0.113341376 0.099843584 0.051861078 0.024393456

actor.2.bias f4 [128]
000000 e7 41 61 3d 2e 7d d3 bb 04 24 f6 be 47 c2 1b bd
       0.05499449 -0.0064541316 -0.48074353 -0.038027074
000010 2f c5 cb 3d 66 f1 ca bd bc 1a 99 bd 4c 33 fa bc
       0.09949719 -0.09909324 -0.07475802 -0.030542038
000020 99 9c 54 3d 42 f6 45 bc df f1 2f 3d e8 7e 4c bd
       0.051907156 -0.012082638 0.042955276 -0.049925715
000030 aa bc 9d bc dd c0 2a 3d 57 a4 c2 bc c9 55 84 3c
       -0.019255001 0.041687835 -0.023760004 0.016154187
000040 d3 67 23 3c fd 4d 63 3d db 35 18 3c 83 00 b3 3d
       0.009973484 0.055494297 0.009290184 0.08740332
000050 0a 3f 5c 3d 65 c2 f1 bb 55 07 60 3a 43 fa 92 3c
       0.053771056 -0.00737791 0.00085460144 0.0179416
000060 89 f3 b3 3c 47 6e 02 3d 12 66 20 bf 2b 34 40 3d
       0.021966713 0.03184345 -0.62655747 0.04692475
000070 c4 d4 c5 bd b5 bd 85 bd 77 cc e9 3e 60 c5 87 be
       -0.096597224 -0.06530324 0.45663807 -0.26517773
000080 8c 21 82 bd 8c 41 f8 3d 0f 71 8b 3d 1a f7 52 3d
       -0.06354055 0.12121877 0.068086736 0.051505186
000090 0a 24 39 bc 02 f7 9c bd 7b ea 03 bc 09 1c 7a 3d
       -0.011300096 -0.076643005 -0.00805151 0.061061893
0000a0 24 a4 ab bd 4a d6 12 bd 39 4a 25 3e 4f d4 79 3d
       -0.08380917 -0.035848893 0.16141595 0.06099349
0000b0 72 12 f0 3c 27 bc e7 be b7 4a fc bd 57 a2 23 3e
       0.02930567 -0.45260736 -0.12318938 0.15979896
0000c0 a8 4e f9 bc 6e f7 10 bb da 20 89 3b 3c 68 2f 3d
       -0.030433014 -0.0022120136 0.0041848244 0.042824015
0000d0 01 bd 64 bd 31 17 6c 3d 54 e7 48 3d 37 33 5e 3c
       -0.05584431 0.057639305 0.049048737 0.013562015
0000e0 c8 1d 25 bd 18 a5 00 bc bb 3b 91 bc a1 eb 44 3d
       -0.040311605 -0.007851861 -0.017728677 0.048076276
0000f0 d9 f3 6c 3d c7 e3 b2 bd 8a b8 85 3d 8f 55 2e bd
       0.05784974 -0.08734851 0.06529339 -0.042562064
000100 90 ff dc bd c8 4a 53 bd fa 4d 3c 3f 10 a7 03 bd
       -0.10790932 -0.05158499 0.7355648 -0.032141745
000110 46 f2 da bc 80 5e 68 3d 3d 12 fa bd fa 5e a4 bd
       -0.026726853 0.056730747 -0.1221051 -0.08025928
000120 c2 bb 9c 3d 94 63 af ba a9 9f 47 3d 35 e7 c9 bc
       0.076529995 -0.0013381117 0.04873625 -0.02464638
000130 bf b3 4d 3e 85 cb c9 3d f4 8f 7d 3c e5 1a 75 bd
       0.20088099 0.098532714 0.015476216 -0.0598401
000140 96 1f 75 3c 1d a9 49 3d 91 bd ca ba 2b 96 0e bc
       0.014961144 0.049233545 -0.0015467872 -0.008702795
000150 1d 29 31 be 28 fb 4d 3c 8c 23 87 3e d3 e1 53 3b
       -0.1730084 0.012572087 0.26394308 0.0032330647
000160 32 3e 6a 3d f8 1c 86 bd 77 4f bf 3c 56 c7 53 3d
       0.05718822 -0.06548494 0.023353321 0.051703773
000170 6b 2e 75 3d 3a 76 e6 bd 07 6e 85 3c c4 55 d1 bc
       0.05985872 -0.11253019 0.016287817 -0.025553592
000180 a8 c3 c0 3c 80 d3 04 3d f3 fa 22 bd 87 ea 04 be
       0.023530796 0.032428265 -0.039790105 -0.1298009
000190 5d af 1b bc 9c 7a 62 bd 0a b5 98 bd 9f 17 53 bd
       -0.009502259 -0.05529271 -0.074564055 -0.0515362
0001a0 ce 09 9e bd a0 9c 4d 3c e3 4a 08 3d a4 52 4b be
       -0.07716714 0.012549549 0.033274543 -0.19855744
0001b0 7e 6b ce bc 22 11 96 bc 09 82 57 3d 9d 20 41 3d
       -0.02519774 -0.018318716 0.052614246 0.047150243
0001c0 bf 7c da bd ca b2 59 bc c1 30 82 bd 5a 9d 0c 3e
       -0.10668325 -0.013287256 -0.06356955 0.137319
0001d0 02 3b b9 3d 38 cf b4 be 5c 6f 08 bc 3b 89 75 bd
       0.09044458 -0.35314345 -0.008327331 -0.059945326
0001e0 2b 7b 57 3c 85 73 25 bd e8 6e 48 be 96 d8 56 3d
       0.013151924 -0.04039337 -0.19573557 0.052452646
0001f0 05 7d 31 bd c8 0c 18 3c 17 1f a5 3d 28 29 f2 ba
       -0.04333212 0.009280391 0.080625705 -0.00184754

actor.4.weight f4 [4, 128]
000000 52 c8 85 bb 6d 47 29 bb c9 13 2b bc ed e0 2d ba
       -0.004082718 -0.0025829927 -0.010441729 -0.0006632943
000010 d5 0b 07 3a 4f 9e 8c bb 89 e5 1f 3b 1b d1 ca 3b
       0.00051516044 -0.004291333 0.0024398288 0.006189478
000020 b3 63 a9 3b 2c 14 b2 bc c0 99 bd ba bb 36 1a bb
       0.005169356 -0.021738134 -0.0014465377 -0.0023531157
000030 77 d7 c7 3a 22 db fc ba 70 64 27 3b 97 64 71 3a
       0.0015246709 -0.0019291381 0.0025542043 0.00092084095
000040 d6 20 2a 3b 90 f5 b5 ba d4 d8 31 bb bb 66 0b 3a
       0.0025959513 -0.0013882387 -0.0027137296 0.0005317737
000050 46 92 4f 3b e6 18 8b bb 57 e5 88 3a 7f 7a 8a 39
       0.003167288 -0.0042449115 0.0010444325 0.00026412678
000060 4d 45 93 ba fd 30 a8 bb 2a 5f 04 bd b5 15 05 3b
       -0.0011235863 -0.005132793 -0.032317318 0.0020307128
000070 a5 4a 7c 3c ac 2c 01 38 84 dc d3 3b 25 c6 09 be
       0.015398656 3.07976e-05 0.0064654965 -0.13454492
000080 27 87 b4 ba e1 f2 13 3c d0 91 1f bb 6a 46 a9 bb
       -0.0013773189 0.009030075 -0.0024348386 -0.0051658647
000090 02 2d 3a 3b 3b 32 8b 3b 4a 89 3e 3e ee 19 f5 b7
       0.0028408174 0.0042479313 0.18607059 -2.921835e-05
0000a0 42 8c 52 b9 a6 96 b8 3b 4c 27 08 3d 1a 59 60 ba
       -0.00020079411 0.005633193 0.0332406 -0.0008558199
0000b0 cc f9 a2 3b 71 fd 9c bd 1a 35 2e be 68 92 86 3c
       0.0049736258 -0.076655276 -0.17012444 0.016427234
0000c0 19 7e 7c bd 61 41 39 3c 4c ce 6c bb 1e 4f cb bb
       -0.061643694 0.011307091 -0.0036133705 -0.0062045
0000d0 76 36 81 bd b3 53 f8 39 4c 05 8e bb 77 1f bc 3a
       -0.06309216 0.00047364607 -0.0043341275 0.0014352639
0000e0 2b 81 91 bb 11 2f e2 39 89 d1 88 3a a7 25 81 3b
       -0.004440447 0.00043141146 0.0010438423 0.003941256
0000f0 2e 09 5b bb 53 47 8c 3d ea 65 db 39 0e af 36 3a
       -0.003342222 0.068495415 0.00041846867 0.0006968834
000100 40 52 a7 bd 5a 0d c4 bd 5b 3a 84 3e d1 67 4c 3e
       -0.08169985 -0.09572859 0.25825772 0.19961478
000110 ee 43 e8 bb d9 9b 5c 3b 48 a4 a6 bc f1 71 f1 3b
       -0.007088176 0.0033662228 -0.020342007 0.007368319
000120 7e da 4b bb 53 77 2b 3b e3 3b 25 3b 5a ea 16 bb
       -0.0031105573 0.0026163652 0.0025212697 -0.0023027868
000130 bf 05 42 bd 9e 09 5c bc 18 7a 2b 39 fa 44 f2 3a
       -0.04736876 -0.013430027 0.00016353314 0.0018483691
000140 fb 68 6c 3b 23 69 c2 3b b9 f6 1c 3c 9f 03 40 bb
       0.0036073315 0.0059329434 0.009580308 -0.0029299033
000150 4b 44 7e 3c fd 35 86 3a 98 af c9 3d f3 f5 eb ba
       0.015519212 0.0010239478 0.09847945 -0.0018002376
000160 86 aa ec bd 82 c3 f8 39 98 dd bd ba 19 73 bc 3d
       -0.11555962 0.0004744791 -0.0014485596 0.09201641
000170 3f 63 52 bb de ec bb 3a a8 96 c9 39 f2 7d 32 b9
       -0.0032102612 0.001433756 0.00038449955 -0.00017022321
000180 4e 45 52 3b 6f f9 db 39 57 61 4d 3a f2 89 fc bd
       0.0032084766 0.00041956778 0.0007834634 -0.123309985
000190 26 5c ae 39 98 3a 20 3b 67 85 95 3a b4 0b c3 38
       0.00033256522 0.0024448987 0.0011407555 9.3005045e-05
0001a0 cf 0d b3 3b 76 47 88 bb 2e 83 a7 bb 06 17 55 3d
       0.0054642926 -0.0041589094 -0.0051120734 0.05202391
0001b0 ce b2 b4 ba 3c 51 16 39 fe 06 05 3e c1 ae d3 ba
       -0.0013786198 0.00014335377 0.12990949 -0.0016150103
0001c0 7d eb da ba e0 3b 06 3a ef c7 58 bb 6c e2 1c 3c
       -0.0016702261 0.00051206164 -0.0033078154 0.009575468
0001d0 42 16 7c ba 32 ec d8 bd e3 58 75 bb 1c 08 b5 b8
       -0.0009616354 -0.10591926 -0.0037437014 -8.632263e-05
0001e0 90 02 0b b9 67 92 fa ba 86 2f b6 bc 5b c9 86 bb
       -0.00013257028 -0.0019117118 -0.022239458 -0.004113359
0001f0 7f 22 5c bb 47 aa 58 3b b8 e3 74 3c 2c 3b 4c bb
       -0.0033589897 0.0033060478 0.0149468705 -0.00311632
000200 2c c2 31 3b 3c 6b 49 38 39 8c 06 be 13 3d 53 3b
       0.0027123792 4.8022004e-05 -0.13139428 0.0032232448
000210 f8 92 6d bb 94 2e 33 bb 4a 2f cf bb e7 c9 e8 bb
       -0.003625093 -0.0027340995 -0.006322776 -0.0071041468
000220 7b da 21 bb 80 5f 59 ba 56 70 b2 b9 b9 54 f4 3a
       -0.0024696875 -0.00082921237 -0.00034034502 0.0018640972
000230 01 58 93 ba e8 cf 44 3a ba d3 b4 3a b2 7e 30 3a
       -0.0011241437 0.0007507787 0.001379601 0.0006732746
000240 76 31 0c 3b 90 65 9b 3b 5c 64 5c b9 2e a1 dd 3a
       0.0021391786 0.004742332 -0.00021018222 0.0016908997
000250 09 0c 1b bb 2f ab 83 3b ae a8 fb b9 1f 6b 86 3a
       -0.0023658297 0.0040182094 -0.00048000127 0.0010255313
000260 07 c0 2c 3b 97 6c 8b ba 24 e8 75 3d a2 0d eb ba
       0.0026359574 -0.0010637221 0.06003584 -0.001793314
000270 31 4a 28 bd 92 d3 04 bb 48 28 00 be 7b 48 1c be
       -0.04108638 -0.0020267707 -0.12515366 -0.15262024
000280 af e1 1d 3b f1 27 d7 3d 54 08 1d 3a 17 81 f5 3c
       0.0024090817 0.10505665 0.00059903157 0.029968781
000290 0a d6 1c ba 38 90 83 3a 7f a5 13 be 45 0f c0 39
       -0.0005982822 0.0010037487 -0.144186 0.0003663247
0002a0 34 d4 94 b8 48 16 b4 bc f7 fd 77 3d 8f 37 90 3a
       -7.096716e-05 -0.02198328 0.060544934 0.0011002886
0002b0 b5 3e 95 3a e7 a4 f5 bc b0 b9 c3 3d 93 94 81 bd
       0.0011386486 -0.029985858 0.095569015 -0.063271664
0002c0 36 8d 38 be 66 f0 08 3a e0 38 68 3a d1 4d 18 3a
       -0.18022618 0.00052238104 0.00088585727 0.00058099354
0002d0 ab d9 aa 3c fa 33 cb b8 82 1d 35 ba 3d 7c 2d bb
       0.020855745 -9.689476e-05 -0.0006908999 -0.0026471757
0002e0 f6 bb 37 b9 8a 32 be ba b9 f4 86 3a c0 34 15 bb
       -0.00017522261 -0.0014510911 0.0010296322 -0.0022767037
0002f0 36 83 b1 ba e4 ef 9b bd 02 9c 4d bb dc ef 4a bb
       -0.0013543132 -0.07614115 -0.0031373505 -0.0030965721
000300 45 64 09 bd f3 8c 03 be c5 5c 97 3e 58 a1 98 3d
       -0.03354289 -0.12846737 0.29562965 0.07452649
000310 06 60 95 3a 52 4b 9f ba 5d b7 00 be f3 10 01 bc
       0.0011396415 -0.0012153185 -0.12569948 -0.007877576
000320 15 2a 87 3b d5 78 79 bb 1c 30 8b 3a 12 d0 cb 38
       0.0041248896 -0.0038066406 0.0010619196 9.7185504e-05
000330 e9 a0 a4 3d 78 01 56 bc f0 24 cf ba 5c a5 ee 3a
       0.08038504 -0.013061874 -0.0015803855 0.001820724
000340 de 94 cc b9 56 26 be b9 86 93 e3 ba 96 0c 40 ba
       -0.00039020827 -0.00036268187 -0.0017362691 -0.0007326094
000350 64 2b 2e 3e d1 38 35 bb e6 09 ce 39 8c 42 ed ba
       0.1700874 -0.0027652273 0.00039298757 -0.0018101498
000360 ec dd 10 3d 36 11 45 bb 73 2b d1 3a 4b 28 88 3d
       0.03536789 -0.0030070073 0.0015958383 0.0664831
000370 9f 13 a4 3b e1 ef 2e bb e3 c3 c1 ba 40 a7 92 3a
       0.005007222 -0.0026693272 -0.001478311 0.001118876
000380 98 c2 b5 ba c1 e6 40 3a a6 45 ce ba 14 a6 6b bc
       -0.0013867198 0.0007358604 -0.001573731 -0.014382858
000390 a7 a5 b2 b9 9b cf 18 bb b5 79 75 3b d6 75 15 ba
       -0.00034074226 -0.0023317102 0.0037456576 -0.0005701458
0003a0 87 ce 94 bb e4 46 b8 3b 3b c2 65 ba 09 fa 52 bd
       -0.0045412215 0.005623685 -0.00087645993 -0.051507983
0003b0 6d 64 aa 3a ef e2 2f 39 08 0f 31 3d 9c da c4 ba
       0.00129999 0.0001677384 0.043227226 -0.0015018764
0003c0 d7 c7 80 3b 34 70 c6 ba 90 8c b7 ba 62 66 44 3b
       0.0039300728 -0.001513964 -0.0014003683 0.0029968251
0003d0 f9 e3 3d 3b 7e 4d 3c bd 12 fc 01 ba 67 a1 a0 ba
       0.0028974994 -0.04597234 -0.0004958521 -0.0012255133
0003e0 49 74 88 ba 2e 24 e5 ba 92 45 1a bd e9 c9 22 3b
       -0.0010410632 -0.0017482096 -0.037664004 0.0024839586
0003f0 9d 8b 9e 3a 93 60 87 ba db 7e 27 3e c7 a2 47 3a
       0.0012096051 -0.0010328464 0.16356985 0.0007615503

actor.4.bias f4 [4]
000000 fd 0e a7 3e 05 ef 93 3e a2 30 a6 3e c0 f8 9c 3e
       0.32628623 0.28893295 0.3245898 0.3065853

critic.0.weight f4 [128, 17]
000000 7a fe 33 3f eb 29 1c bf c5 9c 09 3e 26 16 4c 3e
       0.70310175 -0.6100146 0.13438709 0.19930324
000010 ae 6b 1c 3e 0a ca d6 be 0a c9 16 3e 91 6f 87 be
       0.15275452 -0.4195102 0.14725128 -0.26452306
000020 7a 21 51 3e 23 a9 e5 3c e6 35 94 bd 12 b5 c8 3d
       0.20422927 0.028034752 -0.07236843 0.098001614
000030 ef 17 1b 3d 84 7e a0 3d d8 dd 80 bd 13 b5 da bd
       0.03786462 0.07836631 -0.06292313 -0.106790684
000040 60 01 d1 bd 0d fa 96 be db bb 54 bc c6 f8 a2 be
       -0.102053404 -0.2948765 -0.012984241 -0.31830424
000050 90 b4 93 bd 58 29 05 3f 1e 2d ba 3e 4d 6a 01 be
       -0.07212174 0.5201621 0.36362547 -0.12638207
000060 19 0d b4 3e b0 05 c7 be 6a 5c 79 bd 88 31 0d bd
       0.35166243 -0.38871527 -0.06087915 -0.034471065
000070 94 33 39 be 5d 5a 56 3d 0d bb 72 3d 94 03 a7 3d
       -0.18086082 0.05233227 0.059260417 0.08154979
000080 c3 b9 be bd 82 3d fd 3c 92 52 87 be b0 b8 53 3e
       -0.09312775 0.030913118 -0.26430184 0.20675921
000090 85 42 4c 3f 88 d4 68 be 80 f4 77 be fc 5c cf 3c
       0.79789 -0.22737324 -0.24214363 0.025312893
0000a0 e7 be db 3d 0d 56 f4 3c b5 30 83 be 46 9f b4 bd
       0.10729771 0.029826188 -0.25623098 -0.088194415
0000b0 2a b5 92 3d 2b 1d bb bc 2d c0 ae bd d6 9b e8 3c
       0.071634606 -0.022841057 -0.08532748 0.02839462
0000c0 0a c5 b8 bd 69 3e be bd d2 04 35 bc af af 63 3d
       -0.09021957 -0.092892475 -0.0110485125 0.055587467
0000d0 9b ef d0 3e 8a 1d bd 3f e6 87 65 be b1 94 43 be
       0.40807804 1.477464 -0.22415122 -0.1909969
0000e0 23 6c 2d ba 29 1e 02 3d 62 57 30 be 59 c0 14 3e
       -0.000661554 0.031767044 -0.17220834 0.145265
0000f0 ec 62 05 be 87 ce b8 bd b8 3b 0a be 31 d1 bc bd
       -0.13026017 -0.09023767 -0.13499343 -0.092195876
000100 8c ae 80 3d 4e a3 30 bd 28 16 c5 3d ec 7e 9e 3d
       0.06283292 -0.04312449 0.096233666 0.07739052
000110 b0 03 95 3e 96 8f b5 3d b0 5a 7c bf 44 ff b1 3e
       0.29104376 0.088652775 -0.9857588 0.34765065
000120 2b 44 86 3e 17 f1 ee bd 37 c1 16 be af 49 64 3b
       0.26223883 -0.11667078 -0.14722143 0.0034833958
000130 d6 6f b1 be dc 03 5d 3e 1e 90 fd 3c d5 04 b8 bc
       -0.34655637 0.21583503 0.03095251 -0.022463242
000140 eb 34 94 3d 24 de 48 3c 8a 68 02 3e 9e c8 16 be
       0.07236656 0.012259994 0.12735191 -0.14724967
000150 46 eb 26 bc 99 0c ad bd bc 79 4b bf 7f cf 90 bf
       -0.0101879295 -0.084496684 -0.79482627 -1.1313323
000160 59 41 08 bd fd 57 cb 3e 4e 0e ec bd ee 92 7e 3e
       -0.033265445 0.39715567 -0.11526166 0.24860737
000170 e0 84 a7 3d 38 41 19 3e 30 54 5b 3d cc 1c 9e 3d
       0.08179641 0.14966285 0.053547084 0.07720336
000180 3d fb 14 3e 09 71 0b 3f b8 58 10 be e0 05 01 be
       0.14548965 0.5446935 -0.14096344 -0.12599897
000190 56 f3 b9 bd c8 bd dc bd 52 ff e6 3e ec 26 10 3f
       -0.09079616 -0.107783854 0.4511667 0.5630939
0001a0 d7 76 1f bf 46 b4 dd 3d 3a 31 da 3d 24 3d ac be
       -0.6229071 0.108254 0.106539205 -0.33640397
0001b0 02 a2 95 3d 3a 5a 6e bc 82 ab b3 3a dd ab 90 3e
       0.07306291 -0.014547879 0.001370773 0.2825612
0001c0 ad c5 42 be 82 b4 3a 3e 51 fc aa b9 00 14 9b 3e
       -0.1902072 0.18232921 -0.00032612917 0.30288696
0001d0 94 21 16 3d c8 aa 18 be 74 a9 b3 bc ab bf f6 be
       0.036653116 -0.14908898 -0.021931387 -0.48193106
0001e0 5c 07 8f bf a6 9f 7e 3e e8 32 5a 3e c9 63 37 3e
       -1.1174121 0.24865589 0.21308482 0.17909159
0001f0 59 12 ff bd bc a8 b7 3d 92 39 ba bd f4 15 b8 3d
       -0.124546714 0.089677304 -0.09093012 0.08988562
000200 4e 02 0b be 16 83 75 be 2e d1 85 be f0 3a cc bc
       -0.13575098 -0.23975787 -0.26136154 -0.024930447
000210 b5 6c ea 3c c4 b7 11 bd bf 81 9b bd 98 a0 92 bc
       0.028616289 -0.035575643 -0.075931065 -0.017898843
000220 b5 e1 1b bf e1 b1 c6 3e c8 09 2f 3f 7e 8b c2 3c
       -0.60891277 0.38807586 0.683743 0.023748156
000230 85 a5 be bd 6d 5b 24 bf 7b 9f a1 3e 86 27 c0 be
       -0.09308914 -0.64202005 0.31566986 -0.37530154
000240 65 2a 84 3c c2 63 50 3e 8c 19 95 be 76 67 27 3e
       0.016133497 0.20350555 -0.29121053 0.16348061
000250 08 7b 42 be d6 e6 61 bd 5f 01 78 3d 6f c6 ca 3d
       -0.18992245 -0.055151783 0.060548183 0.099011295
000260 c2 91 06 bd 83 a7 f4 3e 5e 99 ba 3d 32 fc 8a bf
       -0.03285385 0.4778405 0.09111284 -1.0858214
000270 ed bd 0a 3d ef 6f 6a bc 64 6e b5 bd c9 b7 7b 3e
       0.033872534 -0.014308914 -0.08858946 0.24581827
000280 bc 21 92 3e e7 60 5c bc 12 15 7f 3d 2b 37 06 3e
       0.28541362 -0.013450838 0.062275954 0.13106982
000290 fd 9b d1 bd 4d ab 0b 3d e2 6c fe 3b 58 fc 88 bd
       -0.102348305 0.034098912 0.0077644447 -0.06688756
0002a0 24 f0 3b bc f8 4b a6 bd 04 dd 10 3f 84 28 ff 3e
       -0.011470828 -0.08119959 0.56587243 0.49835598
0002b0 2c 93 95 be af 5b 68 bc 06 51 c0 be 05 b1 19 bf
       -0.29213846 -0.014182015 -0.37561816 -0.60035735
0002c0 be c0 22 3f dd ad 56 bd f7 cd 78 3d be 12 e0 bc
       0.6357535 -0.052411903 0.0607433 -0.027352687
0002d0 8d 0c 51 bc cf 2b 73 3e ad 16 33 be a1 9c a9 3d
       -0.01275934 0.2374718 -0.17489119 0.08281828
0002e0 af cc b7 3d 32 78 90 bd 45 69 6f bd c4 82 3e bf
       0.08974587 -0.070541754 -0.058450002 -0.7441828
0002f0 b6 fd 08 bc 97 2b e1 be bf a7 67 bd 5c d0 84 3c
       -0.008361271 -0.4397857 -0.05655646 0.016212635
000300 01 5a a5 bd e9 ed 4e 3e d7 69 3a be 22 7d 16 be
       -0.080738075 0.20207943 -0.18204437 -0.14696172
000310 d0 82 78 3c a6 82 ee 3d e4 ca 93 bc 27 41 c3 3d
       0.015167907 0.11646013 -0.018041082 0.09533911
000320 ba 94 78 3d 67 9e 75 3c 34 10 ec 3d 8d 7f 84 bd
       0.06068871 0.014991379 0.11526528 -0.06469641
000330 a1 25 d5 bd 4e e4 d7 bc 41 0e 90 be e8 e6 c2 3e
       -0.10407568 -0.026353981 -0.28135875 0.38066792
000340 ab 2d 48 3e 13 bc 43 bf 06 9d 44 3e cc 8b fd be
       0.19548671 -0.76458853 0.19200525 -0.4952072
000350 04 38 fa bd 88 32 1c 3e d2 ee db 3c df e4 0c bd
       -0.122177154 0.15253651 0.026847277 -0.034397956
000360 6e 06 18 be 6f 77 3f 3d bc 07 a8 bc f2 67 95 3c
       -0.14846203 0.04674476 -0.0205115 0.018238042
000370 00 ff 8e 3b 64 dc 12 3f 20 f5 52 3f a4 49 0a 3f
       0.0043638945 0.5736754 0.8240528 0.54018617
000380 63 bb 68 be 33 30 e6 bd 28 17 c0 3e e4 74 26 bd
       -0.22727732 -0.11239662 0.37517667 -0.04063882
000390 fc a3 2f bf 68 84 14 be 15 c9 76 be 6d 45 2c be
       -0.68609595 -0.14503634 -0.24100144 -0.16823359
0003a0 26 d9 cb 3e 46 72 b0 be f1 f1 37 3e b1 bf 4e 3d
       0.3981411 -0.34462184 0.17963387 0.05047578
0003b0 a5 11 46 3e 4e ef 2f 3c 77 ea bc 3e 35 16 bc 3e
       0.19342668 0.010738207 0.36897632 0.36735693
0003c0 e1 78 bc bf 46 4e c7 3e c6 ac c3 3d 00 01 c8 bd
       -1.4724389 0.38926905 0.09554438 -0.09765816
0003d0 8b 25 14 be f9 32 e8 3d a7 27 84 bd 09 f4 c0 3b
       -0.14467447 0.11337847 -0.064528756 0.0058884663
0003e0 63 91 48 be c1 3a 65 bd 8e 0a bb 3c b3 f2 d0 bc
       -0.1958671 -0.055964235 0.022832181 -0.025506353
0003f0 77 f1 98 bd b7 5a d8 bd b3 2a 7b bd c6 ed 3d 3f
       -0.07467931 -0.105641775 -0.061320018 0.7419094

critic.0.bias f4 [128]
000000 74 49 17 3d 47 d1 93 be 4d 8f cd 3e b3 67 6a 3d
       0.036935285 -0.28870603 0.40148392 0.0572278
000010 e9 f4 8b be c7 a6 c9 be b3 f8 44 be 25 75 f6 3d
       -0.2733529 -0.39385054 -0.19235496 0.12034062
000020 bc 51 a1 bd 51 7a 06 bf cc fb c4 bb 6c 06 01 be
       -0.07876918 -0.5253039 -0.006011462 -0.12600106
000030 a4 8c 5d be 8c fa bd 3c 56 cb a6 bd 14 7e 80 bd
       -0.21635681 0.02319076 -0.08144252 -0.062740475
000040 06 c9 8b 3e 21 3f 2f be a9 4d 39 3d 11 6b 65 be
       0.27301806 -0.17113926 0.045240078 -0.22404124
000050 ae 6c 6e be 18 0d 9b be fd 38 80 3e ba 03 59 be
       -0.23283646 -0.30283427 0.2504348 -0.21192828
000060 e0 f1 e2 3e f1 b0 0b bf 39 5d dc 3e 84 6c 99 be
       0.4432516 -0.54566866 0.43039873 -0.29965603
000070 af 26 c0 bd 3b bd 2a 3e ca ea fa 3e 86 19 87 3e
       -0.09382378 0.16673748 0.49007255 0.2638666
000080 34 ad 5a be ae 08 a0 bd f2 bd 80 be fd 1b 87 3e
       -0.21355134 -0.078141555 -0.25144917 0.2638854
000090 6e 93 a5 3e b2 ed 32 be 28 b1 d5 3e 34 19 f2 bd
       0.32339042 -0.17473486 0.41736722 -0.11821213
0000a0 eb 10 24 bc f8 4e fd 3d b6 c8 0d 3e 3f bc 1d 3e
       -0.010013799 0.12368578 0.13846096 0.15403841
0000b0 02 a0 e6 be 24 d0 9e 3e f3 06 95 be 0b 15 ba be
       -0.4504395 0.31018174 -0.29106864 -0.3634418
0000c0 62 2c a2 3e c0 5a 36 be 32 5b ca 3e 87 2c 16 3e
       0.31674486 -0.17808056 0.39522702 0.14665423
0000d0 49 cc b8 3d 01 0d 0a be 14 b3 a8 3e 96 73 2c bd
       0.09023339 -0.13481523 0.32949126 -0.04210242
0000e0 a7 68 e2 be 15 21 fa 3e 9a 41 12 be 4a 45 6b bd
       -0.44220468 0.48853365 -0.14282838 -0.057439126
0000f0 7b fe 67 3e 3e f5 0b 3e 87 6d 67 be 34 02 92 be
       0.2265567 0.13667771 -0.22600375 -0.28517306
000100 b0 90 55 be cf ec 1d be 78 f4 97 bd ec 13 2b be
       -0.20855975 -0.15422367 -0.074196756 -0.16706818
000110 04 32 66 be eb 43 9d 3e cf 77 51 3e 95 62 20 be
       -0.22480017 0.3071588 0.2045586 -0.15662606
000120 ba 10 e5 bd 8c da b0 bd 77 ce b3 3d 38 c9 1d 3e
       -0.11184831 -0.086354345 0.087796144 0.1540879
000130 23 73 28 3e 5b 5c d9 bd 7d 24 7b 3e e4 a0 2c be
       0.16450171 -0.106133185 0.24525638 -0.1685825
000140 b2 fb b4 be 87 6d 93 3d 39 c3 90 3e fc 04 d3 3e
       -0.35348278 0.07198625 0.28273943 0.4121474
000150 5d 9e 81 be 81 a9 98 3e 4d e9 0b be 9c f4 f0 3d
       -0.25316134 0.2981682 -0.13663216 0.117654055
000160 5f 0d 95 3b a6 3a 16 3e d8 2a 95 bd 8f 9b 7a 3e
       0.004548713 0.1467081 -0.072835624 0.24473403
000170 58 16 bf 3d 85 8a 0e 3d 91 c3 c5 be c6 b4 9c 3e
       0.093304336 0.03480007 -0.38625768 0.3060667
000180 d0 59 b1 3c df 3a 9f bd 7d 9d 17 3e 4a 62 98 3d
       0.021649271 -0.07774901 0.14806171 0.07440622
000190 f6 88 f0 3d b8 e6 b1 ba b3 29 95 bd 4c e6 85 be
       0.11744873 -0.0013572788 -0.07283344 -0.26152265
0001a0 d6 68 df 3e 2d 8c b7 be f1 42 29 3e c2 65 be 3d
       0.4363467 -0.35849133 0.16529442 0.092967525
0001b0 d6 15 05 bd 63 25 8b 3e 05 2b 8c 3d 63 c0 90 be
       -0.032491527 0.2717696 0.06844143 -0.2827178
0001c0 e2 8f fb 3d e2 12 87 be 54 57 82 be af 36 99 bd
       0.12283303 -0.26381594 -0.2545725 -0.07481133
0001d0 aa e4 d0 3d a4 c5 0d bd ad 41 d3 3c 54 e0 10 3e
       0.10199864 -0.034612313 0.025788153 0.14148074
0001e0 63 4e 99 3e 5d 48 a8 bd 7b 01 20 3e 18 e4 87 3d
       0.29942617 -0.08216927 0.15625565 0.06635302
0001f0 68 5a ba 3c c2 4b 6a 3e 66 5b 53 be 71 6b bc 3d
       0.022748187 0.22880462 -0.20640334 0.0920018

critic.2.weight f4 [128, 128]
000000 92 ad 71 3d 53 34 09 be dc 87 4e be 41 bf 5c 3e
       0.05900342 -0.13398866 -0.20169014 0.21557333
000010 cc 8c 95 be b2 a0 cf bc d9 1f 87 3e be 42 34 bd
       -0.29208982 -0.02534518 0.26391485 -0.044008963
000020 39 b5 c1 3e d4 e2 3f bd 35 b0 79 3e 9c 7d 59 3c
       0.37833574 -0.04684718 0.24383624 0.0132745765
000030 dd 45 0e 3e 4f b5 12 3f a0 eb d1 be d0 e5 45 3d
       0.13893838 0.57307905 -0.4100008 0.04831487
000040 0e 90 87 3c e8 4d 78 3d 5e 0c 59 be 98 d4 0a 3e
       0.016548183 0.060621172 -0.21196124 0.1355766
000050 dc fe 0a be 51 8c cc 3d 2c 39 a0 bd 1e a1 be 3d
       -0.13573784 0.09987701 -0.07823405 0.093080744
000060 24 9f 00 be 96 a8 a1 3d 63 84 ee 3d 12 38 82 3e
       -0.12560707 0.07893483 0.116463445 0.25433403
000070 03 42 b2 3c 65 bc bf be 96 42 05 3d bf 83 20 bb
       0.021759992 -0.3744842 0.032534204 -0.002449259
000080 89 eb 4f be 02 76 8f be 46 8d 1e 3e b1 44 99 be
       -0.20304693 -0.2801972 0.15483579 -0.2993522
000090 a5 1e 11 be c6 32 e4 bb 7f f0 65 bd 5b 3b 2d 3e
       -0.14171846 -0.0069640605 -0.056137558 0.16917174
0000a0 3a 0a 0d 3f 47 c9 0a bc 1b a5 72 be f5 59 8d 3e
       0.5509373 -0.00847084 -0.23695795 0.27607694
0000b0 f5 9f 5d 3c 9e f3 20 bd cd 16 a5 ba ad 03 ad 3c
       0.013526906 -0.03929483 -0.0012595296 0.021119917
0000c0 9c 83 06 be 9e c4 53 3e 40 4e 0d be 4d 7f 1a be
       -0.13136142 0.20680472 -0.13799381 -0.15087624
0000d0 e6 a0 35 3e c8 35 89 be 13 ee cc 3c b9 ad c3 be
       0.17737159 -0.26798844 0.025015866 -0.38218477
0000e0 05 cf 47 3d 43 8a 67 bd 56 74 1e be c0 c4 88 be
       0.048781414 -0.05652834 -0.15474066 -0.26712608
0000f0 c1 25 d2 bb 2c f0 91 bd 43 5a 88 3c ea 19 83 bb
       -0.006413192 -0.07125887 0.016644603 -0.004000892
000100 ca e6 ae 3c 27 57 a9 be 6a 7d 68 3e 39 20 9a 3d
       0.021350283 -0.33074304 0.22704092 0.07525677
000110 94 5f f2 bb 33 10 19 be 81 2b 7f bd 42 4f 97 3e
       -0.0073966477 -0.14947586 -0.062297348 0.29552656
000120 cc 79 e2 3e 09 10 50 be 29 14 4a 3e 83 72 ff bd
       0.4423355 -0.20318617 0.19734253 -0.12473013
000130 be c7 1f bd 22 c6 bb 3d 8b 6b d0 3d 5c 05 7a 3b
       -0.03900885 0.0916865 0.10176762 0.0038150167
000140 2c 9f 8b 3d 5b 87 9b 3e a5 13 d8 3d 2c 29 13 be
       0.06817469 0.30376706 0.10550622 -0.14371175
000150 46 2b 00 be a6 5b cf 3d fd 1a a5 be 7b 0d 3d be
       -0.12516508 0.101249024 -0.32247153 -0.18462174
000160 e0 5f 92 be 8e b9 89 be e8 9c 31 3d 4e 9c b1 bc
       -0.28588772 -0.2689938 0.043362528 -0.021680977
000170 71 0d 0e 3e 96 6e 82 3e 3c 57 4d bd bd c0 68 be
       0.13872315 0.25474995 -0.05013202 -0.22729774
000180 ab 86 cf 3e 10 d4 7d 3d 15 a3 8a bb 57 80 1b 3e
       0.4053243 0.061969817 -0.0042308667 0.15185677
000190 dd 51 07 3e 6f b1 63 be 33 4c 98 3d e5 0d b1 bb
       0.13214822 -0.22235654 0.07436409 -0.0054032677
0001a0 2c 40 f2 bc be 8d 33 be b8 83 2f be c6 35 d0 be
       -0.029571615 -0.17534539 -0.1714009 -0.40666026
0001b0 29 20 b3 be a4 7f d5 bd 8b 7d 9b be 3c 99 82 3e
       -0.34985474 -0.10424736 -0.3036922 0.25507534
0001c0 95 75 79 bd 47 9d 3c 3d 43 17 96 bd 70 3d 13 be
       -0.06090315 0.04604843 -0.073286556 -0.14378905
0001d0 eb 7f c4 3e eb 7e 2e be ed 60 bd bd 9c 0f 80 bc
       0.38378844 -0.17040603 -0.09247003 -0.015632443
0001e0 3e 75 52 bc 18 a8 11 3d 59 34 fd 3c 95 4c 18 3d
       -0.0128453355 0.035560697 0.03090875 0.03718241
0001f0 3c 32 08 bc 72 ac 88 be 75 99 5b 3e c0 4c a7 3d
       -0.008312758 -0.26694065 0.21445258 0.08168936
000200 d4 43 10 3e 72 1c b1 bd 53 a1 a1 3d 98 23 aa ba
       0.14088374 -0.08648004 0.07892098 -0.0012980578
000210 60 5c 82 bd 4d 21 bb 3d e9 60 c4 bd 64 a5 f2 3d
       -0.063652754 0.09137211 -0.09588797 0.11847952
000220 42 ef 62 3e 64 bf 86 bd d8 53 de 3c aa a4 af bd
       0.22161582 -0.065794736 0.02713959 -0.08576329
000230 c4 2e fc 3c eb e6 d5 bc ef fc ff bc 98 93 02 be
       0.030784018 -0.026111087 -0.031248538 -0.12751615
000240 ad fe 80 3b f4 cb 44 3c 3c 9e 04 3e f8 f5 5f bd
       0.0039366097 0.012011517 0.12950987 -0.054677933
000250 b3 6c 91 bd 11 26 16 3d ea 52 9c bc 83 a5 21 3e
       -0.07100811 0.036657397 -0.019082505 0.15785794
000260 88 83 b0 3b f4 c6 d7 ba 39 01 e3 3c a5 ab 92 bd
       0.0053867735 -0.0016462491 0.027710544 -0.07161645
000270 d2 59 f0 bd 03 92 07 be 31 6c 57 3d 20 83 b2 b9
       -0.11735882 -0.13239293 0.052593414 -0.000340485
000280 8f 4b 81 bd 65 47 47 be fd 4b 53 3c c6 26 6c bd
       -0.0631324 -0.19460829 0.012896535 -0.057654165
000290 b5 26 3d be 57 4d 9f 3d 7f 83 ea 3c 2e 4f 83 3d
       -0.18471797 0.07778423 0.028627155 0.06411587
0002a0 7f 4a f3 3d 61 d6 f1 3c 90 1d 3c be 6d 46 5a 3e
       0.118794434 0.02952117 -0.18370652 0.21315928
0002b0 fc 28 3a bd 45 da 8f 3d bf 20 c7 bc e7 44 40 3c
       -0.045449242 0.070240535 -0.024307607 0.011735178
0002c0 2c a3 9c bd 8d 37 c1 3d ae 11 41 bd f9 6e a6 3c
       -0.0764831 0.094344236 -0.047136 0.020316588
0002d0 5f ff 1a 3e 7d 0c 8d bd d7 6d 09 3e 58 ea 0a be
       0.15136479 -0.068871476 0.13420807 -0.13565958
0002e0 13 98 60 3c 40 e6 bb 3d 8f 61 10 be 9d 13 7e be
       0.013708132 0.09174776 -0.14099716 -0.2481217
0002f0 86 fa be bd f3 b8 a6 bd 2d cf 75 bd 4b 01 9a bb
       -0.09325127 -0.08140745 -0.06001203 -0.004699861
000300 86 3e c1 bd 1a 57 0a be 9c cf 9a bd ab c6 7c bd
       -0.094357535 -0.13509789 -0.075591296 -0.061712902
000310 27 3b b1 bd 95 b0 8b bd db 1e e8 3c 8a a7 c7 3c
       -0.086538605 -0.0682079 0.028335026 0.024371881
000320 5c dc 87 bd 2b 96 c5 bd d5 c2 1b 3d 52 29 a5 bd
       -0.06633827 -0.09647783 0.038027603 -0.08064522
000330 ba 1a b5 bb 88 dd 14 be 7c ee 22 3e f3 7a d6 3d
       -0.0055268677 -0.14537632 0.15911287 0.104726695
000340 72 70 4e bc af 2c b0 3c 78 ae bb bc cf 3d 06 3c
       -0.012600051 0.021505682 -0.022910342 0.008193447
000350 c1 c5 e7 bd 76 de eb bd a7 05 f5 bd ba 84 54 be
       -0.113170154 -0.115170404 -0.11963969 -0.20753756
000360 75 d4 85 be 47 6c 24 be 0f 42 47 bd ef ce 55 3d
       -0.26138654 -0.1605693 -0.048646983 0.0521993
000370 0a 25 87 bd f2 0c 64 3e fe b1 72 3d ac 16 d0 be
       -0.065988615 0.22270563 0.059251778 -0.40642297
000380 4d 7c 54 3e d6 91 14 3e 61 19 03 bb 84 87 19 3e
       0.20750542 0.14508757 -0.002000414 0.14993101
000390 53 16 c0 3d a5 6e 6d bd 58 72 a5 bd b3 2f 0b bb
       0.09379258 -0.057966847 -0.0807845 -0.0021238148
0003a0 fe 34 1a 3d 74 5b f2 bd be 77 3e be a3 12 8c be
       0.037648194 -0.118338495 -0.18600366 -0.2735797
0003b0 da bc 40 be 87 46 55 bd 3e 37 36 be 06 3c 30 3d
       -0.18822041 -0.052069213 -0.1779451 0.043025993
0003c0 f4 d3 48 3a 35 1b aa bd eb 72 97 bb 81 ff 91 3d
       0.0007660978 -0.083059706 -0.0046218536 0.07128812
0003d0 7d bd 75 3e 2c f6 ba bd 21 63 41 bd b7 34 03 3e
       0.23998065 -0.09128985 -0.047213677 0.12813078
0003e0 a9 8c 5d bd 9a 2c 00 bd 9a 43 5a 39 77 7d 38 bd
       -0.054089222 -0.031292535 0.00020815284 -0.045041528
0003f0 0e 1b b6 bc 64 8c ea bd 72 d7 e8 3d 77 da 8d 3d
       -0.022229698 -0.11452559 0.11369218 0.069264345

critic.2.bias f4 [128]
000000 34 5c 39 3e b5 df 49 3d 26 bc b8 3c 8f b0 14 bd
       0.18101579 0.04928561 0.022550654 -0.036301192
000010 43 ad b9 bc a3 21 87 3d eb ce 04 3e ab ec ef 3e
       -0.022665625 0.065982126 0.12969558 0.4686025
000020 03 2f 73 bc 73 95 88 bd 2b e5 10 3d 90 c7 9f bd
       -0.014842751 -0.0666913 0.0353748 -0.078017354
000030 7d cf 17 bd f3 71 58 3e c8 97 9e bc 51 08 bf bc
       -0.03706311 0.21137218 -0.019359484 -0.023319395
000040 de ae 92 bc 7a 6a 25 3d b9 bb ee bd 3f c9 3c bd
       -0.017905649 0.040384747 -0.11656899 -0.04609036
000050 95 1a f1 3d da fe f1 3c 86 01 74 bd 26 bb 48 3e
       0.11772648 0.029540468 -0.059571765 0.19602641
000060 4c d4 e1 3d d0 a6 de bd 5d 34 40 3e 5a dc e8 3d
       0.110268205 -0.10871661 0.18769975 0.11370154
000070 ff 6d fe bd c9 5f ab bb 29 60 2a bd 1e b1 0a bc
       -0.12423324 -0.0052299243 -0.04159561 -0.00846508
000080 0b ff 2d be 97 89 30 3e e9 49 69 3d a4 e4 1f be
       -0.16991822 0.17239986 0.05695525 -0.15614563
000090 67 f9 41 3e 7b f1 17 3c 9a 8f 7d 3d bf f2 51 3d
       0.18942796 0.009273882 0.061904527 0.05125689
0000a0 bf dc 92 bd f3 00 2f be b6 94 2d be 40 02 66 be
       -0.0717101 -0.17090206 -0.1695126 -0.22461796
0000b0 ef b2 00 bd f2 8e 6c 3e 39 44 1e bc db 9d 12 3d
       -0.031420644 0.23101404 -0.00965982 0.035795074
0000c0 09 c1 f2 be bb 76 1b be 29 b0 23 3e 50 7b 03 be
       -0.474129 -0.15182011 0.15985169 -0.12840009
0000d0 82 2e 53 bd ce 07 82 3d e8 c1 8f bd a5 cd 13 3d
       -0.051558025 0.06349145 -0.070194066 0.03608479
0000e0 34 61 4d 3d f9 ba 84 3d c1 07 c6 3c a0 86 c2 3d
       0.05014153 0.06480975 0.02417362 0.09498334
0000f0 a8 13 96 bd fa a1 d5 3c 55 dd 50 bd 12 43 31 bd
       -0.07327968 0.026078213 -0.05099233 -0.043276854
000100 8a 0e 4b 3e fe 2e eb bd 85 51 ec bd 54 31 79 bd
       0.19829765 -0.114835724 -0.11538986 -0.06083806
000110 30 69 11 be 5c 33 01 bd 55 d4 3f 3d a1 39 6c 3e
       -0.14200282 -0.03154312 0.046833355 0.23068859
000120 3f 47 47 3d e3 b9 7f 3d b1 f7 be bd 24 ef e9 3d
       0.04865193 0.062433135 -0.09324587 0.114225656
000130 f9 65 26 3e 6c bf 35 3d 05 08 a1 3e 9a 11 03 3e
       0.16249837 0.044372007 0.3145143 0.12799683
000140 d4 ae 9f bd 9d 75 13 3e fd 07 0c bc 9e 59 97 3d
       -0.07797018 0.14400335 -0.008546826 0.0739014
000150 6c 8c 3d bd 47 64 4c be e3 7a 87 bd 2c b0 2b 3e
       -0.046276495 -0.19960128 -0.06615236 0.16766423
000160 be a1 59 3e 71 8f e3 bd 2e ca 58 3d 4c 20 21 bd
       0.21253106 -0.11111344 0.05292719 -0.03933744
000170 7b 48 74 3e 93 e8 3d bd f8 17 24 be 52 81 f3 3c
       0.23855774 -0.04636438 -0.16024768 0.02972475
000180 a1 1f 23 3d 23 18 a8 bd 73 06 0b be af 20 a8 bb
       0.039825086 -0.08207729 -0.13576679 -0.0051308493
000190 41 84 41 be 48 78 9a bd 19 1d b9 3c a3 b3 7f 3d
       -0.18898107 -0.07542473 0.022596883 0.062427174
0001a0 47 8a a4 3d ca dd 85 3c 9b d2 e0 bd ea 60 6d 3e
       0.08034187 0.016341109 -0.1097767 0.23181501
0001b0 cc 21 e4 3d 5b 53 41 be 14 53 11 bc 8e 48 95 bc
       0.11139259 -0.18879454 -0.008869905 -0.018223073
0001c0 c7 a1 a9 bd 6f 43 3a bd 50 d6 dc bc 09 6a 8d 3c
       -0.0828281 -0.045474466 -0.02695766 0.017262476
0001d0 14 1a 60 3d 9e d0 9c bc 89 d5 62 bd e2 10 6f 3e
       0.05471237 -0.019142445 -0.055379424 0.23346284
0001e0 29 95 4d be 45 f4 82 bd cf 50 7f 3d 81 65 00 3e
       -0.20076431 -0.06394247 0.062332924 0.1253872
0001f0 7c f0 4c bd 4e bd 11 3e 6e 5c 32 be 7e 1c 48 3d
       -0.05003403 0.1423237 -0.17418072 0.048855297
