genesis_tutorial/logs/drone-hovering/model_300.pt (torch, 474410 bytes, 36 tensors)

std f4 [4]
0.41707787 0.4441167 0.29139224 0.46624017
00000000: 3b8b d53e 4463 e33e 5d31 953e 08b7 ee3e

actor.0.weight f4 [128, 17]
0.5165823 -0.38515094 0.49840537 -0.23464084 0.3289702 -0.29709694 0.7486071 -0.18231182
0.06631996 0.16534685 -0.03327926 0.12487514 -0.004236123 0.028412657 0.0024931466 0.13030468
0.14433849 -0.23216972 -0.10878549 -1.2132181 0.12640713 0.17367838 -0.027558029 -0.0033271466
-0.07356865 0.07427037 -0.028707689 0.058007702 0.033762936 0.030253312 -0.05554099 -0.081175305
-0.16407965 -0.13743567 0.14197764 0.022023004 1.1687492 -0.088817395 0.0092823785 -0.5664482
0.029511912 -0.42172635 0.17604248 0.018634995 -0.045234136 -0.009222259 -0.06136482 0.07600444
-0.06810938 -0.1799954 0.055713803 0.23386757 -0.09593384 1.1067188 0.06478489 -0.2967496
-0.57890344 -0.45535216 -0.48682937 -0.11853313 -0.10665212 0.01743195 -0.32495853 -0.22879669
-0.030848924 -0.10899927 0.14302942 0.14639379 0.15514463 0.028404437 0.11097813 -0.114533424
0.54131263 -0.049395356 0.4552338 -0.17274873 0.24967474 0.16607521 -0.12616083 -0.011434999
0.11215649 0.16756274 0.14782001 0.08802857 0.02539522 0.16322386 -0.2005872 0.14900836
-0.11758858 0.29067495 -0.16799882 0.46572268 -0.14075518 0.087748036 0.15679725 -0.14122868
0.089649916 0.08231072 -0.029818924 0.06955899 0.05312159 0.1868249 0.7270806 -0.26730084
-0.12677181 -0.10496502 0.3110062 -0.60721445 0.5052066 -0.40119773 -0.5281107 0.14783831
-0.12204718 0.098402984 -0.19759537 -0.05250771 -0.10717687 0.036576323 0.0075213984 -0.38888797
-0.27756152 -0.53260475 0.17686154 -0.6749437 0.27735874 -0.2895221 0.61574364 -0.26000813
-0.2940687 -0.024239665 0.17572425 -0.04619615 -0.19283065 -0.036874194 0.018099694 -0.20402391
0.09867623 0.70189804 -1.0555494 -0.15844774 0.8812831 -0.689843 0.5327565 -0.27375957
-0.14376716 0.37202936 0.28981903 -0.07908385 -0.09762527 -0.17614418 0.10251999 0.053831015
-0.046993162 0.75024384 0.49707717 -0.36378044 0.0014159535 0.32243565 -1.1056448 -0.304784
-0.6503912 -0.044640973 -0.16188179 0.14440672 -0.24979025 0.23259664 -0.008463261 -0.1259142
0.2212997 0.03660109 -0.25238454 0.100293264 1.8213916 -0.22047788 -0.027082235 -0.12623763
0.09790054 0.12425439 0.13985546 -0.3229937 0.09521982 -0.024593772 0.09739103 -0.068810195
0.08906607 0.023522288 0.10094911 -0.40984014 0.03172262 -1.1403067 0.08309558 0.0015132976
0.76295155 0.1256149 0.056639485 0.3112801 -0.0061899717 -0.012776136 -0.023014918 0.068817586
0.13937078 -0.0427089 -0.14493681 -0.021743359 0.6276533 0.39180198 -1.3785849 0.16340788
0.26643595 0.1453224 0.049504697 -0.38201773 0.30915284 -0.053719398 0.009220953 0.04134496
0.14317378 0.014570306 -0.08644295 0.010283398 0.05232953 0.5524052 0.50039214 -1.5820718
-0.058049344 0.25782543 0.059737574 -0.0396939 0.01452002 0.17510116 0.3511228 -0.0071542542
0.029535238 -0.10678969 -0.11994932 -0.037363052 0.117651194 0.024675857 -0.37744194 -0.214365
0.20638585 0.08650284 -0.09049854 0.9293969 -0.05986105 0.912029 -0.049413696 -0.44639826
-0.002401956 0.07120919 0.10884107 -0.11459111 0.009337925 -0.09855771 -0.054966535 -1.0100045
00000000: bd3e 043f 8132 c5be fd2e ff3e b045 70be
00000010: c86e a83e 171d 98be b7a4 3f3f f3af 3abe
00000020: c2d2 873d af50 293e d54f 08bd 8abe ff3d
00000030: 2dcf 8abb a9c1 e83c 0f64 233b 976e 053e
00000040: 78cd 133e e6bd 6dbe edca debd bb4a 9bbf
00000050: df70 013e bfd8 313e 60c1 e1bc 420c 5abb
00000060: 29ab 96bd 101b 983d 632c ebbc 7c99 6d3d
00000070: 014b 0a3d cbd5 f73c f37e 63bd 3d3f a6bd
00000080: 7f04 28be f0bb 0cbe 9662 113e 9669 b43c
00000090: 9399 953f e5e5 b5bd 1e15 183c c002 11bf
000000a0: f7c2 f13c 84ec d7be 7b44 343e 6ba8 983c
000000b0: 6e47 39bd f518 17bc ad59 7bbd 37a8 9b3d
000000c0: ee7c 8bbd b750 38be 2834 643d fb7a 6f3e
000000d0: f678 c4bd f6a8 8d3f f1ad 843d 90ef 97be
000000e0: 0433 14bf eb23 e9be b341 f9be 7fc1 f2bd
000000f0: 6d6c dabd 73cd 8e3c f760 a6be ae49 6abe
00000100: e2b6 fcbc 023b dfbd 4e76 123e 41e8 153e
00000110: 3cde 1e3e 6cb0 e83c 8048 e33d 8090 eabd
00000120: 7793 0a3f c952 4abd 6814 e93e 0be5 30be
00000130: bcaa 7f3e 9f0f 2a3e 4e30 01be dd59 3bbc
00000140: 4db2 e53d 9195 2b3e 215e 173e 5348 b43d
00000150: a309 d03c 2824 273e bb66 4dbe a695 183e
00000160: 48d2 f0bd 59d3 943e e207 2cbe 3473 ee3e
00000170: 2022 10be 3eb5 b33d 758f 203e 409e 10be
00000180: 609a b73d 8692 a83d d146 f4bc f274 8e3d
00000190: 0696 593d 074f 3f3e f421 3a3f a8db 88be
000001a0: 78d0 01be e7f7 d6bd 343c 9f3e 6872 1bbf
000001b0: 3855 013f ca69 cdbe 4332 07bf ed62 173e
000001c0: dff3 f9bd 8187 c93d 7156 4abe 5312 57bd
000001d0: 8c7f dbbd 0ed1 153d 1076 f63b 531c c7be
000001e0: 8b1c 8ebe c958 08bf 311b 353e 1cc9 2cbf
000001f0: f701 8e3e 3e3c 94be 60a1 1d3f c91f 85be
00000200: 2c90 96be 4392 c6bc 0ff1 333e 2d38 3dbd
00000210: 6675 45be 6509 17bd cf45 943c a5eb 50be
00000220: c316 ca3d 97af 333f 3e1c 87bf 2040 22be
00000230: c59b 613f 8d99 30bf bb62 083f 372a 8cbe
00000240: b337 13be a27a be3e 2963 943e b7f6 a1bd
00000250: c2ef c7bd 245f 34be 00f6 d13d e97d 5c3d
00000260: e77b 40bd fb0f 403f e680 fe3e 6e41 babe
00000270: 8497 b93a 4916 a53e c585 8dbf a60c 9cbe
00000280: 0a80 26bf 74d9 36bd 57c4 25be 5bdf 133e
00000290: 04c9 7fbe d02d 6e3e 7da9 0abc a7ef 00be
000002a0: 639c 623e 06eb 153d 8c38 81be 8e66 cd3d
000002b0: 5c23 e93f f4c4 61be 90db ddbc 7044 01be
000002c0: 1480 c83d 1679 fe3d 4536 0f3e 6e5f a5be
000002d0: 9c02 c33d e178 c9bc f374 c73d 5cec 8cbd
000002e0: 4668 b63d d0b1 c03c 68be ce3d 91d6 d1be
000002f0: 94ef 013d 92f5 91bf 042e aa3d d759 c63a
00000300: cb50 433f 31a1 003e cefe 673d 1b60 9f3e
00000310: 3fd5 cabb 0053 51bc c889 bcbc 3cf0 8c3d
00000320: 37b7 0e3e 87ef 2ebd 516a 14be 211f b2bc
00000330: e3ad 203f 459a c83e 7875 b0bf 6554 273e
00000340: 4b6a 883e 65cf 143e 70c5 4a3d d497 c3be
00000350: 4849 9e3e df08 5cbd 7b13 173c 5559 293d
00000360: 269c 123e 4bb8 6e3c 0009 b1bd b37b 283c
00000370: 7d57 563d 6d6a 0d3f b319 003f 5481 cabf
00000380: 26c5 6dbd b201 843e 63af 743d 1296 22bd
00000390: 61e5 6d3c b84d 333e 5ec6 b33e 3c6e eabb
000003a0: e2f3 f13c 8eb4 dabd fda7 f5bd 000a 19bd
000003b0: 1cf3 f03d 0625 ca3c 1240 c1be 8082 5bbe
000003c0: d056 533e 6728 b13d 4c57 b9bd f5ec 6d3f
000003d0: dc30 75bd bc7a 693f 0466 4abd 508e e4be
000003e0: 226a 1dbb 20d6 913d 11e8 de3d beae eabd
000003f0: 19fe 183c a0d8 c9bd 9724 61bd d447 81bf

actor.0.bias f4 [128]
0.10654754 0.1324079 0.17325325 -0.15250908 -0.07604302 0.0126421405 0.12512426 0.13720013
0.19725622 -0.07665858 0.077154376 0.015992252 0.034754366 0.08106823 0.06682725 -0.03903206
-0.04680233 0.14056277 -0.04571308 -0.15170723 -0.038870443 -0.16554268 0.04664512 -0.17558704
0.008560726 0.044985883 0.19770047 -0.06710191 -0.13014013 0.13068727 0.13359696 -0.1596538
-0.09265434 -0.10851483 0.010213368 0.042766806 0.033742845 0.2225545 0.082259834 -0.026498724
-0.21954554 0.0322824 -0.023914278 -0.05598765 -0.024156608 0.10493797 -0.1350421 -0.10815422
0.12241805 0.08906805 -0.019558216 -0.0075205667 0.034091145 -5.372275e-05 -0.1438529 -0.06213444
0.11674398 0.02240096 -0.16034819 0.01061669 0.047210004 -0.0016589742 -0.070031166 0.007836918
-0.0048195645 -0.049833693 -0.07386759 0.06362463 -0.18962547 0.0030835692 -0.17012312 -0.019403318
-0.00370956 -0.11648775 -0.104202665 -0.17724116 -0.027163949 -0.297143 -0.008662253 -0.12925237
-0.0047802995 0.0016975281 0.18360008 0.080336645 0.099148475 0.1464008 -0.24441834 -0.22781974
0.053498488 0.14999418 -0.16368636 0.23462972 0.0313141 0.025807153 0.063441135 -0.07480477
-0.021944663 0.03313059 -0.10108567 0.19447817 0.06471995 -0.11871307 0.17594552 0.07751164
-0.07278546 -0.10895936 0.10438121 -0.14468352 -0.06260601 0.00052231667 -0.1156475 -0.17689171
-0.07751293 0.11863282 -0.029958883 0.03371018 0.0571956 -0.056754198 0.019514838 -0.049180016
0.09303719 0.04657401 0.09835475 -0.07393406 -0.12128262 0.099156424 -0.1345426 0.09974787
00000000: 9935 da3d f095 073e 4d69 313e 572b 1cbe
00000010: 71bc 9bbd fb20 4f3c 9320 003e 317e 0c3e
00000020: 89fd 493e 2cff 9cbd 1d03 9e3d 2f02 833c
00000030: 985a 0e3d 1a07 a63d badc 883d 15e0 1fbd
00000040: cdb3 3fbd b0ef 0f3e a33d 3bbd 2459 1bbe
00000050: 9d36 1fbd 0584 29be f40e 3f3d 17cd 33be
00000060: 4a42 0c3c 1e43 383d fe71 4a3e ba6c 89bd
00000070: 7443 05be e2d2 053e a4cd 083e 497c 23be
00000080: 8fc1 bdbd 063d debd f855 273c 3f2c 2f3d
00000090: f035 0a3d 54e5 633e d877 a83d da13 d9bc
000000a0: 8cd0 60be 8d3a 043d e0e7 c3bc 4e53 65bd
000000b0: 14e4 c5bc b8e9 d63d 7a48 0abe f67f ddbd
000000c0: 51b6 fa3d 4f69 b63d 8d38 a0bc 166f f6bb
000000d0: 28a3 0b3d 5d54 61b8 2d4e 13be af80 7ebd
000000e0: 7817 ef3d 3882 b73c 5132 24be a0f1 2d3c
000000f0: 475f 413d f071 d9ba 806c 8fbd 6b66 003c
00000100: 70ed 9dbb 6a1e 4cbd e447 97bd a14d 823d
00000110: 2e2d 42be b515 4a3b c134 2ebe b5f3 9ebc
00000120: 171c 73bb 2191 eebd 3568 d5bd b57e 35be
00000130: ee86 debc 2123 98be 1fec 0dbc bc5a 04be
00000140: 0fa4 9cbb 977f de3a a901 3c3e 8a87 a43d
00000150: 5b0e cb3d 17ea 153e cd48 7abe 9449 69be
00000160: 3b21 5b3d 1398 193e 669d 27be c642 703e
00000170: 3743 003d 8669 d33c 6ded 813d 3e33 99bd
00000180: 4bc5 b3bc f1b3 073d 0106 cfbd 4925 473e
00000190: e58b 843d d71f f3bd 102b 343e 6cbe 9e3d
000001a0: 8b10 95bd 1626 dfbd d1c5 d53d eb27 14be
000001b0: 9437 80bd 14ec 083a 99d8 ecbd 1a23 35be
000001c0: 19bf 9ebd c4f5 f23d 556c f5bc b013 0a3d
000001d0: ef45 6a3d 1777 68bd 95dd 9f3c fc70 49bd
000001e0: 488a be3d 64c4 3e3d 376e c93d be6a 97bd
000001f0: 0663 f8bd 8612 cb3d 89c5 09be 9c48 cc3d

actor.2.weight f4 [128, 128]
0.058752205 0.048727226 0.00610106 -0.0002297728 0.033063214 0.037954185 0.02034196 0.04199252
-0.042241033 0.05048012 -0.022989389 -0.023929212 -0.030022414 0.029910037 -0.08689474 -0.06356994
0.023967441 0.016325597 0.010446804 -0.15907943 -0.06499997 0.011633682 0.009408229 0.0060615614
0.00038978588 0.016382426 0.03373484 0.019855067 -0.058078308 -0.056194533 0.06072868 0.04805634
-0.10355659 -0.0067237588 -0.005200334 0.025252437 0.050103836 0.045844838 -0.030815506 0.077395745
-0.07053967 0.0019110774 0.041351046 0.007160253 0.048472002 0.02735405 -0.011867451 0.0061370013
-0.03506243 0.0003050873 -0.023275018 0.06091898 -0.06493261 0.1026164 -0.04804224 0.08036714
-0.06630373 -0.010940557 0.1076276 0.031497214 0.0034498256 0.07760799 -0.08923177 -0.060886778
0.013380027 0.07043109 0.017853606 -0.027103497 0.004999776 0.06033441 0.049887978 0.024229184
0.040420283 -0.020300915 -0.009706522 0.012393721 0.059607964 0.049767416 0.03890829 -0.08461551
-0.12827179 0.050362393 0.08948715 0.0067670275 -0.030149626 -0.08150065 0.0138737755 0.07170381
-0.040898085 0.052741155 -0.04658317 -0.041511092 -0.073408596 0.06226831 0.01214624 0.02548666
0.11817765 0.027467972 0.059798546 -0.006038124 -0.060791083 -0.006608158 -0.007210137 0.028257227
-0.033576548 0.039622515 -0.06732826 0.061330397 -0.041379657 -0.018809156 0.03356026 -0.062239315
-0.04982156 -0.010105626 -0.027647048 0.031424325 0.06398136 0.0937561 0.07496115 -0.057077695
-0.08481904 -0.019221071 -0.053176727 0.014974778 -0.042837247 0.008650864 -0.028115477 0.0021248064
-0.03465111 -0.001590159 -0.025036879 0.046490647 0.055214103 0.0013198571 0.04599177 0.0080483705
-0.05703246 -0.03577271 -0.06933214 0.037871305 -0.043794245 0.038579874 -0.043082226 0.04030866
0.023153303 -0.0050998973 0.02403249 0.068083405 -0.0055617327 -0.08409457 -0.026374184 0.039779928
0.087537184 -0.051333092 0.084359065 -0.0046413983 0.12697063 -0.014360474 0.027573703 0.06511814
0.035343736 -0.048380915 0.039584383 -0.052553944 -0.102592014 -0.038466454 0.011797082 -0.005449866
-0.017078973 0.04934071 0.008331175 0.024788251 0.030367518 0.019613158 0.04117638 -0.0076345378
-0.011650205 0.028756155 -0.040854234 0.062468067 -0.035353296 -0.008203972 0.04499822 0.06758738
0.046956293 -0.036835723 0.09238426 0.028061925 -0.06144904 -0.025876585 -0.072395466 0.007920865
-0.0428575 0.025550315 0.013049978 -0.03151111 -0.021000033 0.023731798 0.047674645 -0.04401941
-0.03291606 0.00020603323 0.05876398 0.085613936 0.071884304 -0.02129217 -0.05516664 -0.055207226
-0.042499118 -0.031090923 0.011851973 -0.06623153 -0.035553496 0.019948011 -0.016533082 -0.030133655
-0.020137448 0.062410478 -0.0098136775 -0.102396384 -0.063389264 -0.052572414 -0.017227232 -0.008964506
0.0063636745 -0.01865514 -0.0137745505 0.10917146 0.0145576205 -0.028406242 -0.022021059 -0.036975004
-0.05807609 0.013529208 0.022709262 -0.09367832 0.0038775187 0.020589005 -0.04346139 -0.03888575
-0.027285747 0.007334329 0.03802385 -0.0076886388 0.080699764 -0.06887842 0.02639845 0.0051880395
-0.06207781 -0.025528654 -0.050504692 -0.045784194 -0.09938874 0.07340219 0.07096799 0.028626807
00000000: 27a6 703d 3396 473d 67eb c73b 2bef 70b9
00000010: 4b6d 073d d975 1b3d 2fa4 a63c 5900 2c3d
00000020: ef04 2dbd 3ec4 4e3d 3e54 bcbc 3207 c4bc
00000030: 91f1 f5bc e505 f53c dff5 b1bd f530 82bd
00000040: 5e57 c43c 42bd 853c 1229 2b3c b8e5 22be
00000050: b41e 85bd 339b 3e3c f924 1a3c 10a0 c63b
00000060: 2d5c cc39 7034 863c 8b2d 0a3d 18a7 a23c
00000070: 85e3 6dbd 3d2c 66bd a3be 783d bad6 443d
00000080: 7a15 d4bd fa52 dcbb 9067 aabb 33de ce3c
00000090: ae39 4d3d ccc7 3b3d cd70 fcbc a981 9e3d
000000a0: 1a77 90bd 1e7d fa3a b75f 293d 8ea0 ea3b
000000b0: 948a 463d 9a15 e03c b26f 42bc e618 c93b
000000c0: 9f9d 0fbd 20f4 9f39 40ab bebc 2e86 793d
000000d0: 63fb 84bd 8c28 d23d f1c7 44bd 8797 a43d
000000e0: 40ca 87bd 0640 33bc dc6b dc3d 3903 013d
000000f0: 7816 623b f0f0 9e3d 25bf b6bd 6a64 79bd
00000100: e737 5b3c 2d3e 903d ba41 923c 2708 debc
00000110: 29d5 a33b 3721 773d 5657 4c3d 487c c63c
00000120: bd8f 253d 1b4e a6bc 1b08 1fbc 090f 4b3c
00000130: 7b27 743d ebd8 4b3d 4d5e 1f3d e64a adbd
00000140: ae59 03be cc48 4e3d 0a45 b73d f1bd dd3b
00000150: 59fc f6bc d0e9 a6bd d54e 633c 72d9 923d
00000160: c084 27bd 1c07 583d fecd 3ebd 8907 2abd
00000170: 3f57 96bd 0e0d 7f3d 0601 473c 66c9 d03c
00000180: 2007 f23d 8304 e13c 52ef 743d 75db c5bb
00000190: 1200 79bd 3f89 d8bb 0343 ecbb b37b e73c
000001a0: 9087 09bd 384b 223d 66e3 89bd 9535 7b3d
000001b0: b77d 29bd a915 9abc 7c76 093d a7ee 7ebd
000001c0: b111 4cbd 1192 25bc 107c e2bc cbb6 003d
000001d0: a908 833d 3303 c03d 3b85 993d 4dca 69bd
000001e0: 9bb5 adbd 8275 9dbc d7cf 59bd c558 753c
000001f0: 1c76 2fbd 5abc 0d3c 6e52 e6bc 5640 0b3b
00000200: 53ee 0dbd e26c d0ba 241a cdbc fa6c 3e3d
00000210: 2f28 623d 0eff ac3a de61 3c3d 50dd 033c
00000220: de9a 69bd 6886 12bd 02fe 8dbd f11e 1b3d
00000230: 9861 33bd ee05 1e3d fd76 30bd b21a 253d
00000240: ffab bd3c 0a1d a7bb c9df c43c 506f 8b3d
00000250: 323f b6bb c639 acbd ac0e d8bc 47f0 223d
00000260: b246 b33d a642 52bd 72c4 ac3d df16 98bb
00000270: 9704 023e 3248 6bbc 3fe2 e13c a95c 853d
00000280: 98c4 103d 112b 46bd 3c23 223d ce42 57bd
00000290: c31b d2bd 008f 1dbd 8c48 413c ca94 b2bb
000002a0: 34e9 8bbc 7c19 4a3d 7b7f 083c bb10 cb3c
000002b0: 4dc5 f83c c6ab a03c 90a8 283d 252b fabb
000002c0: 80e0 3ebc 0792 eb3c c556 27bd 84de 7f3d
000002d0: 9ece 10bd f469 06bc 0e50 383d 416b 8a3d
000002e0: 3e55 403d 0ee1 16bd f533 bd3d 1fe2 e53c
000002f0: fdb1 7bbd 22fb d3bc 1344 94bd 84c6 013c
00000300: 598b 2fbd e54e d13c 93cf 553c cb11 01bd
00000310: 4308 acbc 3069 c23c 7d46 433d b24d 34bd
00000320: fed2 06bd a00a 5839 80b2 703d 5c56 af3d
00000330: 1438 933d eb6c aebc 6af6 61bd f920 62bd
00000340: 8e13 2ebd 64b2 febc c72e 423c 65a4 87bd
00000350: 8ba0 11bd 036a a33c 6370 87bc dbda f6bc
00000360: 4af7 a4bc 21a2 7f3d 8cc9 20bc 32b5 d1bd
00000370: 3bd2 81bd 2c56 57bd 2020 8dbc dddf 12bc
00000380: 5f86 d03b aad2 98bc a7ae 61bc 4995 df3d
00000390: 1683 6e3c 35b4 e8bc 8265 b4bc 1a73 17bd
000003a0: 32e1 6dbd 9ca9 5d3c c608 ba3c 6bda bfbd
000003b0: f81d 7e3b 46aa a83c 9204 32bd aa46 1fbd
000003c0: 5c86 dfbc d054 f03b e6be 1b3d faf0 fbbb
000003d0: eb45 a53d 2110 8dbd 9041 d83c 6e00 aa3b
000003e0: 4d45 7ebd 7821 d1bc 02de 4ebd 3588 3bbd
000003f0: 538c cbbd e353 963d aa57 913d c482 ea3c

actor.2.bias f4 [128]
0.053612802 0.0023852298 -0.2656818 -0.03478294 0.09750405 -0.0896442 -0.045528326 -0.03976837
0.06289634 0.023450313 0.05354825 -0.055424754 -0.02274249 0.05025859 -0.01714242 0.0117591
0.022557091 0.043155815 0.0049337903 0.09567559 0.036286004 -0.014710307 -0.01952962 0.0037602717
0.0069435257 0.025103237 -0.52416676 0.04912962 -0.09814828 -0.04156423 0.40739235 -0.2016694
-0.052059654 0.025650367 0.049465336 0.088816196 -0.011724888 -0.058929265 0.08542783 0.049016282
-0.07172241 0.017824994 0.16188945 0.0664974 0.044498578 -0.3529348 -0.08544635 0.12058026
-0.010895883 -0.002642054 0.016264023 0.039750382 -0.03789004 0.04533077 0.046791688 0.021277966
-0.043515474 0.0042028544 -0.012981146 0.04644608 0.05154378 -0.051313225 0.062309418 -0.022278573
-0.11686699 -0.08324082 0.6907406 -0.017316068 -0.01928683 0.053503662 -0.13593556 -0.06440086
0.0638688 0.0057906564 0.042379912 -0.03225984 0.2505398 0.097435586 0.004590909 -0.036891438
0.0056123696 0.03881341 0.0063193194 -0.01167366 -0.16347085 0.033766992 0.21864717 0.019460324
0.06785735 -0.059636198 0.018056635 0.14657712 0.039276235 -0.088412955 0.026436225 -0.05270448
0.0098647 0.026266955 -0.04017892 -0.09807432 -0.0116948085 -0.038538814 -0.04595086 -0.031770084
-0.07296552 0.03342417 0.036975417 -0.11093389 -0.013666595 -0.025803624 0.052324858 0.027311405
-0.085964434 -0.01213267 -0.044934947 0.12172202 0.06334581 -0.3425722 0.0018728031 -0.034125842
0.012450637 -0.024804633 -0.20898362 0.049535193 -0.018451495 -0.005469351 0.07177289 0.0067170626
00000000: 1999 5b3d 8451 1c3b 7207 88be 8e78 0ebd
00000010: 34b0 c73d 6197 b7bd e97b 3abd 29e4 22bd
00000020: cccf 803d df1a c03c 6955 5b3d 1105 63bd
00000030: 754e babc f4db 4d3d 436e 8cbc 3da9 403c
00000040: a6c9 b83c 27c4 303d a2ab a13b 90f1 c33d
00000050: a2a0 143d 8003 71bc 95fc 9fbc e46e 763b
00000060: 8486 e33b 4ea5 cd3c cb2f 06bf 243c 493d
00000070: f701 c9bd 413f 2abd bb95 d03e 6c82 4ebe
00000080: 813c 55bd b820 d23c 2a9c 4a3d 44e5 b53d
00000090: bf19 40bc d05f 71bd c9f4 ae3d 4cc5 483d
000000a0: 33e3 92bd b905 923c 59c6 253e ca2f 883d
000000b0: 2444 363d dfb3 b4be 7ffe aebd c9f2 f63d
000000c0: a584 32bc 5026 2dbb 213c 853c 4cd1 223d
000000d0: 9632 1bbd c2ac 393d a4a8 3f3d 214f ae3c
000000e0: 483d 32bd 19b8 893b dfae 54bc 3f3e 3e3d
000000f0: 921f 533d d12d 52bd 2938 7f3d 8e81 b6bc
00000100: f657 efbd 2a7a aabd 60d4 303f 6dda 8dbc
00000110: 6aff 9dbc a826 5b3d b132 0bbe 99e4 83bd
00000120: a5cd 823d 8cbf bd3b 8f96 2d3d e522 04bd
00000130: c146 803e 4f8c c73d 566f 963b 7a1b 17bd
00000140: f8e7 b73b cffa 1e3d 4b12 cf3b e142 3fbc
00000150: e764 27be 424f 0a3d 0be5 5f3e 426b 9f3c
00000160: cbf8 8a3d 1645 74bd 82eb 933c 5018 163e
00000170: 1ee0 203d da11 b5bd c890 d83c a7e0 57bd
00000180: 8d9f 213c cc2d d73c a792 24bd 30db c8bd
00000190: 959b 3fbc e0da 1dbd f836 3cbd 5921 02bd
000001a0: f26e 95bd c8e7 083d 8973 173d 4f31 e3bd
000001b0: dbe9 5fbc 1f62 d3bc 9752 563d 2bbc df3c
000001c0: 1f0e b0bd 1bc8 46bc b50d 38bd 6549 f93d
000001d0: 73bb 813d a065 afbe d878 f53a 8ac7 0bbd
000001e0: c2fd 4b3c 1633 cbbc cdff 55be 6ae5 4a3d
000001f0: 9727 97bc 3e38 b3bb aafd 923d ce1a dc3b

actor.4.weight f4 [4, 128]
-0.009425956 -0.002477691 0.040812142 -0.0034862892 -0.0019222673 0.001139508 -0.005082071 -0.0050700014
0.0061921114 -0.004903933 -0.003150192 0.00516481 -0.0011984716 0.00027765852 -0.004210656 0.0047119595
-0.0072210114 -0.0032286728 -0.0049651316 0.006097464 0.004648583 -0.002710334 -0.002634951 -0.001846884
0.0068394337 0.0019471803 -0.016614158 -0.0094061885 -0.08387177 -0.00013382424 0.0032979674 -0.14305677
0.004920056 0.057607107 -0.0028091152 0.02449169 0.0003929886 0.0026608305 0.08722216 0.00032709647
0.00405337 0.035549454 -0.023445388 -0.0054563424 3.117205e-05 -0.076702796 -0.08514279 0.00879122
-0.028793588 0.012749835 0.007820321 0.0023165112 -0.012720896 0.0054295887 -0.008672118 -0.003352735
0.009112903 0.0059768227 0.0006210175 0.0005062132 0.0012494825 0.11753563 -0.0016364232 -0.004617896
-0.081384696 -0.1230108 0.34401247 0.21341376 0.0041968995 0.0052232244 -0.034897275 -0.0044052247
0.0051056067 -0.005170812 0.0011704266 0.0021079476 -0.06933285 0.039881047 -0.0033128299 0.0009868377
-0.0033939253 -0.003977348 0.0053211516 -0.0015040227 0.015144676 0.0016658251 0.10125375 -0.001360132
-0.035096787 -0.0035626092 -0.0016846907 0.049657322 0.0029712284 0.004098801 -0.00028728208 -0.0023481564
-0.0022575583 -0.0075347014 -0.0024880767 -0.046655215 -0.004717158 -0.0016017033 0.0026786695 0.0015682643
-0.015319308 0.0016443558 0.000628572 -0.019294612 -0.0068485118 -0.000517643 0.10308166 -0.0006491183
0.0008390243 -0.0029670731 -0.0019612592 -0.0062991376 -0.0040332237 -0.07013782 -0.0065927827 -0.0066602756
0.0005125554 -0.004075418 -0.014513366 0.00061271316 0.0037077086 -0.0005789196 0.01121163 0.0019113392
0.0006283387 0.0006430411 -0.08328305 0.0011381796 0.002217435 0.0012776074 -0.0022392555 -0.0011913368
-0.00013046688 -0.007521294 0.0044295317 0.0024776654 -0.0006077821 -0.0029722662 -0.002646099 0.00030585323
0.00091258367 0.0020914553 0.0003970046 -0.0061839838 0.0028174452 0.0027289684 -0.002160803 0.004356216
-0.0007168023 -0.00075603026 0.06272184 -0.0037945153 -0.07458942 0.008491896 -0.04137413 -0.13266204
-0.0015849366 0.01010887 0.00227522 0.04396522 0.00055648974 -1.9608604e-05 -0.059618216 0.004108561
-0.0015082958 -0.015605444 0.07895014 -0.0041419086 -0.000235997 0.01593926 0.13171315 -0.052861653
-0.171953 0.007529977 0.0034733857 0.0045868214 0.0074035986 0.007056608 -0.0026691537 0.0018544237
0.0034644653 -0.0034551162 -0.0020043717 -0.00315234 -0.0020297167 -0.16236956 0.0006114096 -0.009243385
-0.018657865 -0.03659907 0.25670242 -0.0013103315 0.002641587 0.0016787398 -0.14263973 -0.0017888482
0.0048333174 -0.004403387 -4.455702e-05 -0.002386297 0.11043554 0.012076689 -0.0017704925 -0.00055493845
-0.00036182467 -0.00032876254 -0.0006839316 0.00017438918 0.13895518 -0.0023229877 0.03226038 -0.00033501553
0.023112373 0.0032727541 -0.0038119175 0.07608027 -0.0015331038 -0.0008929153 0.0013507267 0.003873942
-0.0013927624 -0.0005378159 0.0016026659 -0.10214416 0.0036436156 0.0014413089 -0.0007912067 0.0034229094
0.0044924775 -0.0055262498 -0.001047633 0.0036016533 0.0009948725 -0.0034190603 -0.011624992 -0.00010321902
-0.00065778475 0.00026290255 0.0030620468 0.037117917 0.005299034 -0.060414303 -0.0007390664 -0.0071617137
-0.0037928384 0.0014284216 -0.013203049 0.00051590096 -0.00045408471 0.00025237544 0.15636219 0.0008406968
00000000: 536f 1abc c260 22bb a22a 273d 3a7a 64bb
00000010: 96f4 fbba 8b5b 953a 8087 a6bb 4122 a6bb
00000020: 32e7 ca3b 2cb1 a0bb 7473 4ebb 913d a93b
00000030: 0916 9dba b292 9139 8bf9 89bb c866 9a3b
00000040: 3c9e ecbb 2498 53bb 8bb2 a2bb 3ccd c73b
00000050: 2453 983b dc9f 31bb 24af 2cbb 2513 f2ba
00000060: 541d e03b 8738 ff3a 6a1a 88bc 6a1c 1abc
00000070: f6c4 abbd 2c53 0cb9 b622 583b 797d 12be
00000080: 6c38 a13b 6ef5 6b3d 2219 38bb cca2 c83c
00000090: 090a ce39 5461 2e3b 88a1 b23d 257e ab39
000000a0: 22d2 843b 4e9c 113d 8b10 c0bc 1ecb b2bb
000000b0: bcbe 0238 5b16 9dbd 585f aebd 0d09 103c
000000c0: 88e0 ebbc afe4 503c ce20 003c 9cd0 173b
000000d0: 4e6b 50bc b1ea b13b 8015 0ebc 8fb9 5bbb
000000e0: 494e 153c 39d9 c33b c7cb 223a 65b3 043a
000000f0: adc5 a33a 85b6 f03d 407d d6ba b851 97bb
00000100: 05ad a6bd 16ed fbbd 6722 b03e 2389 5a3e
00000110: 2586 893b 9527 ab3b 72f0 0ebd b459 90bb
00000120: ef4c a73b ea6f a9bb 0069 993a 7e25 0a3b
00000130: 62fe 8dbd 4f5a 233d 101c 59bb c758 813a
00000140: 9e6c 5ebb 6a54 82bb 0e5d ae3b a122 c5ba
00000150: 6021 783c d157 da3a 205e cf3d 7546 b2ba
00000160: a6c1 0fbd aa7a 69bb d7d0 dcba 7a65 4b3d
00000170: f1b8 423b 3c4f 863b 599e 96b9 87e3 19bb
00000180: 8bf3 13bb a8e5 f6bb 000f 23bb 8a19 3fbd
00000190: 6492 9abb 3ff0 d1ba 9e8c 2f3b 388e cd3a
000001a0: d6fd 7abc 6d87 d73a c1c6 243a bc0f 9ebc
000001b0: 7b69 e0bb 6fb2 07ba 7a1c d33d 9729 2aba
000001c0: f8f1 5b3a 3a73 42bb 7888 00bb ff68 cebb
000001d0: 2229 84bb 6ba4 8fbd 4508 d8bb 713e dabb
000001e0: 035d 063a 168b 85bb 78c9 6dbc 7c9e 203a
000001f0: 07fd 723b a3c2 17ba fcb0 373c e785 fa3a
00000200: 19b7 243a c291 283a 4e90 aabd f82e 953a
00000210: 6352 113b 6475 a73a 79c0 12bb a126 9cba
00000220: f0cd 08b9 3075 f6bb 9b25 913b 5460 223b
00000230: 9153 1fba 5aca 42bb 2d6a 2dbb ed5a a039
00000240: 743a 6f3a cc10 093b 0e25 d039 04a3 cabb
00000250: e3a4 383b 7ed8 323b 429c 0dbb 97be 8e3b
00000260: cae7 3bba 5530 46ba 4f74 803d 67ad 78bb
00000270: 56c2 98bd 9821 0b3c eb77 29bd 8fd8 07be
00000280: a6bd cfba ad9f 253c db1b 153b e014 343d
00000290: 65e1 113a 287d a4b7 3b32 74bd 1ca1 863b
000002a0: 02b2 c5ba faad 7fbc 9cb0 a13d d9b8 87bb
000002b0: f675 77b9 0d93 823c d0df 063e 7685 58bd
000002c0: 7214 30be 06be f63b bea1 633b 0c4d 963b
000002d0: e399 f23b 1e3b e73b f8ec 2ebb 2210 f33a
000002e0: 150c 633b 3b6f 62bb c75b 03bb 7d97 4ebb
000002f0: ff04 05bb 3544 26be 0147 203a 9171 17bc
00000300: 61d8 98bc e8e8 15bd 806e 833e 6ebf abba
00000310: 7a1e 2d3b 2909 dc3a 2610 12be c977 eaba
00000320: ce60 9e3b 4a4a 90bb bce2 3ab8 6c63 1cbb
00000330: 072c e23d 4edd 453c df0f e8ba 4a79 11ba
00000340: 49b3 bdb9 c35d acb9 df49 33ba 3ddc 3639
00000350: 444a 0e3e 443d 18bb 7623 043d 06a5 afb9
00000360: 2956 bd3c b47b 563b 5dd1 79bb f9cf 9b3d
00000370: 6df2 c8ba 8812 6aba de0a b13a f6e1 7d3b
00000380: 5a8d b6ba 37fc 0cba 8b10 d23a f530 d1bd
00000390: bac9 6e3b 4dea bc3a fc68 4fba e452 603b
000003a0: a235 933b 8b15 b5bb bb50 89ba b709 6c3b
000003b0: 6266 823a 5012 60bb c076 3ebc 4a77 d8b8
000003c0: 306f 2cba 2fd6 8939 9fac 483b f508 183d
000003d0: 85a3 ad3b fd74 77bd e8bd 41ba cfac eabb
000003e0: 4591 78bb e039 bb3a 9a51 58bc 873d 073a
000003f0: 3812 eeb9 4251 8439 691d 203e 3562 5c3a

actor.4.bias f4 [4]
0.26557913 0.22765793 0.30914542 0.22049476
00000000: fdf9 873e 291f 693e 4f48 9e3e 61c9 613e

critic.0.weight f4 [128, 17]
0.28260258 -0.72977304 0.22693807 0.25352272 0.1062891 -0.28855282 0.07053149 -0.14891353
0.25189212 0.016469592 -0.105484046 0.32531467 0.006917048 0.089248106 -0.03540435 -0.046562206
-0.09131407 -0.040125683 0.19560125 -0.58043087 -0.07389577 0.41755447 0.014021374 -0.07830911
0.2802104 -0.4773363 0.06793804 0.045623705 -0.16632573 0.088460594 0.05212478 0.08288087
-0.11834356 0.044265907 -0.08871391 0.02842748 1.0886006 -0.17833808 -0.23976162 -0.052781664
0.023828758 0.0942894 -0.08819516 -0.008663803 0.12191151 -0.08180344 -0.021479823 0.03131633
-0.13388102 -0.015820213 -0.015939305 0.00779769 0.3981354 1.5282733 -0.20707762 -0.19752312
-0.11858489 0.07835515 -0.17810957 0.17538592 -0.14957641 -0.10774789 -0.099138685 -0.121111296
0.074016735 -0.022892982 0.110986106 0.08308729 0.23011176 0.038225427 -1.1505172 0.28126422
0.23688021 -0.17577372 -0.18027437 0.0035016374 -0.3541765 0.20279059 0.011037257 -0.0560824
0.10478954 -0.04191612 0.06920962 -0.21388344 -0.07741747 0.09612173 -0.54565835 -1.19345
-0.07737202 0.3677469 0.044757146 0.146819 -0.026832419 0.059998825 -0.04631529 0.04567007
0.18392721 0.3910058 -0.21819079 -0.17672355 -0.20992236 -0.15188424 0.27991626 0.4646439
-0.8067395 0.055287547 -0.0022063341 -0.35895684 0.067328535 -0.1545589 -0.10010088 0.17929658
-0.21230623 0.40786108 0.0005772157 0.30768752 0.06301181 -0.15156876 -0.017538475 -0.19951317
-1.0425972 0.44746298 0.27257654 0.13532802 -0.029587861 -0.09782419 0.03952542 0.13223402
-0.09924532 -0.20270516 -0.31099564 -0.057172686 0.019087393 -0.048869897 -0.057266444 0.0033513631
-0.28174874 0.46993268 0.5918061 -0.030987253 -0.1923035 -0.4842078 0.25468543 -0.500577
0.02561753 0.14947735 -0.3381078 0.34800798 -0.25207233 -0.12056364 0.016103541 0.029449586
-0.09264856 0.31438702 0.21867163 -1.2916195 -0.017765425 0.027622353 -0.14375222 0.38205737
0.066846594 -0.22618155 -0.008534875 0.08555739 -0.121872485 -0.011473309 0.009644061 -0.04080298
-0.05412394 -0.05888935 0.3319385 0.3281898 -0.30971235 -0.010972895 -0.41736224 -0.40836874
0.52557135 -0.13059585 0.02478598 -0.076104924 -0.04417693 0.46372053 -0.22745948 0.10708131
0.09668315 -0.039608162 -0.036231227 -0.33843017 0.30152282 -0.64260125 -0.11918204 -0.06044113
-0.06998236 0.13322908 -0.19020799 -0.26064667 0.06535863 0.043272737 0.09324635 -0.020471353
-0.019912519 -0.04380863 0.014840178 -0.12675563 0.17026825 -0.015038049 -0.47655028 0.36227426
-0.039310765 -0.4151364 0.124366775 -0.5059182 -0.07515231 0.1460801 -0.07160395 0.04286458
-0.18380585 0.0034385605 -0.03292542 -0.023556001 -0.024508497 0.2943747 0.769716 0.49834663
-0.26305872 -0.13412817 0.45185092 0.025623465 -0.7739051 -0.14864427 -0.27392098 -0.28296763
0.64900553 -0.356141 0.16934596 0.06181538 0.16813822 -0.047262896 0.32395718 0.26788187
-1.4418179 0.3646993 0.08651413 -0.1445963 -0.18801332 0.13991225 -0.04529151 0.00816997
-0.14722094 -0.078620546 0.08533579 -0.0315556 -0.11018308 -0.099414684 -0.08731601 0.30839458
00000000: 49b1 903e 68d2 3abf 7462 683e bbcd 813e
00000010: 1aae d93d 32bd 93be d072 903d ca7c 18be
00000020: 01f8 803e 3deb 863c 0508 d8bd a58f a63e
00000030: 67a8 e23b b6c7 b63d 2704 11bd 03b8 3ebd
00000040: df02 bbbd d45a 24bd b24b 483e 1e97 14bf
00000050: aa56 97bd b3c9 d53e e8b9 653c 8760 a0bd
00000060: bd77 8f3e 6c65 f4be 1923 8b3d ecdf 3a3d
00000070: 4b51 2abe d42a b53d cb80 553d 72bd a93d
00000080: 1c5e f2bd 2b50 353d a3af b5bd bfe0 e83c
00000090: 4457 8b3f 429e 36be 1284 75be 9631 58bd
000000a0: 8734 c33c cd1a c13d aa9f b4bd a0f2 0dbc
000000b0: beac f93d 9088 a7bd 74f6 afbc 8d45 003d
000000c0: 1b18 09be 6499 81bc 2593 82bc c483 ff3b
000000d0: 67d8 cb3e 769e c33f 280c 54be 8043 4abe
000000e0: a3dc f2bd aa78 a03d 5b62 36be 5e98 333e
000000f0: 8f2a 19be edaa dcbd 3909 cbbd 3309 f8bd
00000100: 1696 973d 108a bbbc af4c e33d ab29 aa3d
00000110: 6ba2 6b3e 4492 1c3d 2644 93bf dd01 903e
00000120: ba90 723e 07fe 33be d899 38be ba7b 653b
00000130: 9f56 b5be 56a8 4f3e 9cd5 343c a9b6 65bd
00000140: e69b d63d 3db0 2bbd c6bd 8d3d 4304 5bbe
00000150: 0d8d 9ebd 78db c43d 44b0 0bbf f8c2 98bf
00000160: 3975 9ebd 5249 bc3e 4553 373d b857 163e
00000170: a9cf dbbc 54c1 753d 1ab5 3dbd 8a10 3b3d
00000180: 6a57 3c3e ea31 c83e 686d 5fbe 05f7 34be
00000190: e3f5 56be 8b87 1bbe 2f51 8f3e cee5 ed3e
000001a0: 7b86 4ebf 3275 623d 2598 10bb 31c9 b7be
000001b0: 8be3 893d b044 1ebe b101 cdbd 8699 373e
000001c0: ce66 59be 2bd3 d03e 4a50 173a 3889 9d3e
000001d0: 560c 813d d734 1bbe d9ac 8fbc 2e4d 4cbe
000001e0: d373 85bf de19 e53e 278f 8b3e 6e93 0a3e
000001f0: 3e62 f2bc 0d58 c8bd 68e5 213d 5b68 073e
00000200: 2141 cbbd f191 4fbe d23a 9fbe e82d 6abd
00000210: 2a5d 9c3c cd2b 48bd 3890 6abd 8ba2 5b3b
00000220: 5f41 90be 049b f03e 9b80 173f fbd8 fdbc
00000230: 35eb 44be 16ea f7be 2166 823e d025 00bf
00000240: dbdb d13c 9710 193e 771c adbe 1a2e b23e
00000250: a00f 81be 12ea f6bd 93eb 833c 4240 f13c
00000260: 87be bdbd 56f7 a03e 75eb 5f3e ca53 a5bf
00000270: cc88 91bc 4648 e23c c833 13be 069d c33e
00000280: dee6 883d 239c 67be dcd5 0bbc b638 af3d
00000290: 4898 f9bd 8cfa 3bbc 2002 1e3c 0721 27bd
000002a0: 11b1 5dbd f635 71bd d8f3 a93e 7e08 a83e
000002b0: 9e92 9ebe a8c7 33bc 81b0 d5be b515 d1be
000002c0: d88b 063f ebba 05be f80b cb3c e6dc 9bbd
000002d0: def2 34bd c76c ed3e 23eb 68be 724d db3d
000002e0: d101 c63d 2b3c 22bd 3267 14bd b846 adbe
000002f0: 3361 9a3e 8481 24bf b715 f4bd 1e91 77bd
00000300: e952 8fbd 346d 083e e2c5 42be 7b73 85be
00000310: bfda 853d c13e 313d f1f7 be3d 8ab3 a7bc
00000320: 941f a3bc ae70 33bd 3824 733c 3acc 01be
00000330: cd5a 2e3e 2662 76bc 66fe f3be 037c b93e
00000340: 5304 21bd c28c d4be 02b4 fe3d db83 01bf
00000350: 74e9 99bd 0696 153e 17a5 92bd c592 2f3d
00000360: 9a37 3cbe 7959 613b cedc 06bd 84f8 c0bc
00000370: 0bc6 c8bc 48b8 963e 1c0c 453f 4a27 ff3e
00000380: a2af 86be e558 09be 0159 e73e 4de8 d13c
00000390: a51e 46bf 3436 18be 5f3f 8cbe 22e1 90be
000003a0: 3a25 263f 1d58 b6be 0769 2d3e 2032 7d3d
000003b0: 6d2c 2c3e bd96 41bd b7dd a53e d027 893e
000003c0: 7d8d b8bf deb9 ba3e 522e b13d 0d11 14be
000003d0: 9086 40be 2845 0f3e 9783 39bd 56db 053c
000003e0: 16c1 16be cf03 a1bd 88c4 ae3d 7240 01bd
000003f0: aba7 e1bd ed99 cbbd bcd2 b2bd e5e5 9d3e

critic.0.bias f4 [128]
0.07978962 -0.3056615 0.41093925 0.055848587 -0.3139179 -0.45060796 -0.19705126 0.15235016
-0.121838264 -0.5559173 0.01822782 -0.18544376 -0.21788925 -0.0032626598 -0.07970843 -0.14620411
0.31858116 -0.1447171 0.052530013 -0.21264121 -0.23579541 -0.33990893 0.2886389 -0.20516153
0.44965726 -0.55481035 0.44314912 -0.28703076 -0.15732498 0.17889485 0.51476556 0.28794733
-0.22452405 -0.10759078 -0.27488592 0.25637728 0.36719826 -0.21949767 0.46041635 -0.14782207
-0.031061776 0.19181055 0.103217 0.1900995 -0.460551 0.34897387 -0.29567194 -0.3439941
0.3639276 -0.20473668 0.45274037 0.19430959 0.06504973 -0.14682512 0.3728341 -0.036039162
-0.4779644 0.53013754 -0.18592069 -0.045861423 0.24634182 0.15902801 -0.2692948 -0.28660607
-0.17132121 -0.1574958 -0.094904274 -0.18897739 -0.22246346 0.32116225 0.20434487 -0.15419997
-0.15750788 -0.09512331 0.1318627 0.1886371 0.18631428 -0.08784739 0.22330604 -0.17853186
-0.38121465 0.11772275 0.33494425 0.45990524 -0.24626876 0.30995384 -0.13721426 0.17531098
0.009088926 0.17809297 -0.03888268 0.28858536 0.10719226 0.01956975 -0.42313755 0.34054652
-0.0055198898 -0.13099626 0.16199747 0.11642082 0.13141854 -0.0091992 -0.12691407 -0.28527007
0.44452983 -0.362822 0.18329962 0.1345918 -0.029397734 0.31521595 0.054165997 -0.25727454
0.115182705 -0.22496203 -0.30757722 -0.08603119 0.101736896 -0.030091768 0.022172607 0.09922614
0.2790178 -0.14246616 0.23257302 -0.0015140807 0.07019226 0.24252926 -0.18862195 0.14456819
00000000: be68 a33d aa7f 9cbe a166 d23e 7dc1 643d
00000010: d9b9 a0be 16b6 e6be cec7 49be ae01 1c3e
00000020: 5786 f9bd 9950 0ebf 8252 953c f8e4 3dbe
00000030: 5c1e 5fbe 59d2 55bb 2c3e a3bd 88b6 15be
00000040: 121d a33e b830 14be b629 573d 9ebe 59be
00000050: 5a74 71be 8b08 aebe 7ac8 933e dd15 52be
00000060: 7a39 e63e 0d08 0ebf 71e4 e23e b2f5 92be
00000070: cd19 21be 3630 373e adc7 033f d56d 933e
00000080: a2e9 65be 8e58 dcbd d9bd 8cbe e243 833e
00000090: 6901 bc3e ffc3 60be b1bb eb3e ab5e 17be
000000a0: 4475 febc fc69 443e 6f63 d33d 71a9 423e
000000b0: 57cd ebbe b4ac b23e 5062 97be ff1f b0be
000000c0: b854 ba3e 7ea6 51be 96cd e73e 18f9 463e
000000d0: cb38 853d 5359 16be 1ce4 be3e cd9d 13bd
000000e0: c0b7 f4be 18b7 073f fe61 3ebe 30d9 3bbd
000000f0: 0841 7c3e 3dd8 223e 02e1 89be 08be 92be
00000100: d46e 2fbe 9446 21be 2c5d c2bd 4a83 41be
00000110: 76cd 63be 616f a43e c83f 513e 99e6 1dbe
00000120: bf49 21be 03d0 c2bd 0407 073e 152a 413e
00000130: 2cc9 3e3e 55e9 b3bd 57aa 643e 0ed1 36be
00000140: 912e c3be a018 f13d d07d ab3e b378 eb3e
00000150: e12d 7cbe 45b2 9e3e e581 0cbe b984 333e
00000160: b8e9 143c 015e 363e 7243 1fbd 76c1 933e
00000170: 9e87 db3d be50 a03c 7ca5 d8be 1d5c ae3e
00000180: 31e0 b4bb e223 06be aae2 253e 0a6e ee3d
00000190: 9592 063e 3eb8 16bc c3f5 01be eb0e 92be
000001a0: 6a99 e33e cec3 b9be e5b2 3b3e 6fd2 093e
000001b0: 84d3 f0bc fc63 a13e 2add 5d3d 7db9 83be
000001c0: e9e4 eb3d 725c 66be c37a 9dbe 1f31 b0bd
000001d0: 6f5b d03d 0383 f6bc 54a3 b53c 1337 cb3d
000001e0: 6cdb 8e3e a6e2 11be 9f27 6e3e 1e74 c6ba
000001f0: f6c0 8f3d 9759 783e 1d26 41be af09 143e

critic.2.weight f4 [128, 128]
-0.0052063046 -0.040069304 -0.2786289 0.22907205 -0.24540696 0.083267696 0.22062247 -0.16610612
0.35964847 0.061024185 0.18107355 0.08333662 0.04736409 0.56620795 -0.4770378 0.11985275
-0.043291226 0.01782418 -0.2960932 0.118752934 -0.07615188 0.15338083 -0.18809772 0.03498144
-0.122938596 0.16542464 0.051482223 0.23436984 0.09956573 -0.3488839 -0.085169755 -0.07958299
-0.16238181 -0.19879557 0.2319041 -0.24942423 -0.19755363 0.08746115 -0.16354205 0.16511226
0.4916365 -0.09027992 -0.36879998 0.2619662 0.115253136 -0.12571286 0.013547169 0.05624587
-0.20841423 0.16934441 -0.24706171 -0.26184836 0.25069997 -0.19334872 -0.07417586 -0.34382445
0.15915908 -0.16735573 -0.08722124 -0.3268721 -0.02163766 -0.08254382 0.103428796 0.034079004
-0.024933 -0.35231444 0.21423548 0.121606775 0.036242723 -0.112438805 -0.108416915 0.22034357
0.4057287 -0.12072149 0.12655061 -0.20705469 -0.09123897 0.1131313 0.1396583 -0.054719977
0.10189923 0.23676382 0.04735812 -0.23908678 -0.16988085 0.04446254 -0.2537776 -0.2989319
-0.32470378 -0.3029313 0.01407845 -0.1304748 0.10539579 0.30244038 0.0065914444 -0.30794588
0.37667665 0.17748098 -0.015626958 0.086782984 0.09107773 -0.16811524 0.19936693 -0.012493023
-0.13690224 -0.08639254 -0.1955805 -0.43830284 -0.29929498 -0.19709298 -0.23900963 0.24750651
-0.11438073 -0.0054824473 0.003468035 -0.10792513 0.29805574 -0.14273064 0.003451581 0.05869243
0.0016489394 0.10269139 -0.03060351 0.121679924 -0.034508944 -0.22234316 0.14125128 0.022052383
0.20570207 -0.16845395 0.06246397 0.06273361 -0.23703334 0.0395239 -0.04488468 0.083802655
0.26116514 -0.12214815 0.1359626 -0.14362365 0.03414687 0.14396906 -0.08238621 -0.16647242
0.06230758 0.033341695 0.08407411 -0.06277745 -0.12658022 0.013464554 -0.007512206 0.16168183
0.01341399 -0.030233905 0.0671401 -0.029626263 -0.14800477 -0.24727333 0.09689267 0.057377465
-0.19172399 -0.29986665 0.011021561 -0.10708388 -0.13747108 0.04385772 0.059349593 0.035203554
0.27515516 0.047992803 -0.14213474 0.37980172 -0.032619968 0.1239898 -0.053886026 -0.103336945
-0.06381768 0.13732503 -0.0105835665 0.056287486 0.20183341 -0.18069339 0.197156 -0.26626164
0.006918928 0.14534687 -0.2613539 -0.3024636 -0.04730457 -0.049736284 -0.054810006 -0.04387123
-0.11325382 -0.28432122 -0.03817963 -0.118951015 -0.072709695 -0.029680459 0.0769728 0.012004256
-8.557727e-05 -0.2439619 0.11124072 -0.043169755 0.012230403 -0.08186283 0.2314198 0.033609435
-0.053689092 0.1507847 0.04503022 0.056069747 -0.17736119 -0.09315002 -0.29904693 -0.20411961
-0.36001375 -0.20776357 -0.02888524 0.04854341 0.13171823 0.2874192 -0.056441005 -0.40792176
0.37034634 0.124472454 0.037771966 0.26019138 0.20201497 -0.21633682 -0.037925497 -0.0884336
0.027818777 -0.2221276 -0.22582832 -0.3007484 -0.29744568 -0.033382885 -0.29407483 0.12468244
0.021312978 0.013835228 -0.08902974 -0.054924972 0.3717352 -0.120597646 -0.15766539 0.022591516
-0.03816934 -0.06553894 0.032809608 0.012293707 0.015229495 -0.096962385 0.075315304 0.1456799
00000000: a699 aabb b61f 24bd 72a8 8ebe dd91 6a3e
00000010: f64b 7bbe 4188 aa3d dbea 613e b917 2abe
00000020: d823 b83e 7ff4 793d 586b 393e 64ac aa3d
00000030: d900 423d 01f3 103f 4c3e f4be 5c75 f53d
00000040: 2452 31bd 0404 923c 8799 97be bd34 f33d
00000050: 84f5 9bbd dd0f 1d3e b09c 40be b348 0f3d
00000060: 3bc7 fbbd 1465 293e 06df 523d a6fe 6f3e
00000070: 1ee9 cb3d e9a0 b2be 7b6d aebd 68fc a2bd
00000080: 6b47 26be 1191 4bbe 4578 6d3e 1169 7fbe
00000090: 804b 4abe d51e b33d 9177 27be 3013 293e
000000a0: c8b7 fb3e aee4 b8bd 5ad3 bcbe 6f20 863e
000000b0: d609 ec3d dfba 00be f2f4 5d3c 1262 663d
000000c0: 8a6a 55be 9f68 2d3e bffd 7cbe fd10 86be
000000d0: bf5b 803e 35fd 45be 83e9 97bd c209 b0be
000000e0: 99fa 223e 4d5f 2bbe 0da1 b2bd c85b a7be
000000f0: 7641 b1bc bc0c a9bd 7ad2 d33d 6d96 0b3d
00000100: 4a40 ccbc 8f62 b4be 8c60 5b3e f90c f93d
00000110: 4073 143d 5146 e6bd b009 debd bfa1 613e
00000120: acbb cf3e d43c f7bd 7c96 013e 2506 54be
00000130: 7fdb babd 62b1 e73d 9602 0f3e 0e22 60bd
00000140: 8bb0 d03d 3772 723e 97fa 413d 2ad3 74be
00000150: 3ff5 2dbe 5a1e 363d 23ef 81be 9a0d 99be
00000160: 933f a6be d019 9bbe 4da9 663c 309b 05be
00000170: bfd9 d73d 77d9 9a3e 0bfd d73b 15ab 9dbe
00000180: c3db c03e 93bd 353e 1b04 80bc 47bb b13d
00000190: f686 ba3d 6726 2cbe d826 4c3e 89af 4cbc
000001a0: 1a30 0cbe 92ee b0bd 4146 48be 3b69 e0be
000001b0: 313d 99be bed2 49be f1be 74be 5972 7d3e
000001c0: 7240 eabd 1aa6 b3bb f947 633b da07 ddbd
000001d0: c39a 983e fb27 12be ec33 623b 7967 703d
000001e0: 3a21 d83a dd4f d23d 36b4 fabc 5333 f93d
000001f0: 4059 0dbd edad 63be 2da4 103e 33a7 b43c
00000200: 90a3 523e 317f 2cbe 38da 7f3d 7b7a 803d
00000210: deb8 72be d0e3 213d 00d9 37bd baa0 ab3d
00000220: 70b7 853e cf28 fabd c839 0b3e 1412 13be
00000230: 97dd 0b3d a06c 133e 1aba a8bd bf77 2abe
00000240: 3c36 7f3d 4d91 083d 0c2f ac3d 7791 80bd
00000250: 3f9e 01be 6f9a 5c3c f428 f6bb ec8f 253e
00000260: 5ac6 5b3c 18ad f7bc c080 893d c7b2 f2bc
00000270: 908e 17be 3835 7dbe aa6f c63d a204 6b3d
00000280: 4b53 44be 1f88 99be c793 343c cb4e dbbd
00000290: 38c5 0cbe 27a4 333d 8f18 733d 9a31 103d
000002a0: 23e1 8c3e 1a94 443d c58b 11be 5f75 c23e
000002b0: 849c 05bd 5dee fd3d 98b7 5cbd 52a2 d3bd
000002c0: d8b2 82bd ef9e 0c3e b266 2dbc b58d 663d
000002d0: 6bad 4e3e b007 39be 43e3 493e 7253 88be
000002e0: 2db8 e23b cfd5 143e 2ed0 85be 82dc 9abe
000002f0: 70c2 41bd 46b8 4bbd 7580 60bd 52b2 33bd
00000300: 9ef1 e7bd 8d92 91be 3e62 1cbd 979c f3bd
00000310: d2e8 94bd 6f24 f3bc eaa3 9d3d 80ad 443c
00000320: f277 b3b8 26d1 79be 2dd2 e33d c5d2 30bd
00000330: 0762 483c b3a7 a7bd 50f9 6c3e 0caa 093d
00000340: 18e9 5bbd 4e67 1a3e 9c71 383d 64a9 653d
00000350: 2c9e 35be 70c5 bebd ae1c 99be bb04 51be
00000360: b953 b8be f9bf 54be bda0 ecbc 74d5 463d
00000370: 25e1 063e 9c28 933e af2e 67bd 1fdb d0be
00000380: 099e bd3e 6aeb fe3d c7b6 1a3d ce37 853e
00000390: 03dd 4e3e 6687 5dbe c457 1bbd ad1c b5bd
000003a0: 34e4 e33c 6b75 63be 8a3f 67be b2fb 99be
000003b0: cd4a 98be 7ebc 08bd fa90 96be 8259 ff3d
000003c0: 8e98 ae3c 27ad 623c 3955 b6bd 02f9 60bd
000003d0: 1354 be3e e6fb f6bd 0973 21be d811 b93c
000003e0: 7457 1cbd 4839 86bd 5e63 063d 8b6b 493c
000003f0: 2285 793c 3794 c6bd e93e 9a3d 1d2d 153e

critic.2.bias f4 [128]
0.07846314 0.06451645 0.026445026 -0.04727784 -0.012463712 -0.07295413 0.08749437 0.43785092
0.0055957637 -0.036938593 0.02029646 -0.087819435 -0.024024118 0.163938 -0.039425503 -0.022137929
-0.041334298 0.026521929 -0.07911285 -0.04940947 0.12820794 0.055803154 -0.022793408 0.17177895
0.10111576 -0.08901171 0.16458002 0.09013591 -0.09471875 -0.1379886 -0.03653407 -0.0097494265
-0.15872514 0.12586135 0.052100614 -0.10620477 0.16226062 0.060411755 0.04505 0.117840536
-0.060030997 -0.16386892 -0.1314159 -0.206187 -0.024845643 0.1978946 -0.023827426 0.032116804
-0.48993373 -0.15700199 0.15387571 -0.08882675 -0.041683402 0.062594384 -0.06853744 0.013203548
-0.11386276 -0.014625 0.04916721 0.10017649 -0.06982507 0.06097961 -0.07761732 -0.010049025
0.18555902 -0.014185535 -0.09041208 -0.026141016 -0.11410349 0.022176549 0.020123553 0.23020896
0.026495483 0.054160304 -0.09667725 0.08218476 0.1319067 0.024974132 0.30245006 0.122181095
-0.01065884 0.1263581 0.001215205 0.11045375 0.04520441 -0.17170422 -0.068604596 0.16883835
0.19401443 -0.072326235 0.056032263 -0.04392335 0.2180167 -0.043489974 -0.12222648 0.022347197
0.026557507 -0.06634938 -0.13321954 -0.0125971725 -0.19212201 -0.08935769 0.04687728 0.06335221
0.032765362 0.041098807 -0.10881545 0.21145892 0.13974068 -0.14620522 -0.09987009 -0.14567792
-0.069518104 -0.04145797 -0.012222263 0.020118684 0.061296873 0.0035193264 -0.0400986 0.19135712
-0.1870662 -0.0680468 0.05365331 0.14717768 -0.05768828 0.10672972 -0.1633734 0.0507876
00000000: 48b1 a03d 3321 843d 3da3 d83c 69a6 41bd
00000010: 9934 4cbc fa68 95bd 4030 b33d ff2d e03e
00000020: ab5c b73b ec4c 17bd c344 a63c adda b3bd
00000030: 3ace c4bc 5ddf 273e a37c 21bd 9a5a b5bc
00000040: 274e 29bd 8444 d93c eb05 a2bd 9661 4abd
00000050: f148 033e d991 643d 3eb9 babc d2e6 2f3e
00000060: c815 cf3d c54b b6bd aa87 283e 2d99 b83d
00000070: e7fb c1bd e24c 0dbe c0a4 15bd 0fbc 1fbc
00000080: d888 22be cce1 003e 7467 553d e381 d9bd
00000090: a627 263e 5172 773d 5986 383d 6156 f13d
000000a0: 10e3 75bd 41cd 27be e491 06be af22 53be
000000b0: 1789 cbbc e2a4 4a3e bc31 c3bc e98c 033d
000000c0: 98d8 fabe 21c5 20be 9891 1d3e cdea b5bd
000000d0: 37bc 2abd 7c31 803d 5b5d 8cbd b253 583c
000000e0: e130 e9bd b29d 6fbc 8e63 493d 5529 cd3d
000000f0: 7200 8fbd c1c5 793d d4f5 9ebd aaa4 24bc
00000100: 2f03 3e3e 726a 68bc f829 b9bd af25 d6bc
00000110: 17af e9bd 98ab b53c 26da a43c e6bb 6b3e
00000120: 0e0d d93c 32d7 5d3d b9fe c5bd 7c50 a83d
00000130: 8d12 073e 8d96 cc3c bcda 9a3e 153a fa3d
00000140: 6aa2 2ebc 0564 013e 8347 9f3a 9335 e23d
00000150: 4228 393d 3bd3 2fbe 9180 8cbd f6e3 2c3e
00000160: b8ab 463e c71f 94bd 1682 653d f8e8 33bd
00000170: c53f 5f3e 8b22 32bd e051 fabd 7811 b73c
00000180: 218f d93c 2fe2 87bd b46a 08be 5f64 4ebc
00000190: a2bb 44be 2a01 b7bd 6402 403d cebe 813d
000001a0: f934 063d 3957 283d a2da debd b088 583e
000001b0: 2e18 0f3e d2b6 15be b188 ccbd 982c 15be
000001c0: 825f 8ebd d5cf 29bd e33f 48bc f0cf a43c
000001d0: 6e12 7b3d 80a4 663b 6e3e 24bd 1ff3 433e
000001e0: 488e 3fbe 1f5c 8bbd 93c3 5b3d bfb5 163e
000001f0: 8c4a 6cbd 1d95 da3d 5b4b 27be a906 503d

critic.4.weight f4 [1, 128]
0.015224928 -2.4459943e-05 0.033214256 0.002662612 -0.04762632 -0.0023849567 0.07107445 -0.09154299
-0.00020322818 -0.058753278 0.0005924565 -8.635484e-06 0.00033129696 0.14533725 -0.0009495089 -0.006428481
-0.0005127493 0.010882447 -0.079008356 -0.025512272 0.017101666 -0.0004302392 0.0016420876 -0.1008103
0.04361501 -0.063852645 0.047593035 0.057804756 -0.033006847 -0.0055809435 0.0043714 -9.140438e-05
0.050941758 0.072695896 0.0041333614 -0.09186428 0.11573056 0.047187198 0.002579614 0.019089887
0.00050392695 -0.035123058 0.00089389255 0.08280278 -0.08134619 -0.14890201 -0.0005814628 0.08797806
-0.105272956 0.02877562 0.024472762 0.0411341 -0.0014322848 0.051182073 -0.0010319633 -0.031609584
-0.015228984 -0.06450308 -9.76488e-05 -0.0033263825 -0.009691559 0.0002531099 0.06283615 0.11506584
-0.095411204 0.017450107 -0.04669785 -0.07408368 0.080220416 0.052921187 0.07390559 -0.0297231
0.042749744 0.001501991 -0.008137501 -0.07421523 0.051478032 -0.0019161553 -0.1151765 0.008275072
0.0678817 0.08793047 -0.0018939598 0.00072140683 -0.028515583 0.092245474 -0.0055899266 0.029533358
-0.06601624 0.03914194 -0.0017982834 0.00116296 -0.046203956 0.0008517034 0.09488589 0.04907408
-0.028269177 0.000629698 0.028453177 -0.0011950461 0.030911027 0.00032825666 -0.0007947708 0.0007511414
-0.06024732 0.0009940342 -0.032855522 -0.07378999 7.6139426e-05 -0.121292375 0.0069628223 -0.008360477
0.25495982 -0.053240974 0.0010924132 0.0015020587 -0.0008075965 -0.0027313665 -0.05775852 0.102335624
0.05596926 0.0007789918 -0.035703953 0.000562517 6.092194e-05 0.12791967 -0.027222551 0.00027309015
00000000: fa71 793c 542f cdb7 ac0b 083d 377f 2e3b
00000010: d113 43bd ef4c 1cbb 7b8f 913d e47a bbbd
00000020: a619 55b9 47a7 70bd 154f 1b3a 1fe1 10b7
00000030: edb1 ad39 4ad3 143e 77e8 78ba 02a6 d2bb
00000040: 066a 06ba 4a4c 323c 22cf a1bd 1dff d0bc
00000050: cb18 8c3c ba91 e1b9 513b d73a a175 cebd
00000060: a7a5 323d 2dc5 82bd eaf0 423d aec4 6c3d
00000070: 3032 07bd 59e0 b6bb f63d 8f3b 5ab0 bfb8
00000080: 4ea8 503d 96e1 943d 2671 873b 5723 bcbd
00000090: 2504 ed3d 5d47 413d be0e 293b 6562 9c3c
000000a0: f719 043a 32dd 0fbd 1d54 6a3a 8194 a93d
000000b0: d598 a6bd c579 18be 4f6d 18ba d72d b43d
000000c0: 5999 d7bd d9ba eb3c 1a7b c83c 3b7c 283d
000000d0: 81bb bbba 4ba4 513d f142 87ba 0d79 01bd
000000e0: fd82 79bc 311a 84bd cdc8 ccb8 70ff 59bb
000000f0: 58c9 1ebc d6b3 8439 3db0 803d a4a7 eb3d
00000100: f366 c3bd 87f3 8e3c 3f46 3fbd 2fb9 97bd
00000110: 9a4a a43d e3c3 583d d05b 973d dc7d f3bc
00000120: 5b1a 2f3d 74de c43a 2753 05bc 28fe 97bd
00000130: a1da 523d 8127 fbba a8e1 ebbd 2b94 073c
00000140: 9005 8b3d e414 b43d bf3e f8ba cb1c 3d3a
00000150: 8399 e9bc 32eb bc3d b42b b7bb f1ef f13c
00000160: 8633 87bd 4d53 203d 61b4 ebba 766e 983a
00000170: 5c40 3dbd d944 5f3a 8953 c23d e701 493d
00000180: c394 e7bc 5112 253a a316 e93c 18a3 9cba
00000190: 1f39 fd3c dd19 ac39 2a58 50ba 3fe8 443a
000001a0: e5c5 76bd 414a 823a 8393 06bd 351f 97bd
000001b0: 0bad 9f38 2368 f8bd 6328 e43b 62fa 08bc
000001c0: 188a 823e 3513 5abd 4e2f 8f3a bae0 c43a
000001d0: e2b4 53ba ba00 33bb 3394 6cbd 5795 d13d
000001e0: 0640 653d 4135 4c3a 4f3e 12bd e075 133a
000001f0: 6f86 7f38 60fd 023e d401 dfbc 8a2d 8f39

exp_avg f4 [4]
-0.0015289383 0.0087489225 0.010012912 -0.0004275525
00000000: a866 c8ba a457 0f3c 320d 243c 2029 e0b9

exp_avg_sq f4 [4]
0.0003823313 0.00039728117 0.0008905745 0.0002781639
00000000: a373 c839 2d4a d039 7175 693a 87d6 9139
